saved_models_20200625/rob_conv_net_pgd10.pth (torch_old, 292165 bytes, 10 tensors)

conv1.weight f4 [6, 3, 3, 3]
000000 bd 4b f0 bc dc 0a 0b bd 1b 94 dc bc 6f e4 c2 bc
       -0.02933299 -0.033945903 -0.026926091 -0.023790566
000010 81 85 0e bd d1 54 b1 bc 9b c5 b2 bc 06 be 06 bd
       -0.034795288 -0.021646889 -0.021822741 -0.032896064
000020 40 aa b0 bc 56 7c 87 bc 30 ee 87 bc 1f 0b 61 bc
       -0.021565557 -0.01653878 -0.016593069 -0.013735562
000030 78 6b e3 bb 64 02 2f bc 1b ee a0 bb 89 f0 a0 bb
       -0.0069403015 -0.010681722 -0.004911197 -0.0049114865
000040 5f 6c 16 bc cf 98 88 bb fe 4f 17 3b 62 68 de 3b
       -0.009181111 -0.004168607 0.002308845 0.0067873457
000050 73 2f 99 3b 50 b4 ce 3d 71 47 13 3e bc 8e d3 3d
       0.004674846 0.10092986 0.14382721 0.10329959
000060 b0 3a 54 3d e1 2a 84 3d f1 fc 5e 3d 48 20 5e 3c
       0.05181378 0.06453491 0.054440442 0.013557501
000070 c1 95 c9 3c d8 7e 86 3c a2 b7 ef 3c 68 4a 53 3d
       0.024607541 0.016417906 0.029262368 0.05158463
000080 40 02 0a 3d 70 f7 b6 3c d3 b8 11 3d 6a 65 d9 3c
       0.033693552 0.022334784 0.035576653 0.026537616
000090 7d 87 c4 3b b5 57 38 3c 76 fd f8 3b f7 8b 8a 3c
       0.005997597 0.01125138 0.0075985743 0.016912444
0000a0 5e 83 d0 3c d9 c2 95 3c be cf 4e 3c f1 7f 9f 3c
       0.025453266 0.018281387 0.012622772 0.019470187
0000b0 f4 f2 60 3c 74 e3 8a bb 4b 25 4e bb 83 69 82 bb
       0.0137298 -0.0042385403 -0.0031455334 -0.003979863
0000c0 94 8b 76 38 8c 4a bf 3a 58 8c 1b ba 46 e9 0a bb
       5.8780963e-05 0.001459436 -0.00059336936 -0.002119617
0000d0 14 98 28 ba 19 dc 23 bb a6 d8 98 3d 87 ea d9 3d
       -0.0006431353 -0.0025003015 0.074631974 0.10640436
0000e0 f9 42 8a 3d 92 94 8c 3c 08 24 b1 3c 43 fe 76 3b
       0.06751055 0.017160688 0.021623626 0.0037688173
0000f0 93 59 b1 bd 64 47 04 be 17 be ca bd c3 88 1d 3d
       -0.08659663 -0.12917858 -0.09899538 0.038460504
000100 08 05 53 3d 3f cd 0e 3d 8a b9 1a 3c 64 06 5c 3c
       0.05151847 0.034863707 0.00944365 0.013429258
000110 8d 4b 0d 3b 44 52 65 bd a8 2f be bd 95 39 7f bd
       0.0021559924 -0.055986658 -0.092864335 -0.062310774
000120 ab f7 72 3d f6 ad d0 3d 9a d1 67 3d 91 f4 e5 3b
       0.059318226 0.101894304 0.056596376 0.00701768
000130 63 32 f8 3b 1b 27 b3 ba b9 ae 1c bd 97 ad 40 bd
       0.007574366 -0.001366827 -0.038252566 -0.04704055
000140 4d 43 0d bd 34 71 8f 3b fd c6 b7 3b 71 ef b2 3b
       -0.03448801 0.0043775085 0.005608438 0.0054606725
000150 d4 30 1a ba 14 54 a3 bb 95 cf 60 3a 47 48 5f bb
       -0.000588191 -0.004984388 0.0008575854 -0.003407018
000160 fd e2 7f bb 5f 1a 46 b9 5a 83 47 3b a4 bf 89 3b
       -0.0039045208 -0.00018892575 0.0030443282 0.0042037535
000170 be e3 4d 3b ce 36 92 3a 1e 8c 80 39 9f 25 15 3b
       0.0031416262 0.0011155249 0.00024518458 0.002275802
000180 9e f4 f8 ba 6f 08 88 ba c3 e6 8b 3a 1c 26 30 3d
       -0.00189938 -0.001037849 0.0010673631 0.043005094
000190 9c 37 bc 3d 5e 6b 86 3d c7 98 24 3d ad 7e 8c 3d
       0.09190294 0.065634474 0.040184762 0.06860099
0001a0 2b 44 5e 3d 76 40 aa 3c 52 a1 06 3d 70 6c d1 3c
       0.05426423 0.02078269 0.03286869 0.025564402
0001b0 c0 14 11 3d b2 74 40 3d 5f bb 1b 3d 70 eb 5a 3d
       0.03542018 0.04698629 0.038020488 0.053447187
0001c0 44 7e 97 3d 17 30 77 3d f9 ce 26 3d 3e de 72 3d
       0.0739713 0.060348596 0.04072473 0.059293978
0001d0 80 5e 3a 3d fe f2 79 bc 68 45 cc bc 30 07 8c bc
       0.04550028 -0.015255688 -0.02493544 -0.017093271
0001e0 d1 4a 17 bd df 3d 58 bd 27 26 13 bd ff 68 03 bd
       -0.036936585 -0.05279338 -0.035925057 -0.032082554
0001f0 1a bc 36 bd ea f7 f3 bc 97 78 77 3a 4b 4f 0d bb
       -0.04461298 -0.0297813 0.00094402715 -0.0021562155
000200 3b fd 10 ba 9c 1a 9f bb b9 bb 36 bc 4e c3 f3 bb
       -0.00055308983 -0.004855467 -0.011153155 -0.0074390536
000210 0a eb e1 bb dd f4 50 bc 20 4e 09 bc f8 d5 70 bb
       -0.006894474 -0.012753692 -0.008380443 -0.003674863
000220 7b 1f 2d bc 57 84 4c bc 97 80 cc bb 8d ed ad bc
       -0.010566588 -0.012482724 -0.006240915 -0.021231437
000230 e4 8a 86 bc 26 c8 64 bc 79 04 09 bd ec 45 af bc
       -0.01642365 -0.013963735 -0.03345153 -0.021395646
000240 4d 4c 9c bb 81 5c ab bc bb 0f 90 bc 41 f1 72 bc
       -0.004769838 -0.020918133 -0.017585626 -0.014828027
000250 6c de 7d bd 96 a5 fc bc ba bb e7 bc 89 bd 01 be
       -0.061979696 -0.030840676 -0.028287757 -0.12669958
000260 cf 52 2d bd 8c a1 56 3b 96 8b 9d 3a 00 a0 b9 39
       -0.0423153 0.0032750098 0.0012019749 0.0003540516
000270 7d 70 0c 3b 9a 18 3e b9 51 2f 78 ba 84 36 9e b7
       0.0021429353 -0.00018128977 -0.00094675 -1.8860454e-05
000280 ec 35 13 bb 17 90 c1 ba
       -0.002246256 -0.0014767674

conv1.bias f4 [6]
000000 37 45 12 3e f9 25 73 3e 96 af 8f bd 16 4a 17 3e
       0.14284216 0.23744954 -0.07015912 0.14774355
000010 7d b5 31 3d d2 ae 6d 3d
       0.04338597 0.05802805

conv2.weight f4 [16, 6, 3, 3]
000000 f3 63 88 bd 1d 79 7c bd 26 3d a6 bd 65 10 a0 bd
       -0.06659689 -0.06163894 -0.08117132 -0.07815627
000010 4a 1b fc bd 8f 25 b9 bd fa 23 72 bd 3c 1c 2b bd
       -0.123098925 -0.09040367 -0.05911634 -0.041774973
000020 86 26 38 bd 06 ca e5 3c c4 85 a8 3d fb 32 8b 3c
       -0.044958614 0.028050434 0.08228639 0.016992083
000030 be bd 89 3d da 90 22 bd 02 25 b7 3c 87 bc 87 3d
       0.067256436 -0.039688922 0.022356514 0.066277556
000040 26 04 c7 3d 1e c3 db 3d a2 aa 71 bc f8 5f b4 bb
       0.09717588 0.10730575 -0.014750155 -0.0055046044
000050 37 01 6c bc cf 4b b8 bb 16 1d ae 3b 2a e7 15 bc
       -0.0144045865 -0.0056242715 0.005313526 -0.009149352
000060 3b c3 2f 3c ae b0 c1 3b 68 f8 5f 3c 7d 56 1b be
       0.010727699 0.0059109544 0.0136700645 -0.15169711
000070 34 28 f4 bd ee 88 12 be f0 2b bc bd b0 e9 92 be
       -0.11921731 -0.14310047 -0.09188068 -0.28693914
000080 d8 1e 0b be 20 62 d6 bd fe cc bc bd be ed d9 bc
       -0.13585985 -0.104679346 -0.09218787 -0.026602622
000090 cd 26 e9 bc d1 e2 90 bc 41 d9 09 bd 09 6c 58 bb
       -0.028460884 -0.01768628 -0.033654455 -0.0033023378
0000a0 2d 0b 82 bc 0f 4b 5e bc 7e c7 27 bc 8a b2 de 3b
       -0.01587447 -0.0135677 -0.010240434 0.006796186
0000b0 de 73 51 39 70 e0 80 bd 1b b9 b0 bd d8 94 90 bd
       0.00019974957 -0.06292808 -0.08629056 -0.0705964
0000c0 64 01 93 bd 92 5f 90 bd 0c 33 9c bd 5a 4a 3a bd
       -0.071779996 -0.070494786 -0.07626924 -0.045481063
0000d0 7d 60 bb bd ab 56 9a bd 4d bb 0a 3d 76 7e 04 3d
       -0.09149263 -0.07536062 0.03387003 0.032347165
0000e0 8a 8c d0 bc b6 ba 6e 3c 7d 59 74 3c 17 c9 00 3d
       -0.02545764 0.014570883 0.014913914 0.031441774
0000f0 9e f6 c8 bb 72 80 e7 3b ab dc fd ba b3 79 b8 3d
       -0.0061329147 0.0070648724 -0.0019368132 0.09007587
000100 db 89 d9 3d 48 27 7d bc 63 22 a2 3b 1a 85 8e bd
       0.10621997 -0.01545126 0.004947947 -0.06958981
000110 73 37 f1 3c 53 33 a2 bc b2 5c 0e 3d e0 09 c8 bc
       0.029445386 -0.019799864 0.03475637 -0.024418771
000120 18 d9 96 3e d8 db 89 3e 2a f3 86 3e 0e d3 2b 3d
       0.29462504 0.2692554 0.26357394 0.041949324
000130 7f d9 34 bd 39 b5 91 bc 38 a3 b5 3c 3e 20 bd 3c
       -0.044152733 -0.017786609 0.022172555 0.023086663
000140 c4 59 10 3c 1a 32 c3 3d a1 46 ee 3d ec 31 a6 3c
       0.008810464 0.095310405 0.11634565 0.020287476
000150 30 92 fa bd 4e 8b 9e be f6 55 c4 bd 9f 3d b1 bb
       -0.12234914 -0.30965656 -0.09586708 -0.005408957
000160 69 7a e5 3c 9c d7 b5 bc f5 44 0d 3b 13 2e 37 3c
       0.028012471 -0.022197537 0.0021555994 0.011180419
000170 53 af 3e bc 10 1b 1d bd 65 2f 4e bd ec de 86 bc
       -0.01163848 -0.038355887 -0.050338168 -0.01646372
000180 e8 27 9e bb 1e dd 38 3c 6b e5 8b bb 75 d6 8f 3d
       -0.0048265345 0.011283187 -0.004269292 0.07023326
000190 a2 93 e6 3d 1d 9f 7b 3d 6a d8 12 bd 01 a3 8a bd
       0.112586275 0.06143104 -0.03585092 -0.06769372
0001a0 a2 c1 9b bd 68 1a 4e bd c7 9c 39 bd e6 94 e4 bc
       -0.07605292 -0.05031815 -0.04531553 -0.027903032
0001b0 d8 b6 ef bd 6a 75 14 be 0b ea 86 3d 93 61 98 bd
       -0.117047966 -0.14497915 0.06587609 -0.07440486
0001c0 1e 8f c2 bd ba 49 8a 3d ee 9a 17 3a 92 ff 18 3b
       -0.09499954 0.067523435 0.0005783279 0.002334569
0001d0 3a 21 bb bd b9 31 ca bd 5c ea 08 be 5c 34 f3 bc
       -0.09137197 -0.09872765 -0.13370651 -0.029688053
0001e0 46 48 68 3d 72 31 76 3d 3f e4 8f 3d dc 94 db bd
       0.05670955 0.06010575 0.07025956 -0.10721752
0001f0 f7 7d ec bd 8c 8c da bd ca 51 89 bd 78 41 a6 3d
       -0.115474634 -0.106713384 -0.06705053 0.08117956
000200 87 4e 26 bc 82 fd fb bd a1 02 02 be cf c5 86 bd
       -0.010150558 -0.12304212 -0.12696315 -0.06580698
000210 05 fe d4 bd f3 00 ae 3d 35 b7 00 be 6d 72 79 3d
       -0.10400013 0.08496275 -0.12569888 0.06090014
000220 11 29 63 bd c9 60 ad bc 5d e2 97 bd 9d ff ed bb
       -0.055459086 -0.021164315 -0.07416222 -0.0072631375
000230 6d b3 27 be dd 94 61 3d 78 86 4d 3c 28 79 0a bd
       -0.16377039 0.055073608 0.012544267 -0.03380695
000240 e7 dc 43 3d 7d 06 8c bd 46 63 8d bd 97 e3 0e be
       0.04781809 -0.06837175 -0.069037005 -0.13954006
000250 71 4a 7f bd 7a e4 eb bd 94 35 90 3d b8 5d 9f 3d
       -0.062326852 -0.11518188 0.07041469 0.07781547
000260 f3 dc 0b be a8 73 ae 3b 20 24 e9 3c 85 70 fa bd
       -0.13658504 0.005323846 0.028459609 -0.12228493
000270 f9 80 22 3d 99 80 1a bd b7 2e 13 3d b6 7f 3a bd
       0.03967378 -0.037720297 0.035933223 -0.04553195
000280 5d 56 60 3d da 0a 1b 3d 5c 53 49 3d a1 81 3d 3d
       0.054769862 0.037852146 0.049151763 0.046266202
000290 b0 23 3a 3d 53 c3 49 3d a0 76 90 3c 2f 09 39 bc
       0.04544419 0.04925854 0.01763469 -0.011293693
0002a0 cd 4b cc bb e0 44 25 bd 2f 12 03 bd a5 99 0b 3e
       -0.006234622 -0.040348887 -0.031999763 0.1363283
0002b0 83 c7 db 3d eb 02 06 3e 94 23 09 3e b5 89 aa 3d
       0.10731413 0.1308705 0.13392478 0.08327047
0002c0 63 a7 24 3d ef 3f bb 3d 52 b7 a8 3b 04 94 92 bc
       0.040198695 0.09143054 0.0051488066 -0.017892845
0002d0 ea 0b b6 bb 9d 02 65 3b cf 4a 38 3d e3 f5 8a bb
       -0.0055556195 0.0034944185 0.044993218 -0.0042407378
0002e0 a7 a0 e5 3c b6 32 24 3d 8a cd ba bb 51 e1 6a 3c
       0.028030707 0.040087424 -0.0057007717 0.014335946
0002f0 57 4c 9d 3b d3 2b 0e 3e a6 14 e3 3d 23 69 ce 3d
       0.00480036 0.13883905 0.11087923 0.10078647
000300 a1 31 4c 3d f8 26 f4 3c 8d c5 a5 bc fe 09 93 3d
       0.049852017 0.029803738 -0.020235801 0.0717964
000310 e4 f4 e1 bb ab 5c 2a bd 9e ca f8 3c 2b c2 d8 3c
       -0.0068956483 -0.04159228 0.030370053 0.026459774
000320 74 b7 f7 3c 31 21 12 3d a5 09 cf 3c 7d 80 b4 3c
       0.030238844 0.035676185 0.025273154 0.022033924
000330 42 4b 0f 3d 39 a4 b5 3c d0 30 ac 3c 2d f3 fe bb
       0.03498388 0.022173034 0.02101937 -0.0077804537
000340 6a 24 cb bc 0d 5d e1 3c 30 66 2e bd d2 67 21 3d
       -0.024797637 0.02751019 -0.042577922 0.03940565
000350 b8 c0 b2 3d d4 52 29 3c 49 a2 64 3d 65 e2 4f 3d
       0.087281644 0.010334689 0.05581883 0.050753016
000360 89 76 d2 3d 39 4c c8 3d 93 49 d1 3d 69 3c d7 3d
       0.10276515 0.09780163 0.10219111 0.10509569
000370 22 84 ce 3d 54 e7 e6 3d 68 b3 cb 3d ff e4 ac 3d
       0.10083796 0.11274591 0.099463284 0.08442115
000380 cb 9f 9e 3d f2 d2 00 bd 3c b1 e0 bc 88 81 65 bd
       0.07745322 -0.031451173 -0.027428262 -0.056031734
000390 de 60 7b bd 65 c1 9c bd 6d 03 d9 bd 92 49 30 bd
       -0.061371677 -0.076540746 -0.105963565 -0.043038912
0003a0 8c ff 8f bd cf 81 d2 bd 5d 1e be 3b 9b bb 6f 39
       -0.070311636 -0.10278665 0.0058019594 0.00022862705
0003b0 e0 42 66 3c f1 98 be 39 62 0d d3 bb 9b e0 26 bc
       0.01405403 0.00036353574 -0.0064408043 -0.010185386
0003c0 56 63 c5 3b 1d ea ce 3b 49 96 b6 3b c8 54 b5 3d
       0.0060238047 0.0063145296 0.0055721146 0.08854061
0003d0 e9 cd 82 3d 0f 1b 87 3d ef 49 6f 3d 7a 93 93 3c
       0.063869305 0.06596958 0.058420118 0.018014658
0003e0 6b be ae 3c 22 38 86 3d 55 ff 85 3c 11 27 bc bc
       0.021331033 0.06553675 0.016357103 -0.022967847
0003f0 47 ac 4a bd a7 ae 40 bd 5e 7a 51 bd 21 e7 77 bd
       -0.049480703 -0.04704156 -0.05114209 -0.060523156

conv2.bias f4 [16]
000000 32 a6 97 3e 5b 99 de bc 9b e8 10 be 4d 02 82 be
       0.29618984 -0.027172735 -0.14151232 -0.2539238
000010 e9 57 ff 3d 50 0f 98 bd 4a 00 96 3d 49 c8 2e bd
       0.124679394 -0.07424796 0.07324274 -0.042671476
000020 6a 12 98 be b2 da ca bd c9 10 07 be c2 15 98 bd
       -0.2970155 -0.09904994 -0.13189997 -0.07426025
000030 1d d3 c1 bd 68 c9 a8 bd 0c 42 0c be 10 82 1a 3e
       -0.09464095 -0.0824154 -0.1369707 0.15088677

conv3.weight f4 [32, 16, 3, 3]
000000 47 d1 83 3d 51 af 4c 3d 67 83 20 3e f6 e2 98 be
       0.06436401 0.049971882 0.15675126 -0.29860657
000010 17 83 24 be f2 cf b1 bd 92 64 52 3d 02 49 f6 3c
       -0.16065632 -0.086822405 0.051365443 0.03006411
000020 e3 93 03 3e f6 f2 a5 35 83 fc 4e 3b db 96 9b bd
       0.12849383 1.2364169e-06 0.0031583614 -0.07597133
000030 61 cb fa 3d c1 8d cb 3c 52 f7 a2 3c a9 37 03 3e
       0.12245823 0.024847867 0.019893322 0.12814201
000040 78 d2 4b bd 7c 94 9e bc b1 24 00 bd e0 89 a8 bd
       -0.049761266 -0.019357912 -0.03128499 -0.082294226
000050 aa d3 33 3b fc 0d 75 bd 7d be 91 bd 1d 0e 6b bd
       0.0027439394 -0.05982779 -0.07116411 -0.057386506
000060 90 c9 15 bc 44 1d 97 3d 15 26 4d 3c 9f b7 09 3e
       -0.0091422945 0.07378629 0.0125212865 0.13448952
000070 b2 ff 2b 3e a4 d8 17 3d 95 2a 08 3e d9 59 85 3d
       0.16796759 0.03707184 0.13297494 0.06511278
000080 db f8 aa bd ca aa 19 bd 14 11 9f be fd 82 51 be
       -0.08348247 -0.037516393 -0.31067717 -0.20460124
000090 5a 4e 3e bc 7d 6c bf 3c 59 b5 8e bc 26 11 48 3d
       -0.01161536 0.02336716 -0.017420458 0.04884448
0000a0 53 d2 84 3d 6c b1 b5 bd 8b 7c 42 3e 1d b0 4b 3d
       0.06485429 -0.08871731 0.18992822 0.0497285
0000b0 49 f1 0a 3e 93 c1 93 3e a7 4c f3 3d a5 29 41 3d
       0.13568605 0.28858623 0.11879855 0.047158856
0000c0 0e b0 d7 3d 8d d3 1b 3e 6a 3e b3 bd 1a ed 8b 3e
       0.10531627 0.15217419 -0.08752139 0.27329332
0000d0 78 e1 1a 3d bb 22 83 bd 78 df e6 3d 95 3f 37 3e
       0.03781268 -0.06403109 0.11273092 0.17895348
0000e0 0a 15 f4 3d 6e db 25 be 01 a5 6c be 13 52 93 be
       0.119180754 -0.16196987 -0.23109819 -0.28773555
0000f0 ba 67 11 3e 23 a3 0e 3e 7a 09 de 3d ac fa 0a be
       0.14199725 0.13929419 0.10841651 -0.13572186
000100 8d ef e9 bd ea 36 c5 bc 66 b0 8c bd e4 e1 f8 bc
       -0.11422644 -0.024074037 -0.06869583 -0.03038115
000110 83 09 ac bd f3 74 9b bd 9e b2 d1 bd 24 37 3b bc
       -0.08400252 -0.07590666 -0.10239147 -0.011426721
000120 85 5d 01 3e 6d ad 81 3d 77 c1 40 bd 61 3d d3 3c
       0.12633331 0.063319065 -0.047059502 0.025786104
000130 b2 1f f7 bd 61 b3 5f 3c 71 85 87 bc dd 06 6c bc
       -0.12066592 0.013653607 -0.016543122 -0.014405933
000140 a8 6f 67 3d 65 86 3e bd 15 d6 80 3d f9 83 07 3d
       0.056502968 -0.046514887 0.06290833 0.033084843
000150 29 81 13 bd 0d 8d 0d 3e 08 96 0c 3d ce 4c fd bd
       -0.03601185 0.13823338 0.03432277 -0.12368165
000160 e5 4f 8a bd 2e 7e 81 bd a0 0a b1 bc d2 8d 00 bd
       -0.0675352 -0.06322895 -0.021611512 -0.03138525
000170 de 70 15 bc 60 01 ae bc ff 09 0c 3d ea b6 6b bd
       -0.009121148 -0.02124089 0.03418922 -0.057547487
000180 0a 07 3b bd de b6 71 bd 4f 82 72 bc 76 d3 02 bc
       -0.04566101 -0.059012286 -0.014801576 -0.0079849865
000190 90 11 97 bd f1 93 21 3c 93 bc 1d bc c9 a6 87 bd
       -0.07376397 0.009861932 -0.009627479 -0.066236086
0001a0 f5 61 66 bd fd c4 d7 3d ab ed c8 3d 33 83 9e 3d
       -0.056245763 0.105356194 0.098109566 0.07739868
0001b0 42 d0 9a bd 73 22 e8 bd cd 2b 49 be 5d 89 36 be
       -0.07559253 -0.11334696 -0.19645615 -0.17825837
0001c0 04 37 a8 bd 3c 0a 18 be 12 27 47 39 65 5d 32 be
       -0.082136184 -0.14847654 0.00018992674 -0.1741844
0001d0 8e 5b 70 bd 3c 75 0c 3e 95 fe bf 3c ce d1 24 3e
       -0.058681063 0.13716596 0.023436824 0.16095659
0001e0 b7 8b a8 bd c9 22 9e bd 8b d7 30 be 33 83 c8 3e
       -0.082297735 -0.077214785 -0.17269723 0.39162597
0001f0 e6 00 73 3e d2 85 24 3e 1f 48 1c be 29 4b 59 3d
       0.23730811 0.16066673 -0.15261887 0.053050194
000200 7b 14 28 bd 74 dc ac 3e f6 55 60 3e 1f 80 5f 3e
       -0.041035157 0.33761942 0.21907791 0.21826218
000210 59 74 07 be ed dd 8d be cc 39 50 be d9 52 96 be
       -0.13227977 -0.27708378 -0.20334548 -0.29360083
000220 9c f5 9e bd 7d 8b 2c 3e 39 9d 26 bc 00 aa 5a bd
       -0.0776169 0.16850086 -0.010169321 -0.05338478
000230 19 c8 36 3e d0 6b 5b be 0e fc 5e be c0 68 d6 3d
       0.17849769 -0.21427846 -0.21775839 0.10469198
000240 3a a9 55 be 56 1b c9 be 7f e7 5f be 7a d8 bb be
       -0.20865336 -0.39278668 -0.21865653 -0.36688596
000250 86 9d b3 be 33 70 e1 be 35 f1 74 be de bb e3 bd
       -0.35081118 -0.44030914 -0.23920138 -0.11119817
000260 28 3d 0b be 3a fb 01 3d ce c2 42 3d d1 6f bd 3c
       -0.13597548 0.03173373 0.04754906 0.023124607
000270 a7 5a 0b bd dc 02 53 be bb db 82 bd e5 1c c0 bd
       -0.034022 -0.2060656 -0.063895665 -0.09380511
000280 32 12 d6 bd fd b3 a7 bd e6 a1 82 bc 1e ef 8f bb
       -0.10452689 -0.08188627 -0.01594634 -0.0043925187
000290 2b fe 31 3b 79 f6 16 3c bb e0 04 3d 4e 68 31 bd
       0.0027159553 0.009214037 0.032440882 -0.043312363
0002a0 bf e9 86 bd 57 06 ac bd 10 d9 0b bd bd b2 41 be
       -0.06587552 -0.08399647 -0.034142554 -0.1891584
0002b0 04 ff 09 be 36 5f bc bd a0 bf a2 3d 6b 15 01 bc
       -0.13476187 -0.091978475 0.07946706 -0.007878642
0002c0 7c 32 74 3d 1d 16 eb bd ad 82 e0 bd e9 fa 85 bd
       0.05961846 -0.11478827 -0.109624244 -0.06541998
0002d0 af e5 13 3e 8a e7 db 3e 7d 7b 4c 3e 86 1b 2f 3e
       0.14443086 0.42950088 0.19968982 0.17100343
0002e0 e1 9f 12 3e e0 64 3f 3e 93 e3 43 3e b3 95 8d 3e
       0.14318801 0.18690825 0.19129781 0.27653274
0002f0 3c 38 87 3e 7a 3d b8 bd 81 7d 26 be 92 20 fb bd
       0.2641009 -0.08996101 -0.16258813 -0.12262072
000300 77 b0 2b be 6a 5e c4 be d1 8f 57 be 69 a7 46 be
       -0.16766535 -0.38353282 -0.21050955 -0.193998
000310 66 b3 83 bd c2 40 19 3e 0a 39 40 be 79 2d 28 be
       -0.06430702 0.1496611 -0.18771759 -0.16423596
000320 9e 33 47 be 6e 3f a7 bd d2 c2 49 bd 35 74 8b bc
       -0.19453284 -0.08166395 -0.04925806 -0.017023185
000330 fd 23 71 bd ad e7 a5 bd 3a a5 9a bd 58 aa e1 3d
       -0.05887221 -0.08100829 -0.07551046 0.110188186
000340 f2 5e 02 be db 37 dd ba 68 bc 5f bb c9 81 4a be
       -0.12731531 -0.0016877608 -0.0034139398 -0.19776072
000350 f2 b4 ba bd ed e6 c2 3d 60 d3 ef bd cb d8 7b bd
       -0.09116544 0.09516702 -0.117102385 -0.061486047
000360 39 b9 48 3d 6e dc 00 be f6 51 0d 3e 9f 75 3c be
       0.049004767 -0.12584087 0.13800797 -0.18404244
000370 4b 75 18 be 86 4f 09 3e 7d 5c 4f 3e 2d ba 0b be
       -0.14888494 0.13409242 0.20250125 -0.13645239
000380 5d 03 b5 3c be 5f 1f be 54 8d 40 ba 04 83 2e 3d
       0.02209633 -0.15563866 -0.0007345278 0.042605415
000390 30 9c 9f be 8c 4e 92 be b1 cd 46 3e cc 79 5e be
       -0.3117385 -0.28575552 0.19414403 -0.2172615
0003a0 0e f8 30 bb cf 2d 54 3e 97 ae 3a bd a4 39 b8 3d
       -0.002700332 0.207206 -0.045576658 0.08995369
0003b0 8f 55 90 bd 79 a5 86 bb 28 2a 7d bc 63 25 29 bc
       -0.07047569 -0.0041090813 -0.015451945 -0.010323855
0003c0 62 9f 24 3d 7e 39 20 bd 12 ef 65 bd b2 0c a2 bd
       0.04019106 -0.03911733 -0.0561362 -0.07912578
0003d0 65 fe 42 3d 0c 78 48 bd 1f 2b 1c 3e fc 70 90 3d
       0.04760589 -0.04894261 0.15250824 0.070528
0003e0 1d 4a 3f 3e bc 33 91 bd 32 79 c2 bb dc 83 d3 bd
       0.18680616 -0.07089946 -0.0059348578 -0.103278846
0003f0 3b e7 ec 3d 3b 27 a2 3c 38 a1 6a 3d f8 a6 1f 3e
       0.11567541 0.019794097 0.057282656 0.15591037

conv3.bias f4 [32]
000000 17 98 75 be a0 92 f8 3d 29 62 27 3e c0 bd 76 bd
       -0.23983799 0.121373415 0.16346039 -0.060239553
000010 af 22 49 3e 40 9b b9 bd 52 64 2d bd ff 95 60 bd
       0.19642137 -0.09062815 -0.042332 -0.054830547
000020 a9 85 1c bd 86 43 d8 bd f0 31 99 3e e3 0b b2 bd
       -0.038213406 -0.10559754 0.29920912 -0.086936735
000030 99 31 ac 3e 46 49 32 3f 93 75 65 bd d4 2f 0a be
       0.3363159 0.69643056 -0.05602033 -0.13494807
000040 83 5a 41 bd 1b ce 25 be 1b 7f 4b 3e 04 51 50 bd
       -0.04720546 -0.16191904 0.19872706 -0.050858513
000050 b1 4d 36 be c8 9f 5d be a8 db 19 3e 3d 45 f1 bd
       -0.17803074 -0.21642983 0.15025198 -0.11780784
000060 73 1a 03 3e 98 bc 35 be 81 4f ea bd 15 0b 25 be
       0.12803058 -0.17747724 -0.114409454 -0.16117509
000070 4d 06 70 3e 05 56 20 be db 1c 36 3e 2a 15 d1 bd
       0.23439904 -0.15657814 0.17784445 -0.10209115

fc1.weight f4 [128, 512]
000000 66 fb be 3c c7 35 b4 bc ba 95 3b 3c 78 bf 2d 3c
       0.023313235 -0.0219983 0.011449272 0.010604732
000010 c5 c7 80 39 ed ed 92 3c 50 35 17 bd 7a d8 36 3d
       0.00024562902 0.017935717 -0.036916077 0.044640042
000020 83 4e 83 3c cb 8d af bc bf 6a df bc 83 f1 13 bd
       0.016028648 -0.021429917 -0.02727258 -0.036118995
000030 6c dc 18 bd 6d ba 86 bc f4 39 11 3d 5d 58 ac bc
       -0.037319586 -0.016446317 0.03545566 -0.021038229
000040 e7 75 e1 3b f5 ff 8e 3c 2c cf c2 bc 46 fe 61 3c
       0.00688051 0.017456034 -0.023780428 0.013793534
000050 1d 9c 3d bd d7 92 0f bc c8 fd e1 bb 87 97 0c 3d
       -0.04629146 -0.008763037 -0.006896708 0.034324195
000060 e7 07 e2 bb ec 2c 03 3d 85 14 0e bc e0 01 f4 bb
       -0.0068979147 0.032025263 -0.008671884 -0.0074465126
000070 f1 cd 8a bd 03 4f 19 bd 05 de e2 3c 96 70 79 bb
       -0.067775615 -0.037428867 0.027693758 -0.0038061491
000080 21 22 59 bd c5 99 eb bc e7 73 78 3c 10 6e 3d bc
       -0.053011063 -0.028759846 0.015164352 -0.0115618855
000090 22 3c 75 3b c1 1e c8 bc 10 a8 33 bd a1 27 a8 3c
       0.0037419875 -0.024428727 -0.04386145 0.020526709
0000a0 56 45 c9 bc 4c 98 35 bd f1 eb 64 bc c4 fb 18 bd
       -0.024569195 -0.044334695 -0.013972268 -0.037349477
0000b0 97 a8 49 bc b8 eb b4 3c 8d 59 ac bc bb 29 35 bd
       -0.012308261 0.022085056 -0.021038795 -0.04422925
0000c0 ca 5e 58 3c 65 e3 5c bd 15 52 f9 bc ba a2 2a bc
       0.013206193 -0.053927798 -0.030434648 -0.010414774
0000d0 2c ac ad 3c d0 0e 02 3a 97 ba e1 bc 85 57 f6 3c
       0.021200262 0.00049613137 -0.027554793 0.03007103
0000e0 29 5a e8 3c da 8e 2c 3c 4d ab af bc 62 1a 0e bd
       0.028363304 0.010532105 -0.021443987 -0.03469313
0000f0 e2 ac e2 ba 4b 84 46 bd c5 3c ca 3c 30 25 ad bc
       -0.0017293955 -0.04846601 0.02468718 -0.021135896
000100 e1 b1 cb 3c 1d 35 e2 bb 82 42 74 39 c1 80 09 bc
       0.024865093 -0.0069033043 0.0002329443 -0.008392514
000110 2c df cf 3c 4b a3 c8 3c 8b 1c 6a bd a7 45 07 bd
       0.025374971 0.024491927 -0.057156127 -0.03302541
000120 7f ca 0d bd e9 f3 20 3c 73 cc 2f bc 7e 3b 39 bc
       -0.034616943 0.009823778 -0.010729897 -0.011305688
000130 d4 ff 90 bb 2a 71 eb 3c 39 4b f7 bc 49 b3 8e bc
       -0.0044250283 0.028740484 -0.030187236 -0.017419474
000140 c2 58 ca bb b6 a9 51 3b 6f 2d 7e bd 46 fd 87 bc
       -0.0061751315 0.0031992025 -0.062055048 -0.016600262
000150 ca 4f 0f bc f5 6e ce bc 6d 81 11 bd 05 76 6c bd
       -0.008747051 -0.025199393 -0.03552382 -0.05772974
000160 62 4d 9f bb 19 dc cf bc db 0e 0d bd 2c 9a 38 bd
       -0.0048615197 -0.025373505 -0.034437995 -0.045068905
000170 58 d6 9d 3c 96 4f df 3c ec 4c f9 ba 21 b5 2a bd
       0.019267246 0.02725963 -0.0019020117 -0.041676644
000180 6f fd f6 bb 25 d7 48 bd 07 6b 0a 3d 48 75 0e bb
       -0.007537536 -0.049033303 0.033793475 -0.0021737386
000190 84 36 d4 3c bb 8c d9 bc 7a 1b 19 bd cc 90 cc 3b
       0.025904901 -0.026556363 -0.03737972 0.006242847
0001a0 77 d9 15 3c 8b 7e 14 bb 7e 21 8f bc 25 bd 29 bc
       0.009146086 -0.0022658433 -0.017472025 -0.010360037
0001b0 54 28 e0 3c f2 45 0d 3d 5b c0 99 3b 7e 54 0c 3d
       0.02736298 0.034490533 0.00469212 0.034260266
0001c0 1b 91 9f 3c c0 e4 ce bc b4 5b 9a ba d5 f7 a0 ba
       0.019478371 -0.02525556 -0.0011776597 -0.0012280891
0001d0 3e bd 39 bd 86 09 46 bc a9 69 a5 bc 60 70 8c 3c
       -0.04534649 -0.0120872315 -0.020191984 0.017143428
0001e0 75 e5 e8 bc 64 d7 c4 bc ca 41 36 bd 6c 47 ff bb
       -0.028429726 -0.024028488 -0.044496335 -0.0077904966
0001f0 d5 91 43 3c fd 01 01 bd c6 a5 00 bd 9b 42 2a bd
       0.011936625 -0.031496037 -0.031408094 -0.041567426
000200 80 68 a7 3c df a3 b9 3c a5 5c f7 bc 18 51 9f bc
       0.020435572 0.022661148 -0.030195544 -0.019447848
000210 b2 f4 3c bb ec f3 63 bd 50 54 3b bc 9f 4a 0e bd
       -0.0028832373 -0.055652544 -0.011433676 -0.034739133
000220 65 f7 c5 bc aa 13 3e bd 84 ea b1 3c 52 11 06 bd
       -0.024165818 -0.04640547 0.021718271 -0.03273136
000230 9e eb 0c 3d ff c8 fb bb e4 e2 d9 bc 43 fe 7a 3c
       0.03440439 -0.0076838727 -0.026597448 0.01531941
000240 97 1f 1f bc df 24 de bc ee 68 86 bd 1a 67 cc ba
       -0.009712121 -0.02711719 -0.065629825 -0.0015594692
000250 7a a6 cd 3c 62 84 d6 bc db d4 ff 3b 9f 92 c4 bc
       0.025103796 -0.026186172 0.007807357 -0.023995696
000260 08 a7 f9 bc 21 64 a2 bc 79 f5 0c 3c cd e6 52 bc
       -0.030475155 -0.019823136 0.008603447 -0.01287241
000270 76 fc 02 bd b0 9d 58 bd a6 fd 64 ba aa f3 92 3c
       -0.031979047 -0.052884758 -0.00087353063 0.017938454
000280 1f 1a ff 3c 0a 86 d3 bb 2e 90 58 3c b6 12 bf 3b
       0.031140385 -0.0064551877 0.013217969 0.005831088
000290 be ab a7 bb 9a f9 d9 bc 5b fa 98 3c 40 5e a7 bc
       -0.005116909 -0.026608277 0.018674066 -0.020430684
0002a0 80 af 29 bd c5 51 6c bc 50 0f 18 bc 57 b2 30 3c
       -0.041427135 -0.014423792 -0.009280995 0.010784707
0002b0 2f 7c 41 bd 0c d2 6d 3c b9 73 88 bb bf 50 4f 3c
       -0.04723757 0.014515411 -0.004164186 0.012653529
0002c0 c6 b6 ee bc e9 af fd bc f9 c4 69 bd 1f 85 f5 bc
       -0.029139888 -0.03096767 -0.057072613 -0.029970704
0002d0 2c 80 89 bb e2 e2 16 3c e2 dd 60 bc 50 86 3b bc
       -0.0041961875 0.0092093665 -0.013724776 -0.011445597
0002e0 0d cd 1c 3c c9 bc 5b bd 14 9c 59 bd cb 59 c6 3c
       0.009570372 -0.053646836 -0.053127363 0.024212738
0002f0 fd 83 82 bc 8d 32 a0 b9 46 c4 07 bc 8f ea cc 3c
       -0.015932078 -0.0003055524 -0.008286541 0.02501419
000300 f8 30 d4 bc 9e 7e 2b bd f7 21 27 3d 4c d8 3b bc
       -0.025902256 -0.0418688 0.040803876 -0.011465143
000310 fc f7 47 bb b4 c7 af 3c e4 e3 55 bd c5 7b 65 3c
       -0.00305128 0.02145753 -0.052219287 0.01400656
000320 4e 5e 31 bd d2 67 18 bd 08 94 67 bd 9b 0a fd bc
       -0.043302827 -0.037208386 -0.056537658 -0.030888846
000330 54 e5 27 bc 16 d8 86 bc f7 a0 25 3b a3 92 1b bb
       -0.010247547 -0.01646046 0.0025272944 -0.0023738525
000340 74 a5 42 bd c3 ba 5a bd 3e 4d b5 3c 60 de 08 bd
       -0.04752107 -0.053400766 0.022131559 -0.0334152
000350 e3 6e 27 bd 45 1c 67 bd ae 28 46 bc e3 e4 39 3c
       -0.040877234 -0.056423444 -0.01209466 0.011346075
000360 b1 e2 ae bc 4d 62 94 3c 6e 5f 58 3c 45 0b 45 bd
       -0.02134833 0.01811328 0.013206346 -0.04810645
000370 ea d1 2b 3c d4 b7 26 bd 99 5f 34 bd c4 6a eb 3c
       0.010487059 -0.040702656 -0.04403648 0.028737433
000380 1c df c4 bc cf 3d c2 bb d0 5c 94 bc 94 97 75 bc
       -0.024032168 -0.0059277783 -0.018110663 -0.014989752
000390 88 a9 1f 3c 72 d6 7a bb 42 15 c3 bb aa 7c 11 bd
       0.009745009 -0.0038274792 -0.005953462 -0.03551928
0003a0 ab f5 02 bd be 19 20 bd b7 02 b3 3c 08 bb 1c 3c
       -0.03197257 -0.03908705 0.02185188 0.009566076
0003b0 51 cf 13 3b 66 c8 fa 3c ae 91 e3 bc c5 87 62 bd
       0.002255399 0.030613136 -0.027779426 -0.05530526
0003c0 98 8f 23 bd f9 ee 04 bd 06 41 fd bc 63 97 4d bd
       -0.039931864 -0.032454465 -0.030914795 -0.0501932
0003d0 77 a3 04 3d c6 4a dd bb 6e fb 8f bc a4 67 4f bd
       0.032382455 -0.0067532985 -0.017575946 -0.05063595
0003e0 dd e2 08 3d 55 66 15 bd 07 b2 20 bd 89 df 44 3c
       0.03341948 -0.036474545 -0.03923228 0.012016186
0003f0 87 f1 a5 bc 0e b6 16 bd 4d b3 17 bd 45 64 98 bc
       -0.02025677 -0.036794715 -0.03703623 -0.0186025

fc1.bias f4 [128]
000000 77 3d 53 3b bc a5 ce bc ef 0f 1e bd 89 39 93 3e
       0.003223268 -0.025225513 -0.038589414 0.28754833
000010 8c 65 95 bd 8c 59 a9 3e 6a 07 33 3c dd 67 c0 3e
       -0.07294759 0.3307613 0.010927061 0.3757924
000020 ee a1 54 bd 61 09 80 3e 5d 47 03 bd 93 fc c1 bc
       -0.05191224 0.25007156 -0.03205048 -0.023680007
000030 52 ab 15 3c ae 1d b2 bc 1f 20 8f bd cc 6a 8d 3e
       0.009135084 -0.021742668 -0.069885485 0.27620542
000040 8f 4d 50 bd c0 ac 10 bd 97 90 7f bd 73 c2 40 bc
       -0.050855216 -0.035320997 -0.06239375 -0.01176511
000050 b1 c6 22 3e 24 a3 27 bb 1e bc ea bc 81 31 b0 bd
       0.15896107 -0.0025579417 -0.028654154 -0.08603192
000060 3b 95 1d 3e b3 a6 00 3f 1a fb c7 bd 2c 20 4e bc
       0.15388958 0.5025436 -0.09764691 -0.012580913
000070 52 1e 60 3e 25 49 86 3c 3d c7 8f 3a 10 2a b8 3b
       0.21886566 0.0163923 0.0010969412 0.0056202486
000080 cd e4 9c 3c e6 df c3 bc 5f d6 ee bc 32 c5 a2 3e
       0.01915207 -0.023910474 -0.029154954 0.31791073
000090 16 a4 53 bd a1 f8 92 bd 85 a9 c6 bc f6 a1 90 bd
       -0.051670156 -0.071763285 -0.024250755 -0.070621416
0000a0 83 06 b7 be 2f a4 82 3c d9 48 b4 3c 67 0e 7f bd
       -0.35747156 0.01594743 0.022007393 -0.062269595
0000b0 1f 58 d0 bb 10 52 57 bd cf 27 f1 3e b3 e0 3c bd
       -0.006358161 -0.052568495 0.47100684 -0.046112727
0000c0 0f 6d 11 bd 9a 7f 87 bd 68 6a fd bb 86 31 11 3b
       -0.035504397 -0.06616135 -0.007733632 0.0022154762
0000d0 71 5f 3e 3b 51 54 08 3f 0c 96 44 bd 53 a4 a8 3e
       0.0029048587 0.53253657 -0.04799466 0.3293787
0000e0 45 8d d8 bc c2 62 97 bd 3f c1 2a bb 19 8f e0 bc
       -0.02643455 -0.073918834 -0.0026055125 -0.027411984
0000f0 4f 7c e2 bb 08 d6 7b bd 9b 60 05 3c b1 94 96 bc
       -0.0069117914 -0.061483413 0.008140708 -0.018381448
000100 67 31 32 bd 3a 42 70 bd 29 89 2b 3f 6f 7e 8a bd
       -0.043504145 -0.05865691 0.67006165 -0.067623965
000110 00 13 48 3b c2 cc ba bc c2 16 f6 3b 3a 9d 48 bd
       0.0030528903 -0.022802714 0.007510037 -0.048978068
000120 38 51 3f bd 7a 44 69 3e 9e 5c a9 3e f4 89 38 be
       -0.046708316 0.22780028 0.33078474 -0.18021375
000130 e7 d3 65 3e 96 08 27 3a 97 a6 9b bb 73 3c 62 bd
       0.22444116 0.0006371824 -0.0047500837 -0.05523343
000140 13 41 76 bc 33 bf 2b bd 0e b3 81 3e 13 fd bb bd
       -0.015030163 -0.04193039 0.2533192 -0.091791295
000150 6b b8 f1 bc cd 8a 1f bc 7b 49 63 3e 55 ae 1f bb
       -0.029506883 -0.0097376825 0.22196 -0.0024365385
000160 c3 6c 45 3e 27 aa b7 3e 50 10 e3 3d 69 76 22 3e
       0.1927977 0.35872003 0.11087096 0.15865482
000170 14 e2 73 3d b8 b3 71 bd e6 08 5b 39 a3 1e 92 bc
       0.059541777 -0.059009284 0.00020888782 -0.017836874
000180 c0 8d 9a 3c 8d 32 45 3a a9 8f cb bc d3 7b 38 bd
       0.01886642 0.0007522486 -0.024848776 -0.045039963
000190 1e 55 93 3e b2 3c 81 bd 11 f6 18 3c da 87 60 bd
       0.28775877 -0.06310405 0.009336011 -0.05481706
0001a0 dd b3 e8 bd a5 9d 40 bd 87 d6 d7 bd 09 76 4c 3b
       -0.11362431 -0.04702534 -0.10538965 0.0031198284
0001b0 b7 4c 36 3d 2b 05 34 bd d3 f2 50 bd 55 33 f1 3d
       0.044506755 -0.04395024 -0.051012825 0.11777369
0001c0 a3 aa 73 b8 b2 94 68 bd e3 5b 85 bd e8 51 61 3c
       -5.8094633e-05 -0.056782432 -0.065116666 0.013752438
0001d0 a8 87 45 bd 0a 4b 88 bc 97 96 2e 3f 2e 22 ba 3c
       -0.048225075 -0.016637344 0.6819853 0.022721376
0001e0 a6 71 37 bd 8a 28 18 bd 35 6d 9c bd cc 28 84 3e
       -0.044786118 -0.037148036 -0.07638017 0.25812376
0001f0 41 b2 85 bb 69 89 84 bd 4e 18 20 bc 77 6e 81 bc
       -0.0040800874 -0.064715214 -0.00977142 -0.015799744

fc2.weight f4 [10, 128]
000000 4a 21 96 bd 11 68 27 bd 41 01 c4 bc a0 cd 5a bb
       -0.07330568 -0.04087073 -0.02392638 -0.0033386722
000010 bd d6 de bc 7c bf 82 3d 21 35 57 bd 82 1d 15 be
       -0.027202005 0.06384179 -0.052540902 -0.14562038
000020 06 b0 1e bd bf a7 e2 3b 88 a6 35 3d bf e0 f7 3c
       -0.038742088 0.0069169695 0.04434827 0.030258534
000030 2d 75 aa bd c2 29 a1 bc 73 13 fb bb c9 7f c4 bb
       -0.08323131 -0.019673232 -0.0076622306 -0.0059966785
000040 51 75 e6 3c 6a e5 95 bd 22 f2 22 bd d2 e1 bf bd
       0.028132113 -0.07319148 -0.039781697 -0.09369244
000050 30 af 48 3d 02 5b 42 bd d4 e0 e3 bd f0 c9 ca 3b
       0.048995197 -0.047450073 -0.11126867 0.0061886236
000060 4e 62 08 be ab cf a8 be 14 79 21 3d 4e 45 3f bd
       -0.1331875 -0.32970938 0.03942211 -0.046696953
000070 af 5f 94 3c aa 7d f0 bc 5c f5 82 3d a3 0e 9c bd
       0.018112032 -0.029356796 0.06394455 -0.07619979
000080 ee 42 c0 bd c1 3d c4 bd a3 1c 8a 3d 01 6e bf bd
       -0.09387766 -0.09582091 0.06743743 -0.093471535
000090 ff 27 9a 3c 1b 6b 68 bd ea 98 f5 3c a7 5a ae bd
       0.0188179 -0.05674277 0.029980142 -0.08513384
0000a0 28 f5 27 be 8c 8b 37 bd 68 17 83 3e 12 0e 29 bd
       -0.16402113 -0.044810817 0.25603795 -0.041273184
0000b0 3d b2 87 3d d2 e2 2a 3d 87 3a 3a be c4 74 83 bd
       0.06625793 0.04172022 -0.18186389 -0.06418756
0000c0 f1 8f 05 bc c8 f1 82 3c fb 09 97 bd b1 fd 28 be
       -0.008151994 0.01598443 -0.073749505 -0.16503026
0000d0 ca a5 9b bd 0d 3e 36 3d d6 0f 80 bc f9 58 12 bd
       -0.07599981 0.04449277 -0.015632551 -0.035729382
0000e0 8f 44 85 bd 37 ea 43 3d 0e 91 0c 3d 1a ff 14 3d
       -0.06507217 0.047830787 0.034318022 0.036376096
0000f0 58 48 8c bc 97 a7 f0 3c 33 cd 79 39 1f 8a 11 bd
       -0.01712434 0.029376788 0.00023822933 -0.035532113
000100 56 24 38 3d 89 bc 0b bc 02 3e 27 3d a7 e1 c0 bc
       0.044956528 -0.008528837 0.04083062 -0.0235451
000110 06 b9 51 bd 49 ad 14 bd 21 49 dc 3c 5e f6 91 3c
       -0.051201843 -0.03629807 0.02689034 0.017817672
000120 6d 91 6d bd 46 ab 74 bd df 3d 54 be 50 32 8a bd
       -0.058000017 -0.05973365 -0.20726727 -0.067478776
000130 a6 f1 01 be 0b 09 31 3d 64 91 f9 bc f7 dd 9c bd
       -0.12689838 0.043221515 -0.030464835 -0.07659524
000140 4a 2e d9 bd 55 c2 6e bd 62 0d a1 3d 10 1a 1a bc
       -0.10604532 -0.0582908 0.07863881 -0.009405628
000150 0f 61 7d bd 18 e4 b2 39 01 8a dc 3d 82 a8 87 3c
       -0.06186014 0.0003412075 0.1076851 0.016559843
000160 25 3d a1 be 12 12 d3 bd d1 3b ac 3d 57 29 8d bd
       -0.31491962 -0.10306181 0.084098466 -0.068926506
000170 b2 39 9e bd e9 77 63 bd bf 42 3e bd 5b bd a6 bd
       -0.07725848 -0.055534277 -0.046450373 -0.081415854
000180 30 25 0b 3d 91 2f 9c bd 8a e2 27 3e 77 89 7a 3d
       0.03397101 -0.0762626 0.16395012 0.061166253
000190 17 1d ab bd 2d 65 6f 3c cf e4 67 bd 6e f2 38 bd
       -0.08355158 0.0146115245 -0.056614693 -0.045153074
0001a0 64 92 44 be 4c 19 26 3d 0f c8 99 3e 7c 77 44 3d
       -0.19196469 0.04055147 0.30035445 0.04796551
0001b0 f6 6e 53 bd 4f 1e 93 bd 92 4b 25 3d 17 1e 41 3d
       -0.051619492 -0.07183515 0.040355273 0.047147837
0001c0 b5 34 86 bb 53 76 93 bd 56 6a 00 3d 2b 78 8f 3c
       -0.0040956386 -0.07200303 0.03135141 0.017513355
0001d0 7a 5c 44 bc ee 13 3e 3c 1e 11 55 3e 48 d3 02 3d
       -0.011984939 0.011601431 0.20807311 0.031939775
0001e0 49 a8 aa 3c 5e 33 89 3d a5 4c 0e be a2 c2 3e 3d
       0.020832198 0.06699251 -0.13896425 0.046572335
0001f0 a4 ea ff bc fa 62 99 bd 9a c4 f5 3c 0c e9 8e bd
       -0.031239815 -0.074895814 0.030000973 -0.06978044
000200 53 42 04 bb 89 d4 9c bc 35 02 c4 3c 8e 7a fb 3d
       -0.0020181134 -0.019144313 0.023926834 0.12279235
000210 6e e0 85 3d 45 74 2c 3e 08 a7 76 3d 02 7b 0a 3e
       0.06536947 0.16841228 0.060217887 0.13523486
000220 05 1d 04 3c d2 f7 ff bd 55 0a d5 3d 0c e0 af bd
       0.008063559 -0.1249844 0.10402361 -0.085876554
000230 c0 b6 2f bc 88 d7 d1 bb c8 ca c3 bd e1 44 17 be
       -0.010724723 -0.006403867 -0.09560162 -0.14772369
000240 e7 3c 17 bd 52 f5 86 bd d9 0c 4f bc de 17 1c 3d
       -0.036923315 -0.0658976 -0.01263734 0.0381087
000250 f6 26 73 be e1 b5 0e 3d db 4d 7c 3d fd ab 87 3c
       -0.23745331 0.034841422 0.061597686 0.016561503
000260 ff 5c 94 be e1 35 25 be d5 93 b5 bc d7 c4 c0 3c
       -0.289772 -0.16133834 -0.022165218 0.02353136
000270 7e d4 9d bd 43 f0 82 3c 0a 6c 84 3d 14 83 98 3d
       -0.07706545 0.015983706 0.06465919 0.07446876
000280 da 27 e8 bc 60 15 85 bd 24 80 fe bc a2 1e 22 bd
       -0.028339315 -0.064982176 -0.031066962 -0.039579995
000290 c4 c5 24 bc b5 12 2d bb 67 e1 80 bb d0 a1 83 bd
       -0.010056917 -0.0026408855 -0.00393312 -0.06427348
0002a0 8c 34 2b bd 68 c0 c2 3c 75 14 85 bd 5d 7a 44 bc
       -0.04179816 0.023773387 -0.064980425 -0.011992064
0002b0 44 17 a0 bc c3 63 92 3c 67 c8 09 3e 3c 16 a3 bd
       -0.019542344 0.017869836 0.13455354 -0.07963225
0002c0 5e e6 26 bc 7a 6d 81 bd 62 f0 39 3d cc d8 eb bd
       -0.01018676 -0.06319709 0.045395263 -0.1151596
0002d0 34 19 f4 3c b5 49 a6 be 4b 52 a2 bc ad 36 9c be
       0.029797174 -0.3247811 -0.019814631 -0.30510464
0002e0 ac ed a8 bd b3 fd fd 3b e6 f4 83 bd 1e e6 cc bd
       -0.08248457 0.0077511906 -0.06443195 -0.10004829
0002f0 0a 9f af 3d a9 43 1e bd 5b e0 9e bd 45 03 3b 3c
       0.08575256 -0.038638745 -0.07757636 0.011414354
000300 87 0d cb bd 73 1a 26 bd e9 c9 f3 bd 89 91 3a bc
       -0.099146895 -0.040552568 -0.11903746 -0.011387237
000310 eb 60 ca bc 7b 63 e1 3a b1 2e 91 bd 71 58 e6 3c
       -0.024704417 0.0017195785 -0.07088984 0.028118344
000320 20 ab ee bc 58 54 c0 3d 48 f8 84 bd 52 9f 1f 3e
       -0.029134333 0.09391087 -0.064926684 0.1558812
000330 76 76 c1 bb 33 1c a9 bc b7 5c ad bd eb cf b4 bd
       -0.005904014 -0.02064333 -0.084649496 -0.0882872
000340 b5 e4 ee bd 87 e2 ae bd 26 bb e3 bd d1 e6 1f bd
       -0.11664716 -0.085393004 -0.1111968 -0.039038483
000350 c4 49 7c bd d0 72 60 bc d6 ee 33 3d 3d f0 85 bb
       -0.061593786 -0.013699248 0.043928944 -0.0040874765
000360 9d 9f 82 bd a2 36 e4 bd 46 e1 e0 bd 12 11 ed bc
       -0.063781 -0.11143233 -0.109804675 -0.028938804
000370 95 7d 88 be 87 29 11 3d a9 ac 50 bd 44 86 a4 3b
       -0.2665831 0.035439994 -0.05094591 0.0050208885
000380 c0 1d 2b be 4a 20 8e bd 15 5b 12 be 39 a0 91 bd
       -0.16710567 -0.069397524 -0.14292558 -0.07110638
000390 6e 84 e9 3d 88 1b 49 3d a7 7c b0 bc 9c 81 a8 bd
       0.11402212 0.04909852 -0.021543814 -0.08227846
0003a0 02 f1 5c be 46 da 55 bd bc 59 84 be 73 fd 34 ba
       -0.21576312 -0.052210115 -0.25849712 -0.0006904222
0003b0 89 96 f0 3a 83 c6 22 3c 00 18 f1 3d a1 58 80 be
       0.001835541 0.009935024 0.11772156 -0.25067618
0003c0 21 39 14 3d 36 59 dc 3c 35 4a c4 3b 7a 6e 0e bd
       0.036187295 0.026898008 0.0059902915 -0.034773327
0003d0 a6 07 f7 3b b7 27 af 3c 64 96 f5 bc 61 34 16 3d
       0.0075387536 0.021381242 -0.029978938 0.036671046
0003e0 02 fa e8 bd d3 0f 9c bc 90 5e 33 bd 86 5a 35 be
       -0.1137581 -0.019050514 -0.043791354 -0.17710313
0003f0 f3 d9 ee 3c 58 52 dc bd 73 b0 8e 3d d2 4e d0 3c
       0.02915666 -0.10757893 0.06967249 0.02542821

fc2.bias f4 [10]
000000 4e 0d 3a be 4e 02 c0 bd 5a c3 64 be 19 24 3e 3d
       -0.18169138 -0.093754396 -0.22340146 0.046421144
000010 81 ae aa 3d 95 31 66 be f6 93 9d 3e 25 08 2c be
       0.08334065 -0.22479852 0.30776948 -0.16799982
000020 68 d1 8a 3e 85 94 c4 bd
       0.2711289 -0.0959864
