saved_models_20200625/rob_large_net_fgsm.pth (torch_old, 620839 bytes, 10 tensors)

conv1.weight f4 [12, 3, 3, 3]
0	0x3d9c0d62	0.0761974
1	0x3dc26a5d	0.094929434
2	0x3d95a3e6	0.07306652
3	0x3ddd6dd6	0.10811965
4	0x3e1d69b8	0.1537236
5	0x3dd3b637	0.10337489
6	0x3d604ece	0.054762654
7	0x3db42489	0.08796031
8	0x3d527659	0.051382396
9	0xbd4dd28e	-0.05024963
10	0xbd88e175	-0.066836275
11	0xbd353574	-0.04424043
12	0xbd9afeda	-0.0756814
13	0xbddd601d	-0.10809348
14	0xbd90895f	-0.070574515
15	0xbd60ae50	-0.054853737
16	0xbd8f26f7	-0.06989854
17	0xbd49ea22	-0.049295552
18	0xbc90393d	-0.017605418
19	0xbcee52a4	-0.02909214
20	0xbc7f5590	-0.0155843645
21	0xbd186a68	-0.037210852
22	0xbd6a0cbe	-0.05714106
23	0xbd2171f8	-0.03941533
24	0xbce6de68	-0.028182223
25	0xbd1ea499	-0.03873119
26	0xbcdc99a4	-0.02692873
27	0x3d4339d8	0.047662586
28	0x3ce45933	0.027874565
29	0xbd2f33f1	-0.042774145
30	0x3dbbaac4	0.0916343
31	0x3d164d30	0.036694705
32	0xbdc724a4	-0.097237855
33	0x3d5d6ac9	0.054056916
34	0x3c9cb976	0.019131403
35	0xbd6831e9	-0.056688223
36	0x3d023d72	0.03179688
37	0x3c6bad3b	0.014384563
38	0xbd704cce	-0.058666997
39	0x3d83532c	0.06412348
40	0x3cb69564	0.022288032
41	0xbe01ba2b	-0.12668674
42	0x3d149126	0.036271237
43	0x3bf5f4e6	0.007506001
44	0xbd91fbdf	-0.07128119
45	0x3d2435f8	0.04009053
46	0x3c800c6a	0.01563092
47	0xbd7a27ee	-0.061073236
48	0x3dc4d0e0	0.09610152
49	0x3cdcb131	0.02693996
50	0xbdfc2a4f	-0.12312757
51	0x3d434c16	0.047679983
52	0x3c328914	0.01089694
53	0xbd917bb9	-0.07103676
54	0x3c4bba41	0.012434543
55	0x3c5c54d2	0.013447957
56	0x3c224ac0	0.009905517
57	0x3cda912d	0.026680553
58	0x3cfdd2f5	0.030984381
59	0x3cd1032e	0.025514212
60	0x3cdf0b5c	0.027227096
61	0x3d076a14	0.03306015
62	0x3cee9881	0.029125454
63	0x3c42aead	0.011882466
64	0x3c1e468d	0.009660375
65	0x3c11d370	0.008900508
66	0x3c931e8d	0.017958904
67	0x3c8bb75c	0.017055206
68	0x3c858f9b	0.016303828
69	0x3c95f402	0.018304829
70	0x3cb21a7c	0.021741144
71	0x3cabfeeb	0.020995578
72	0x3b90ad7a	0.0044152113
73	0x3b4112bd	0.0029460632
74	0x3ad05266	0.0015893697
75	0x3c06bdb8	0.008223943
76	0x3c26d495	0.010182519
77	0x3c00b202	0.00785494
78	0x3c0c9d44	0.008582417
79	0x3c5bc9a8	0.013414778
80	0x3c59b7af	0.0132884225
81	0x3cbdf911	0.023190053
82	0x3cf4d141	0.029884936
83	0x3cad5a2c	0.021161161
84	0x3cd68742	0.026187543
85	0x3d01324a	0.0315421
86	0x3ccc3a28	0.024930075
87	0x3c17384b	0.00922973
88	0x3cc1a6f8	0.023639187
89	0x3c9b2072	0.01893637
90	0x3c6135b5	0.013745715
91	0x3c893fbb	0.016754022
92	0x3c2094ab	0.00980107
93	0x3c578db8	0.013156347
94	0x3c8dcc10	0.017309219
95	0x3c612cfb	0.013743634
96	0xb9c5d0da	-0.00037730375
97	0x3c37779a	0.011197949
98	0x3c006b51	0.007838086
99	0x3d30e9e2	0.043191798
100	0x3d3702b6	0.04468032
101	0x3d02a1a2	0.031892426
102	0x3d0b322d	0.0339834
103	0x3ce9bb49	0.028531687
104	0x3ca7f961	0.020504655
105	0x3c256b6b	0.010096411
106	0x3c9d2f8d	0.019187713
107	0x3c0c66c6	0.008569425
108	0x3c53e981	0.01293409
109	0xbc7123b2	-0.014717983
110	0x3bf869cf	0.0075809727
111	0x3c3d33ae	0.011547966
112	0x3cabc664	0.020968623
113	0xbc28c9cc	-0.010302018
114	0xbc5fd04e	-0.013660504
115	0xbadb1c5c	-0.0016716826
116	0x3c827568	0.015925124
117	0x3d7c64a7	0.061619427
118	0x3d6945c0	0.056951284
119	0x3d6ef892	0.058342524
120	0x3d9e009c	0.0771496
121	0x3df7269d	0.12067912
122	0x3d55ad52	0.052167244
123	0x3d029068	0.031875998
124	0x3d6925a4	0.056920663
125	0x3d576d51	0.052594487
126	0xbd5504f8	-0.05200669
127	0xbdab5e27	-0.083675675
128	0xbd2ecaa6	-0.04267373
129	0xbd98be92	-0.074582234
130	0xbdaaaabb	-0.083333455
131	0xbdadf7c4	-0.08494523
132	0xbd81b825	-0.06333951
133	0xbd8d4f40	-0.06899881
134	0xbd227b7a	-0.039668538
135	0xbd0ef396	-0.03490027
136	0x3ccdf2a6	0.025140118
137	0x3d716dc4	0.05894257
138	0xbdba46a4	-0.09095505
139	0x3d1e6c8a	0.03867773
140	0x3ddaf7ee	0.1069182
141	0xbd1f552b	-0.038899582
142	0x3ccfd032	0.02536783
143	0x3d7ca594	0.061681345
144	0xbd74958e	-0.05971294
145	0x3bc5b57b	0.006033597
146	0x3d0b591f	0.03402054
147	0xbe047380	-0.12934685
148	0x3ca2eaff	0.019887445
149	0x3d8cd881	0.06877232
150	0xbd6a56d8	-0.057211727
151	0x3c1b7b64	0.009489868
152	0x3d1d090e	0.038338713
153	0xbd7461ac	-0.05966346
154	0x3ab9337c	0.0014129723
155	0x3d1c679a	0.03818474
156	0xbdfd5c62	-0.12371136
157	0x3c935952	0.017986927
158	0x3dc69fbf	0.09698438
159	0xbd776c39	-0.060405944
160	0x3b95024b	0.0045473925
161	0x3d42b42e	0.047535114
162	0x3d839f2a	0.064268425
163	0x3db55a16	0.08855073
164	0x3d732df4	0.059369996
165	0x3c44f028	0.012020148
166	0x3c9f8f90	0.019477636
167	0x3c851c2d	0.016248787
168	0xbd96ac9e	-0.07357143
169	0xbdea8da0	-0.11452794
170	0xbd89c318	-0.06726664
171	0x3d2dd78f	0.0424419
172	0x3d815d6b	0.06316646
173	0x3d29c8f5	0.041451413
174	0xba27d530	-0.0006402312
175	0x3bdc3c14	0.006721029
176	0x3bac886d	0.0052652867
177	0xbd8af914	-0.06785789
178	0xbde02c53	-0.10945954
179	0xbd83ce41	-0.06435824
180	0x3daa4be7	0.083152585
181	0x3df648c5	0.120255984
182	0x3d9de219	0.0770914
183	0xbb107763	-0.0022043816
184	0x3b2d7acc	0.0026470898
185	0x3b53c72b	0.0032314758
186	0xbd86f954	-0.06590524
187	0xbdbfd5a2	-0.09366919
188	0xbd724af4	-0.059153512
189	0xbd080616	-0.03320893
190	0xbd30a56f	-0.04312652
191	0xbd0e44ec	-0.034733698
192	0xbd213ba8	-0.039363533
193	0xbd59772e	-0.053092174
194	0xbd1dd9ec	-0.038537905
195	0xbd1c5b29	-0.038172875
196	0xbd4dd095	-0.050247747
197	0xbd214c07	-0.039379146
198	0xbbda8d99	-0.006669712
199	0xbbf3611d	-0.0074273483
200	0xbc0e2ccf	-0.008677675
201	0xba600c71	-0.0008546776
202	0xbac98665	-0.0015375136
203	0xbab4c021	-0.0013790169
204	0xbb100766	-0.0021977066
205	0xbb2d47f3	-0.002644059
206	0xbb9411a8	-0.0045187064
207	0x3d10377b	0.03520916
208	0x3d3b4539	0.045720313
209	0x3cfa02f3	0.030518984
210	0x3db3a600	0.08771896
211	0x3dc1792e	0.09446941
212	0x3da51058	0.08059758
213	0x3d4b57a3	0.049644124
214	0x3d7c8d0b	0.061657947
215	0x3d318f2c	0.04334943
216	0xbbb25894	-0.0054426882
217	0xbc68964f	-0.014195993
218	0xbc55c310	-0.013046995
219	0xbc718ae2	-0.014742585
220	0xbcf7c7c6	-0.030246627
221	0xbcd917f1	-0.026500674
222	0xbc45ba1f	-0.0120683005
223	0xbca15e83	-0.019698387
224	0xbc945ca9	-0.01811059
225	0xbb5b101d	-0.0033426352
226	0xbc384a8a	-0.01124824
227	0xbbeffd45	-0.0073238933
228	0xbc3cf2ff	-0.011532544
229	0xbcdbe74b	-0.026843688
230	0xbcaba7ad	-0.020953977
231	0xbc232abf	-0.009958922
232	0xbc8f61ec	-0.017502747
233	0xbc73689d	-0.014856485
234	0xbba91151	-0.005159535
235	0xbc379a2b	-0.01120619
236	0xbc088f20	-0.008334905
237	0xbc46357c	-0.012097713
238	0xbcba5258	-0.022744343
239	0xbc997368	-0.018731788
240	0xbc366524	-0.011132512
241	0xbc86f844	-0.016475804
242	0xbc64d6df	-0.013967245
243	0xba8770de	-0.001033332
244	0xbaa1cb64	-0.001234394
245	0xbaef053c	-0.0018235813
246	0x3a5ecdbe	0.0008499286
247	0xbb8cfa2a	-0.004302283
248	0xbb5d39c1	-0.0033756348
249	0x3bc6db56	0.0060686274
250	0x3b83571c	0.004008187
251	0x3b45f6c1	0.0030206891
252	0xbb5bd3e8	-0.0033543054
253	0xbaba6e41	-0.0014223532
254	0xbaa119e1	-0.0012291038
255	0xb8cdde76	-9.816598e-05

conv1.bias f4 [12]
0	0xbe2ff8e5	-0.1718479
1	0xbd603d5c	-0.054746017
2	0x3e2ee7ec	0.17080659
3	0xbe296d8f	-0.165457
4	0xbd8a004f	-0.0673834
5	0xbd7e323b	-0.062059622
6	0xbdd70778	-0.104994714
7	0x3df96029	0.12176544
8	0x3df2b03b	0.118500195
9	0x3d410faa	0.04713408
10	0xbe4fea0c	-0.20304126
11	0xbd73d9f9	-0.059534047

conv2.weight f4 [32, 12, 3, 3]
0	0x3ddc2331	0.107489
1	0xbe1cc64f	-0.15310024
2	0x3d7c9fce	0.06167584
3	0xbd98b4ad	-0.07456336
4	0xbeafcb49	-0.34334782
5	0xbdecefee	-0.115692005
6	0x3e36ac5b	0.17839186
7	0x3d2d23cb	0.042270463
8	0x3e7be2ce	0.24598238
9	0x3d426d85	0.047467727
10	0x3bc150a6	0.0058995066
11	0xbc911627	-0.017710758
12	0x3d6ce980	0.05783987
13	0x3c470081	0.012146116
14	0x3d32f9a3	0.043695103
15	0x3cdbffb0	0.02685532
16	0x3cabebd3	0.020986473
17	0x3d1afde6	0.037839793
18	0xbdc4ab81	-0.09603024
19	0xbcedcef9	-0.029029356
20	0xbde5cce4	-0.112207204
21	0xbde198aa	-0.110154465
22	0xbd8690bc	-0.06570575
23	0xbe6d6e42	-0.23186591
24	0xbdb06683	-0.086133026
25	0xbcc8d1b9	-0.024514066
26	0xbe06f789	-0.13180365
27	0x3dc27583	0.0949507
28	0xbd0d8b5c	-0.03455673
29	0x3c706816	0.0146732535
30	0xbdf48ee2	-0.11941315
31	0xbeb018ff	-0.3439407
32	0xbe77562b	-0.24153964
33	0xbd3d99e0	-0.046289325
34	0xbde2284c	-0.11042842
35	0xbc71e315	-0.014763613
36	0x3d40772f	0.046988662
37	0xbddd0880	-0.10792637
38	0x3d4d56ca	0.050131597
39	0xbd9c0845	-0.07618765
40	0xbe491a3e	-0.19638917
41	0xbddf8ff5	-0.109161295
42	0xbca66e10	-0.020316154
43	0xbd95c4f9	-0.0731296
44	0x3aa99f41	0.0012941138
45	0xbb234b4a	-0.0024916702
46	0x3c61bca7	0.013777888
47	0x3ce30d48	0.027716294
48	0x3d293c63	0.041317355
49	0x3d14af02	0.036299713
50	0x3d248d16	0.040173613
51	0x3c8d704f	0.017265467
52	0x3c559b9a	0.013037587
53	0x3bc5fd74	0.006042177
54	0x3d90f797	0.07078474
55	0x3d97b62f	0.07407796
56	0x3d4e48e9	0.0503625
57	0xbc760c45	-0.015017574
58	0xbcf0cadf	-0.029393611
59	0xbc2776ec	-0.010221224
60	0x3cc33900	0.02383089
61	0xbb8b4f35	-0.0042513856
62	0x3ce048b4	0.027378418
63	0x3db2dc20	0.08733392
64	0x3e2ab882	0.16671947
65	0x3e00fc8f	0.12596343
66	0x3e14fb47	0.1454898
67	0x3e544442	0.20729163
68	0x3e570b88	0.21000493
69	0x3e289b46	0.16465482
70	0x3e462726	0.19350871
71	0x3e2421bb	0.16028492
72	0xbd78d8f2	-0.06075377
73	0xb9b43dc2	-0.0003437829
74	0xbcab8822	-0.020938937
75	0xbd9c273a	-0.076246694
76	0xbd7fc6e1	-0.062445525
77	0xbdd2d283	-0.10294058
78	0xbd8ae884	-0.0678263
79	0x3d3941f7	0.045228925
80	0xbcf7e2fb	-0.0302596
81	0x3b447575	0.0029977236
82	0x3c3ac745	0.011400049
83	0x39f60505	0.00046924516
84	0x3d349887	0.044090774
85	0x3ceecad1	0.029149445
86	0x3a56948d	0.0008185588
87	0xbd414465	-0.047184367
88	0xbce38304	-0.027772434
89	0xbcc6b316	-0.024255317
90	0xbc9b4103	-0.018951898
91	0xbdfea9e1	-0.124347456
92	0xbd93d8cd	-0.07219086
93	0xbd915943	-0.070971034
94	0xbe402513	-0.18764143
95	0xbde61e73	-0.112362765
96	0x3d0ea8a5	0.0348288
97	0xbc9c900d	-0.019111658
98	0x3d4f891c	0.050667867
99	0x3d68f663	0.056875598
100	0x3d9c7821	0.076401
101	0x3d87078b	0.065932356
102	0x3d60e013	0.054901194
103	0x3d25fcea	0.0405244
104	0x3d4960ae	0.049164467
105	0x3bf701a0	0.0075380355
106	0x3c566782	0.013086202
107	0x3d00fb2d	0.03148954
108	0xbe017091	-0.12640597
109	0xbdc5a388	-0.09650332
110	0xbdfc6da6	-0.12325601
111	0xbdb3682c	-0.087601036
112	0xbd986c2b	-0.074425064
113	0xbdd23f25	-0.1026595
114	0xbdb33703	-0.08750727
115	0xbdcade92	-0.09905733
116	0xbde9a80e	-0.11409007
117	0xbda65247	-0.08121162
118	0xbd84068e	-0.06446563
119	0xbcbbe828	-0.02293785
120	0xbd9aa233	-0.07550468
121	0xbd7ef9e2	-0.062250026
122	0xbcb7c19f	-0.022431193
123	0xbd092a8e	-0.03348785
124	0xbd008718	-0.031378835
125	0xbd40da02	-0.04708291
126	0xbe379335	-0.17927249
127	0xbd9a75d7	-0.075420074
128	0xbdec770c	-0.11546144
129	0xbd740dd5	-0.059583504
130	0xbcde89b7	-0.027165277
131	0x3d8b3ca4	0.06798676
132	0xbd0837cc	-0.033256337
133	0x3cc748f0	0.024326771
134	0x3d66bcce	0.056332402
135	0xbe17f90a	-0.14841095
136	0x3c7557a2	0.014974507
137	0xbe2574ae	-0.16157791
138	0xbd9eac9f	-0.077477686
139	0x3c125733	0.008931923
140	0xbe010b21	-0.12601902
141	0x3d2b171c	0.041770086
142	0x3d869849	0.06572015
143	0xbca9f2a3	-0.020745581
144	0x3d2e5d97	0.042569723
145	0x3d78ed3f	0.06077313
146	0x3d331913	0.043725085
147	0x3d3b0f3d	0.04566883
148	0x3d0a679a	0.03379021
149	0x3d2c98b4	0.042137817
150	0x3d3b689f	0.04575407
151	0x3d3a01a4	0.04541172
152	0x3d3dffc5	0.0463865
153	0xbd4aa88a	-0.049477138
154	0xbdb5096d	-0.088396885
155	0xbdb47950	-0.08812201
156	0xbda59838	-0.08085674
157	0xbde76767	-0.11299019
158	0xbd9de704	-0.07710078
159	0xbd98971d	-0.074506976
160	0xbd9ef2d8	-0.077611625
161	0xbcb560bd	-0.022140855
162	0xbd88427a	-0.066533044
163	0xbd1b81c0	-0.037965536
164	0xbd29cb36	-0.041453563
165	0xbd7bb4b6	-0.061451636
166	0xbcc85088	-0.024452463
167	0xbd927812	-0.07151808
168	0xbd28b117	-0.04118451
169	0xbd074cbb	-0.03303216
170	0xbd30c813	-0.043159556
171	0x3c5bd452	0.01341732
172	0x3c8aa8a5	0.01692612
173	0x3c87edae	0.016592827
174	0x3a838f45	0.0010037204
175	0x3d0a7edf	0.0338124
176	0x3d017de2	0.03161419
177	0xbca535c7	-0.020167245
178	0x3c448a59	0.011995875
179	0x3cae9343	0.021310454
180	0x3e179675	0.14803489
181	0x3dad4e0d	0.08462153
182	0x3dc74ca0	0.09731412
183	0xbdb45340	-0.08804941
184	0xbd314eb1	-0.043287937
185	0xbcfa96b1	-0.030589433
186	0xbce93c9a	-0.02847128
187	0xbc5dde4d	-0.01354177
188	0xbc95e46c	-0.018297397
189	0xbe1192ae	-0.1421611
190	0xbdcff64b	-0.101543985
191	0xbe1539f3	-0.14572887
192	0xbe441ee9	-0.19152416
193	0xbe1e21f4	-0.1544264
194	0xbe430be5	-0.19047506
195	0xbd3e0b57	-0.046397533
196	0xbd1bc3e7	-0.038028624
197	0xbdcabd12	-0.098993436
198	0xbde7324b	-0.112888895
199	0xbe300b6a	-0.17191854
200	0xbe1e52c9	-0.15461268
201	0xbe4573d4	-0.19282466
202	0xbdc5d927	-0.09660559
203	0xbe27f4c2	-0.16401961
204	0xbe297d5e	-0.1655173
205	0xbd925661	-0.07145382
206	0xbe48f081	-0.19622995
207	0x3d895b5e	0.0670688
208	0x3da16288	0.078801215
209	0x3d520f8f	0.05128437
210	0xbdbe9965	-0.093066014
211	0xbd903718	-0.07041758
212	0xbd661cc0	-0.056179762
213	0xbcbd466a	-0.023104865
214	0xbbdbf76b	-0.006712844
215	0xbc3ab007	-0.011394507
216	0xbe0ce1d5	-0.13758023
217	0xbe20885c	-0.15677017
218	0xbda87787	-0.08225923
219	0xbe3ad807	-0.1824647
220	0xbe24db0b	-0.16099183
221	0xbe249023	-0.16070609
222	0xbe4d131c	-0.20026821
223	0xbdb92616	-0.090404674
224	0xbcfa4b02	-0.030553345
225	0xbd5d82e3	-0.0540799
226	0xbc8d3358	-0.017236397
227	0xbd7c5fa2	-0.06161464
228	0xbbb014ab	-0.0053735576
229	0x3d1e0d28	0.038586766
230	0xbcb2ac4c	-0.021810673
231	0xbe91e38d	-0.2849392
232	0xbdab2f13	-0.08358588
233	0xbee3a7ea	-0.44464046
234	0xbd0f6334	-0.035006717
235	0x3cefee08	0.029288307
236	0x3db9cec9	0.09072644
237	0xbdbc51f1	-0.091953166
238	0xbcc34612	-0.023837123
239	0xbd4455bf	-0.047933336
240	0xbf22935c	-0.635061
241	0xbf1e35e5	-0.61800987
242	0xbec995ab	-0.39372
243	0xbd077a3f	-0.033075567
244	0xbd2d8d74	-0.04237123
245	0xbcc06eda	-0.023490358
246	0xbde769a3	-0.112994455
247	0xbde44f0f	-0.11147892
248	0xbdd56344	-0.10419324
249	0xbdebabcd	-0.11507378
250	0xbe6fd7d7	-0.2342218
251	0xbe6354fd	-0.22200389
252	0xbe23871c	-0.15969509
253	0xbe21d1aa	-0.15802637
254	0xbdf5c9f0	-0.12001407
255	0xbe22cbc0	-0.15898037

conv2.bias f4 [32]
0	0x3e109c4b	0.14122121
1	0x3ebee194	0.37281477
2	0x3e94e6d5	0.2908236
3	0x3de2cb80	0.11073971
4	0xbdc35dfc	-0.095394105
5	0xbd7d35da	-0.061818935
6	0xbdf4e2e5	-0.11957339
7	0xbde49c2c	-0.111626
8	0x3e4e04ce	0.2011902
9	0xbe3034cf	-0.17207645
10	0xbd44e6e1	-0.048071746
11	0x3dd1727f	0.102269165
12	0x3ec5f91f	0.38666627
13	0x3e106a5b	0.14103071
14	0xbd85682d	-0.065140106
15	0x3e78a88e	0.24283049
16	0xbdf95a48	-0.12175423
17	0x3d98a514	0.07453361
18	0xbe020a86	-0.12699327
19	0x3e6d5510	0.2317698
20	0xbd4648c2	-0.04840923
21	0x3e5dcb49	0.21659578
22	0x3e361a89	0.1778356
23	0xbd98985c	-0.07450935
24	0x3a0e621c	0.00054314896
25	0x3cb2796a	0.02178641
26	0x3e2717fe	0.16317746
27	0xbda04485	-0.07825569
28	0xbe0cc972	-0.1374872
29	0xbe819baa	-0.25314075
30	0xbdc261b7	-0.09491294
31	0x3de5365a	0.11192007

conv3.weight f4 [64, 32, 3, 3]
0	0x3d90d1c0	0.07071257
1	0x3cf0ddb9	0.0294026
2	0xbe98947d	-0.29800788
3	0xbdacd28f	-0.08438598
4	0x3bcf4f04	0.006326558
5	0xbeb17bda	-0.34664804
6	0xbe6cf0ea	-0.23138776
7	0xbe440bff	-0.19145201
8	0xbe97d1ff	-0.29652402
9	0x3df1a18d	0.117983915
10	0xbdcf075f	-0.10108828
11	0x3da6e299	0.08148689
12	0x3ea93ddf	0.33055016
13	0x3d17942b	0.03700654
14	0x3de382dc	0.11108944
15	0xbd3b7feb	-0.04577629
16	0xbe908967	-0.2822983
17	0xbc1e418e	-0.009659184
18	0x3dbf3437	0.09336131
19	0x3d585da0	0.052823663
20	0x3da13335	0.07871095
21	0xbeb26908	-0.34845757
22	0xbdd96709	-0.106153555
23	0xb9979184	-0.00028909382
24	0xbd9e7cf3	-0.07738676
25	0xbd73bd07	-0.059506442
26	0xbe438437	-0.19093405
27	0xbe0dafcf	-0.13836597
28	0xbd4cf27d	-0.050035942
29	0xbda2d26b	-0.0795029
30	0xbe1905ef	-0.1494367
31	0xbde5f2e3	-0.112279676
32	0xbe203bf1	-0.15647866
33	0xbed0dfa4	-0.40795624
34	0xbf15c41f	-0.5850238
35	0xbe8ec87a	-0.27887326
36	0xbe3bf9c8	-0.18357003
37	0xbc544d62	-0.012957903
38	0xbdb4653e	-0.08808373
39	0x3eb14a69	0.34627083
40	0x3e807d40	0.25095558
41	0x3e10fb77	0.14158426
42	0x3e8f3dc7	0.2797682
43	0x3eac479c	0.33648384
44	0xbe43b781	-0.1911297
45	0x3c868a42	0.016423348
46	0x3d0563ef	0.032566007
47	0x3cecbd36	0.028898817
48	0x3bb071ac	0.0053846445
49	0x3d8ab590	0.067729115
50	0x3d308dca	0.04310397
51	0xbd218e5e	-0.039442413
52	0xbd616025	-0.05502333
53	0xbd7fbd4e	-0.062436394
54	0xbd87b704	-0.06626704
55	0x3d7adfae	0.061248474
56	0x3d89adc1	0.06722594
57	0x3e2516c4	0.16121966
58	0xbca69799	-0.02033596
59	0x3b489425	0.003060588
60	0x3b79f524	0.00381405
61	0x3c3de166	0.011589384
62	0x3b065f58	0.0020503607
63	0x3cad5f77	0.021163685
64	0xbd6ef6df	-0.058340903
65	0xbe24c86b	-0.16092078
66	0xbdd60c9a	-0.10451622
67	0xbe383e93	-0.1799262
68	0x3ca595e5	0.020213077
69	0x3eb4d07e	0.35315317
70	0x3e4a03bb	0.19727986
71	0x3de06c03	0.109581016
72	0xbea36325	-0.3191158
73	0xbf071d29	-0.5277887
74	0xbeee6e46	-0.46568507
75	0xbe006dca	-0.12541881
76	0xbec24727	-0.3794491
77	0xbf000224	-0.50003266
78	0xbe09e2ca	-0.1346542
79	0xbce7b5cf	-0.028284935
80	0xbed3910f	-0.41321608
81	0xbedc1526	-0.42984885
82	0x3d73f3cb	0.05955867
83	0xbd190ce1	-0.037365798
84	0x3e347996	0.17624506
85	0x3e83e199	0.25758055
86	0xbc4cadcf	-0.012492611
87	0xbe878334	-0.26467288
88	0x3cdd8e13	0.027045285
89	0xbe51acf6	-0.20476136
90	0xbe6884fd	-0.22706981
91	0x3dec435b	0.115362845
92	0x3d354eaf	0.04426449
93	0x3dc0ad8c	0.094081014
94	0x3e488920	0.19583559
95	0x3e772f21	0.24139072
96	0xbed49e76	-0.41527146
97	0xbd5f938e	-0.05458408
98	0xbe102456	-0.14076361
99	0x3e1a778e	0.15084669
100	0xbe49f1d8	-0.19721162
101	0xbe285a97	-0.16440807
102	0xbdbc9703	-0.09208491
103	0xbe2ca6c5	-0.16860493
104	0xbe5d155b	-0.21590178
105	0x3e8897cc	0.26678312
106	0xbbd7fa26	-0.0065910993
107	0x3dd2572f	0.10270535
108	0x3ce44adc	0.027867727
109	0xbe008e0a	-0.12554184
110	0x3e567001	0.20941164
111	0x3dbd0938	0.09230274
112	0xbd885244	-0.06656316
113	0x3dcf8392	0.10132517
114	0xbee87d57	-0.45408127
115	0xbf0e474c	-0.5557754
116	0xbd713408	-0.05888751
117	0xbe9541d2	-0.2915178
118	0xbe8a5191	-0.27015355
119	0xbea5a2b5	-0.32350698
120	0xbd860b16	-0.06545083
121	0x3dec3f78	0.11535543
122	0xbc3c8128	-0.011505403
123	0x3ea290dc	0.31751144
124	0x3e435012	0.19073513
125	0x3e18ebb3	0.14933662
126	0xbd24530f	-0.040118273
127	0xbd21a5e1	-0.039464835
128	0x3d5c55c7	0.05379274
129	0xbc821fbb	-0.01588427
130	0xbbf9c296	-0.0076220734
131	0xbb163d31	-0.0022924657
132	0x3ce01b7c	0.027356856
133	0xbd55303b	-0.05204795
134	0x39a9c1f2	0.00032378692
135	0x3c3094c4	0.010777656
136	0x3b850b4f	0.004060186
137	0xbd408ec4	-0.047011152
138	0x3df631e4	0.12021235
139	0x3d9b518e	0.07583915
140	0xbe0a597f	-0.13510703
141	0xbdf4fd75	-0.119624056
142	0xbc90f58b	-0.017695209
143	0xbe94a5cb	-0.2903274
144	0xbe348431	-0.17628552
145	0x3e61e39b	0.22059481
146	0x3e033be4	0.12815815
147	0x3c3cf4ce	0.011532975
148	0x3e557d7b	0.20848648
149	0x3dede6de	0.116163
150	0x3e0567de	0.13027903
151	0xbc66f113	-0.0140955625
152	0xba709a7d	-0.0009178294
153	0x3e44d86c	0.19223183
154	0xbd984106	-0.07434277
155	0x3cbf36c3	0.023341542
156	0x3e58e957	0.21182762
157	0x3e5209d5	0.20511563
158	0x3d63f6f8	0.05565545
159	0xbcc2e0a7	-0.023788763
160	0x3ea377e2	0.319274
161	0xbda1144c	-0.078651994
162	0xbcc47f7d	-0.023986572
163	0xbda804c8	-0.08204037
164	0xbd2b5b47	-0.041835096
165	0xbc859521	-0.016306462
166	0xbca176ea	-0.019710023
167	0x3b1bb415	0.002375846
168	0x3cbef61f	0.023310719
169	0x3b2a9771	0.0026030208
170	0x3d08aaf0	0.033366144
171	0xbd33c43e	-0.043888323
172	0xbe65fc34	-0.22459489
173	0xbe322529	-0.17396988
174	0xbe217912	-0.15768841
175	0xbdc29f0e	-0.095029935
176	0xbe6d29e8	-0.23160517
177	0x3d5693e1	0.052387122
178	0x3e23cb9b	0.15995638
179	0x3db6df7c	0.08929345
180	0xbe1bb0ee	-0.15204212
181	0xbeb22e6f	-0.3480105
182	0xbe98cb32	-0.29842526
183	0x3c62a438	0.013833098
184	0xbda4e89c	-0.08052179
185	0x3dd6acb6	0.10482161
186	0x3eaeeb53	0.34163913
187	0x3e09b759	0.13448848
188	0x3de94bee	0.113914356
189	0xbe30e14e	-0.17273447
190	0x3dd9d763	0.10636785
191	0x3ccb8438	0.02484332
192	0xbd8e228c	-0.06940183
193	0x3b9c43a3	0.004768805
194	0x3de2bdff	0.11071395
195	0xbe251608	-0.16121686
196	0xbcd6a7a4	-0.026202984
197	0xbc8ac917	-0.01694159
198	0xbd85c954	-0.06532541
199	0xbe99dab3	-0.30049667
200	0xbed7b2fe	-0.42128748
201	0xbdf88230	-0.12134206
202	0xbdcc8279	-0.09985823
203	0xbe51f073	-0.2050188
204	0xbdb677e1	-0.08909584
205	0xbc937c7d	-0.018003697
206	0x3d7aac44	0.06119944
207	0xbd6a7c35	-0.05724736
208	0xbd53b30f	-0.051684435
209	0xbb820a54	-0.0039685164
210	0x3c9f5b06	0.019452583
211	0xbd1f847f	-0.038944717
212	0x3d4dfda3	0.050290715
213	0xbcfd0f63	-0.030891126
214	0xbcc5c4e0	-0.024141729
215	0xbbfd98fc	-0.0077391844
216	0x3e3a5abf	0.1819868
217	0x3e079ff4	0.13244611
218	0xbe3b24f5	-0.18275817
219	0xbe432323	-0.19056372
220	0xbe60401f	-0.2189946
221	0xbb6c4131	-0.00360496
222	0x3d751a70	0.059839666
223	0xbcee091d	-0.02905708
224	0xbeea548b	-0.45767626
225	0xbe7451b7	-0.23859297
226	0x3e0dbf5d	0.1384253
227	0xbdf8aea7	-0.12142687
228	0x3d74469f	0.059637662
229	0x3e7638f5	0.24045165
230	0xbc204a7e	-0.009783385
231	0xbdaf47fe	-0.08558653
232	0x3dfdac84	0.1238642
233	0x3c205257	0.009785256
234	0xbe186eac	-0.14885968
235	0xbec892c3	-0.3917447
236	0xbe1b14b6	-0.1514462
237	0xbe8fe4f7	-0.28104374
238	0xbf156789	-0.5836111
239	0xbda17ee9	-0.07885534
240	0xbe962957	-0.29328415
241	0xbec12040	-0.37719917
242	0xbdd3d031	-0.10342444
243	0x3be49a57	0.0069764066
244	0x3c2fbcc1	0.010726155
245	0xbd8ea4f6	-0.069650576
246	0xbe6481fd	-0.22315212
247	0xbe75c71c	-0.24001735
248	0xbebc8c21	-0.3682566
249	0x3dee5add	0.116384245
250	0xbd18e253	-0.037325215
251	0x3dd9f957	0.10643261
252	0xbe81d257	-0.2535579
253	0xbdf12c35	-0.1177601
254	0x3e523227	0.20526944
255	0xbeac76eb	-0.33684477

conv3.bias f4 [64]
0	0xbe50e0e8	-0.20398295
1	0xbe1c3aba	-0.15256777
2	0x3e0dbe40	0.13842106
3	0xbde6a3ae	-0.11261688
4	0xbd62985f	-0.055321094
5	0xbe9d95ae	-0.3077826
6	0xbdd1d41b	-0.10245534
7	0x3ea19f0f	0.31566665
8	0xbd9b7598	-0.075907886
9	0xbdbf8b8e	-0.0935279
10	0xbcabc55f	-0.020968137
11	0xbdc01a6d	-0.0938004
12	0x3d214e8e	0.039381556
13	0x3e9dcdbd	0.30821028
14	0xbddf9562	-0.109171644
15	0xbd8e6bb6	-0.06954138
16	0x3d8de5e4	0.06928614
17	0xbdf40cd0	-0.11916506
18	0xbd1d817c	-0.038453564
19	0x3ea7b7d6	0.32757443
20	0x3d9dfba8	0.07714015
21	0xbcfd286e	-0.030903067
22	0xbe79cacf	-0.24393772
23	0xbdb9018b	-0.090334974
24	0x3e8725cf	0.26396033
25	0xbe29ebb2	-0.16593817
26	0x3e50bb06	0.20383844
27	0x3f0db589	0.55355126
28	0x3d5d071a	0.05396185
29	0xbe993d25	-0.29929462
30	0x3e0c9afe	0.13731
31	0xbd8c0ef1	-0.06838787
32	0xbe349715	-0.17635758
33	0xbe356858	-0.17715585
34	0x3f0b245e	0.54352367
35	0xbda7d460	-0.08194804
36	0x3cdfb9e0	0.027310312
37	0xbd8f0377	-0.06983083
38	0x3de84ed1	0.11343158
39	0xbd6c5887	-0.057701614
40	0xbcc68e6d	-0.024237836
41	0x3e671e24	0.22570091
42	0x3eb130b3	0.34607467
43	0xbe835b11	-0.25655416
44	0x3e746485	0.2386647
45	0xbd7d01f6	-0.06176945
46	0xbe6ded5b	-0.23235075
47	0xbddaf2db	-0.10690852
48	0x3d353332	0.044238277
49	0xbdf400cd	-0.11914215
50	0xbd885b20	-0.06658006
51	0xbd72796d	-0.059197832
52	0xbe9b660b	-0.3035129
53	0xbe4c8ba6	-0.19975147
54	0x3f325818	0.6966567
55	0x3de8088e	0.11329757
56	0xbd2d9f90	-0.0423885
57	0xbd33a6d9	-0.04386029
58	0xbb0c7b97	-0.002143597
59	0xbd6a15a5	-0.057149548
60	0xbd834426	-0.06409483
61	0xbd9cd78c	-0.076583
62	0xb944e90e	-0.00018778836
63	0xbd586f37	-0.052840438

fc1.weight f4 [128, 1024]
0	0x3b2c64a0	0.0026305094
1	0x3cbf58ba	0.023357738
2	0x3c401500	0.011723757
3	0xbb74e8f0	-0.0037370287
4	0xbb1fb270	-0.0024367832
5	0xbc319e40	-0.010840952
6	0xbcfa9bd6	-0.030591886
7	0x3ca91dd0	0.020644099
8	0x3a71d240	0.000922475
9	0xbca1cf9c	-0.019752316
10	0xbb9cb470	-0.004782252
11	0x3c413818	0.011793159
12	0x3bc7e7c0	0.006100625
13	0x3c2a81f8	0.0104069635
14	0xbc850880	-0.016239405
15	0xbb674070	-0.003528621
16	0xbbd45148	-0.006479416
17	0x3b2550b0	0.0025225095
18	0x3c9fafba	0.019492973
19	0xbc90057e	-0.017580744
20	0x3c774a00	0.015093327
21	0x3ccd1e64	0.025038905
22	0x3c8aa07e	0.016922232
23	0xbc687794	-0.014188666
24	0x3b569d10	0.0032747425
25	0x3b97c2c8	0.004631374
26	0x3c8f84c0	0.017519355
27	0x3c277fa0	0.010223299
28	0xbc395610	-0.011312023
29	0xbc8ab10a	-0.016930122
30	0xbc181b40	-0.009283841
31	0xbc81ecaa	-0.01585992
32	0x3b9b8098	0.004745554
33	0x3c12cfd4	0.008960683
34	0x3b012150	0.0019703694
35	0xbc483d64	-0.012221668
36	0x3c59b980	0.013288856
37	0xbcff62d6	-0.031175058
38	0x3c982a8c	0.018574975
39	0xbbf78b30	-0.0075544342
40	0xbc9052ea	-0.017617662
41	0xbc1db2e0	-0.009625167
42	0xb98eb800	-0.0002722144
43	0xba7a2600	-0.00095424056
44	0x3cc5fbf6	0.024167996
45	0xbcb0231c	-0.021501116
46	0x3ba0b938	0.0049048923
47	0xbc1112e8	-0.008854605
48	0xbc6b19bc	-0.014349397
49	0x3c134c70	0.008990392
50	0x3c52cedc	0.012866702
51	0x3ce80d3c	0.028326623
52	0x3c78b6ef	0.0151803335
53	0xbce3edfc	-0.02782344
54	0x3cec477c	0.02884268
55	0x3b29d0f0	0.002591189
56	0xbcd41ad9	-0.025891708
57	0x3c72d5d4	0.014821488
58	0xbc5902a8	-0.013245262
59	0xba350ac0	-0.0006906204
60	0xbcbc61c1	-0.022995831
61	0x3be7eb60	0.0070776194
62	0xbcc258ae	-0.023723926
63	0xbd122bfe	-0.035686485
64	0x3ccc8228	0.024964407
65	0x3cedcac0	0.029027343
66	0xbb8cd640	-0.0042980015
67	0x3ce264de	0.027635988
68	0x3cb03b36	0.021512609
69	0x3c6c1fa8	0.014411844
70	0x3cf986e0	0.030459821
71	0xbb1b0b90	-0.0023658015
72	0xbcd9587a	-0.026531447
73	0xbc1bdfc4	-0.009513799
74	0xbc28ee08	-0.010310657
75	0x3c1a9cfc	0.009436842
76	0xbb1ec4e0	-0.0024226233
77	0xbacad780	-0.0015475601
78	0xbb5e6020	-0.0033931807
79	0xbc7a1cf8	-0.015265696
80	0xbb86dd50	-0.004115738
81	0x3cd38da4	0.025824375
82	0x3c845e50	0.016158253
83	0xbc77d388	-0.015126117
84	0x3caf533a	0.02140199
85	0x3c9cf27a	0.01915859
86	0x3c671234	0.014103461
87	0xbcb9960c	-0.022654556
88	0x3c9238fa	0.017849434
89	0xbcda9cc2	-0.026686076
90	0x3cb8df9a	0.022567559
91	0xbb85f8b0	-0.0040884838
92	0xbc93ec7c	-0.0180571
93	0x3c2e5f3c	0.010642823
94	0x3c052ad8	0.0081278905
95	0xba404ac0	-0.00073353574
96	0xbcc70d7e	-0.024298426
97	0xbbd24bd8	-0.0064177327
98	0x3cd8b1ca	0.026451964
99	0x3cead36c	0.028665267
100	0xbbb7ed20	-0.0056129843
101	0x3cc82af0	0.024434537
102	0x3ce220fe	0.027603623
103	0xbcc84c3c	-0.024450414
104	0xbc1fd0d0	-0.009754375
105	0x3cddeee0	0.027091444
106	0x3c4d220c	0.012520324
107	0xbcbddd94	-0.023176946
108	0x3c76e820	0.015069991
109	0xbccb60da	-0.024826456
110	0x3ca7d19c	0.020485692
111	0xbcf73348	-0.03017582
112	0x3bfac592	0.0076529467
113	0xb93a882c	-0.0001778907
114	0x3b525c91	0.003209863
115	0xbcb97e5b	-0.022643259
116	0xbc231df0	-0.009955868
117	0xbd26b004	-0.040695205
118	0x3c4ac3c6	0.012375778
119	0xbd058828	-0.03260055
120	0xbd02c08d	-0.031921912
121	0xbcb71fed	-0.02235409
122	0xbd0a0a17	-0.03370103
123	0xbcf14248	-0.02945055
124	0xbc873d0c	-0.016508602
125	0xbcca290c	-0.024677776
126	0xbca75c1b	-0.020429661
127	0xbca3e72e	-0.020007696
128	0xbcfa3a48	-0.030545369
129	0xbb462930	-0.0030236952
130	0x3cf9cd86	0.030493509
131	0x3cc14b50	0.023595482
132	0x3cf2dec4	0.029647239
133	0xbcf15a7a	-0.029462088
134	0x3c30dfcc	0.010795545
135	0xbc90dec2	-0.017684344
136	0x3bac1758	0.005251806
137	0xbc362d3c	-0.011119183
138	0x3cbf2628	0.023333624
139	0xbc810396	-0.01574878
140	0xbc1d80c4	-0.00961322
141	0x3c056354	0.008141357
142	0xbce7ab86	-0.028280031
143	0xbce6a900	-0.028156757
144	0xbb960a40	-0.0045788586
145	0x3c115de0	0.008872479
146	0x3c183ffc	0.009292599
147	0xbbfc3058	-0.0076961927
148	0x3c94cf82	0.018165354
149	0x3c94f572	0.018183444
150	0x3b18cd50	0.0023315735
151	0xbc80c73e	-0.015720006
152	0x3b1d72a0	0.002402462
153	0x3cbefd70	0.023314208
154	0x3c030e38	0.0079989955
155	0xbc67b8e0	-0.014143199
156	0x3cad3200	0.021142006
157	0x3b15eeb0	0.0022877865
158	0xbc985352	-0.018594418
159	0x3cef61f2	0.029221509
160	0xbacdec40	-0.0015710667
161	0xbcd0c950	-0.025486618
162	0xba30b7c0	-0.0006741248
163	0x3c32fde0	0.010924786
164	0x3c77a1a4	0.015114222
165	0xbb946eb0	-0.0045297965
166	0xbcaf9a5c	-0.021435909
167	0xbbf07d88	-0.0073391832
168	0x3cb15536	0.021647077
169	0x3c56071c	0.013063218
170	0xbc104c70	-0.008807287
171	0x3c7506f4	0.014955271
172	0xbc39a95c	-0.011331882
173	0xbc161bf4	-0.009161938
174	0xbbe2ff98	-0.006927442
175	0xbbca2d30	-0.0061699376
176	0x3ca3140a	0.019907016
177	0xbc9bf6c4	-0.019038565
178	0x3caaefb6	0.020866256
179	0x3cc2cc48	0.02377905
180	0xbca00d60	-0.019537628
181	0x3cc0d698	0.023539826
182	0x3c8653aa	0.016397316
183	0x3bdf8d30	0.006822251
184	0x3bafb660	0.005362317
185	0xbcb6c18e	-0.022309091
186	0x3c76070c	0.015016329
187	0x3caa9fb0	0.020828098
188	0x3c4127fc	0.011789318
189	0xbc251388	-0.010075457
190	0x3c44fb10	0.012022749
191	0x3b3e73a0	0.0029060617
192	0xbd133914	-0.035943106
193	0x3a22b054	0.00062060845
194	0x3b1ebea2	0.0024222513
195	0x3b94a040	0.004535705
196	0xba69959f	-0.000891054
197	0xbab4c6f4	-0.0013792203
198	0xbcd4bfee	-0.025970425
199	0xbc1a496e	-0.009416921
200	0xbca3ff88	-0.020019308
201	0xbd1b53ce	-0.03792172
202	0xbcc6f76a	-0.024287898
203	0x3b1d3e27	0.0023993345
204	0xbd0dafd8	-0.034591526
205	0xbcef0f1c	-0.02918201
206	0xbb42a5a6	-0.0029700785
207	0xbd13a0ce	-0.036042027
208	0xbcfbd908	-0.030743137
209	0xbbe83438	-0.007086303
210	0x3baaafd0	0.0052089468
211	0x3ca1822a	0.019715387
212	0xbcb4f91e	-0.022091445
213	0x3ce3cc7c	0.027807467
214	0x3cafde48	0.021468297
215	0x3cac8e1c	0.021063857
216	0xbb35c6d0	-0.002773691
217	0x3bae1e20	0.00531365
218	0xbbf851e8	-0.0075781234
219	0x3be1fc60	0.0068965405
220	0xbbf06b98	-0.007337045
221	0xbcec4082	-0.028839353
222	0x3c0dfd40	0.008666337
223	0x3c2e5e58	0.0106426105
224	0x3c32a654	0.0109039135
225	0xbc8af9f0	-0.016964883
226	0xbb0c0ad0	-0.002136875
227	0xbcf50426	-0.029909205
228	0x3c9f7fb2	0.01947007
229	0x38a17000	7.69794e-05
230	0x3b7bba10	0.0038410462
231	0x3be640f0	0.007026784
232	0xbbb38b80	-0.005479276
233	0x3c80a78e	0.015704896
234	0x3c1b5a38	0.009481959
235	0xbc868e98	-0.016425416
236	0x3cb51f6c	0.02210971
237	0x3bec9020	0.0072193295
238	0xbc9f016c	-0.019409858
239	0x3c885b84	0.0166452
240	0x3c0b2b7d	0.008494255
241	0x3baabc2b	0.0052104197
242	0x3cbe3cbe	0.023222324
243	0xbcbe3f76	-0.02322362
244	0x3b931340	0.0044883788
245	0xbcf13f98	-0.02944927
246	0xbb900b80	-0.004395902
247	0x3b91f690	0.0044544414
248	0xbc67b784	-0.014142875
249	0xbbf41b40	-0.0074495375
250	0x3c879ec2	0.016555194
251	0xbb709b60	-0.0036713704
252	0x3b0497c0	0.0020232052
253	0xbb5e5590	-0.003392551
254	0x3c845951	0.01615587
255	0xbcb025d6	-0.021502417

fc1.bias f4 [128]
0	0xbd05120f	-0.032487925
1	0xbcb3edc1	-0.021963956
2	0x3c67ddf5	0.01415204
3	0xbd7daca3	-0.061932217
4	0xbd10b1a6	-0.03532567
5	0xbd0f040a	-0.03491596
6	0xbdcf4638	-0.10120815
7	0xbe1740e0	-0.14770842
8	0x3ee97c7c	0.45602787
9	0x3d859cd7	0.065240555
10	0xbcfca83e	-0.030841943
11	0xbd6252bb	-0.05525468
12	0xbd0b6849	-0.034035
13	0x3e0543dc	0.13014168
14	0x3c870201	0.016480448
15	0xba2bf95a	-0.00065602886
16	0x3d21be93	0.039488386
17	0xbba6199e	-0.005068972
18	0xbba8a29c	-0.0051463377
19	0xbc664a02	-0.014055731
20	0x3e8bd1cc	0.273085
21	0xbce213be	-0.027597304
22	0x3eda3d8e	0.42625087
23	0xbd74425e	-0.059633605
24	0xbd451065	-0.04811134
25	0xbd5209ab	-0.05127875
26	0x3ed4a86c	0.41534746
27	0xbd21c46c	-0.039493963
28	0xbcd7cae6	-0.026341867
29	0xbd50c2b9	-0.050966952
30	0xbcbd8fdc	-0.023139887
31	0xbd5ed1b5	-0.05439921
32	0xbdb143e3	-0.086555265
33	0xbcdf07dc	-0.027225427
34	0xbd8936b3	-0.06699886
35	0xbec17278	-0.37782645
36	0x3de06051	0.10955871
37	0x3e17573f	0.14779375
38	0xbcf34507	-0.029696
39	0xbe07af84	-0.13250548
40	0xbc0f90c4	-0.008762542
41	0xbd82bb28	-0.063833535
42	0xbce24f06	-0.027625572
43	0x3ee53558	0.4476726
44	0xbc41f542	-0.011838259
45	0xbd2a055f	-0.04150903
46	0xbcc703f9	-0.024293886
47	0xba012d56	-0.0004927715
48	0x3ece412e	0.40284103
49	0x3ebd7421	0.37002662
50	0xbd24a801	-0.040199284
51	0xbca7f188	-0.020500913
52	0x3e4c0ee3	0.19927554
53	0x3ed6b412	0.41934258
54	0xbd35f1ea	-0.04442016
55	0x3e83169c	0.25603187
56	0xbd8f5acc	-0.0699974
57	0xbc67e09e	-0.014152674
58	0xbd572b4c	-0.052531525
59	0xbd8dc5fe	-0.0692253
60	0xbc948d1b	-0.01813369
61	0x3e4b9d2a	0.19884172
62	0xbc6b7c9e	-0.014372973
63	0xbb8d5f1b	-0.004314316
64	0x3eae093a	0.33991414
65	0xbe009d34	-0.12559968
66	0xbca1cad5	-0.019750038
67	0xbc9f4fc2	-0.019447211
68	0xbc49348c	-0.012280595
69	0x3c33ceb2	0.010974573
70	0x3a10e80a	0.00055277406
71	0xbe65d15d	-0.22443147
72	0xbce69087	-0.028145088
73	0xbcc6dc62	-0.024275009
74	0xbd0d5c0f	-0.034511622
75	0xbd3c674f	-0.04599696
76	0x3c435094	0.011921067
77	0x3e74acc2	0.23894027
78	0x3e400c3e	0.1875467
79	0x3b3260cc	0.002721834
80	0xbe093967	-0.13400804
81	0xbd1fe381	-0.039035324
82	0xbc4c37b3	-0.012464452
83	0xbcceed42	-0.025259618
84	0x3c8910c5	0.01673163
85	0xbd8dd3c2	-0.06925155
86	0xbd38721e	-0.045030706
87	0xbc6aff6a	-0.014343122
88	0x3e92acf7	0.28647587
89	0xbe83d19c	-0.25745857
90	0xbd1ba3b2	-0.03799791
91	0x3f00cbbc	0.50310874
92	0xbd661f02	-0.056181915
93	0x3ec794b6	0.38980645
94	0xbd70c13a	-0.058778025
95	0xbc9a05c7	-0.018801583
96	0xbdbf1622	-0.093303934
97	0xbd5551b9	-0.05207989
98	0xbeed597b	-0.4635733
99	0x3bc757cb	0.006083464
100	0x3e9319e0	0.2873068
101	0xbde345b7	-0.110972814
102	0x3e20816d	0.15674372
103	0xbbe331d2	-0.0069334293
104	0xbd220a22	-0.039560445
105	0xbb9b7ed8	-0.0047453456
106	0xbd858678	-0.065197885
107	0xbcdeb362	-0.027185146
108	0xbd06618e	-0.03280788
109	0xbd012a40	-0.031534433
110	0x3e1081ce	0.14112017
111	0x3dec3910	0.11534321
112	0x3eacf2b1	0.3377891
113	0x3be1378d	0.0068730772
114	0xbd7c3244	-0.061571375
115	0x3ed0b08f	0.40759704
116	0xbcf83b67	-0.030301763
117	0x3b1b90d7	0.0023737454
118	0xbd637639	-0.055532668
119	0xbb55795b	-0.0032573554
120	0x3d8aa72c	0.06770167
121	0x3dea384c	0.11436519
122	0x3f121555	0.570638
123	0x3f26c39e	0.6514224
124	0xbd5ec580	-0.05438757
125	0x3eadb441	0.33926585
126	0xbdbf8bf3	-0.09352865
127	0xbd680931	-0.05664939

fc2.weight f4 [10, 128]
0	0x3c28b8dc	0.01029798
1	0xbd31697d	-0.043313492
2	0x3d912b3d	0.07088325
3	0x3d683089	0.05668691
4	0xbd3adfda	-0.045623638
5	0x3d108dba	0.03529141
6	0xbf0c96b7	-0.5491747
7	0xbedf3d46	-0.43601435
8	0xbd2c55cb	-0.042074006
9	0x3da6aca1	0.08138395
10	0xbc6aeace	-0.014338208
11	0xbd905a38	-0.07048458
12	0x3d015588	0.03157571
13	0xbd93d8ff	-0.07219123
14	0xbcada9a2	-0.021199051
15	0xbd4209e4	-0.047372714
16	0x3d8daac9	0.0691734
17	0xbdba86e0	-0.091077566
18	0xbd31205f	-0.043243762
19	0x3c6cd3f0	0.014454827
20	0x3d70434b	0.058657926
21	0x3d7d315a	0.061814643
22	0x3de09cd4	0.109674126
23	0xbb245bc3	-0.0025079108
24	0x3d37ae6b	0.044844072
25	0x3d31fef6	0.04345604
26	0xbe212a81	-0.1573887
27	0x3cf6bc3c	0.030119054
28	0x3d21a60c	0.039464995
29	0xbb9302d1	-0.0044864197
30	0xb9de2b99	-0.00042375622
31	0x3d00a3ab	0.031406086
32	0xbdb5a45e	-0.08869241
33	0x3c5ea41a	0.01358893
34	0xbd5b08ea	-0.053475298
35	0xbd1371c3	-0.035997164
36	0xbe82e862	-0.2556792
37	0x3c12a9eb	0.008951644
38	0xbb68ae32	-0.003550422
39	0x3d11d577	0.035603967
40	0xbc3888fe	-0.01126313
41	0x3b5b8cb8	0.0033500623
42	0xbd6109d3	-0.05494101
43	0xbd413f0c	-0.047179267
44	0x3cc59338	0.024118051
45	0xbd9ad3dd	-0.07559941
46	0xbd96058c	-0.07325277
47	0x3d26fe30	0.040769756
48	0x3df8e1e2	0.12152459
49	0xbdcdf72b	-0.10056909
50	0x391d5a7e	0.00015006398
51	0xbd859e97	-0.06524389
52	0xbdc23983	-0.09483626
53	0xbd1afe37	-0.037840094
54	0xbc695cec	-0.014243346
55	0xbcfab6b5	-0.0306047
56	0x3d8aec64	0.06783369
57	0x3b75fd54	0.0037535029
58	0xbc2944a0	-0.010331303
59	0xbbec5fad	-0.007213554
60	0x3d006903	0.031350147
61	0xbe16bf11	-0.14721324
62	0x3b5b0b93	0.0033423647
63	0xbc5776b5	-0.013150861
64	0xbdf0bf45	-0.11755232
65	0xbd92632e	-0.07147823
66	0x3cdad829	0.026714401
67	0x3d9bebe6	0.076133534
68	0xbe4778f2	-0.1947973
69	0xbd8ac09e	-0.0677502
70	0xbdb9b75d	-0.09068177
71	0xbcec1e09	-0.028822916
72	0xbd748852	-0.059700318
73	0xbbb569ff	-0.0055363174
74	0xbd19c675	-0.03754278
75	0xbd76ae11	-0.060224596
76	0x3d6167db	0.055030685
77	0x3e478d7b	0.19487564
78	0xbd4983e8	-0.04919806
79	0xbc3fddf8	-0.011710636
80	0xbf219bdf	-0.63128465
81	0xbb3695ba	-0.002786024
82	0xbcdb0b2d	-0.026738727
83	0xbbae0a15	-0.0053112605
84	0x3d6e2e67	0.05814972
85	0xbc13c209	-0.00901843
86	0xbd8b3882	-0.067978874
87	0xbd125ba3	-0.035731923
88	0xbd96a96c	-0.073565334
89	0x3d1fa232	0.03897304
90	0xbd7ae6df	-0.061255332
91	0x3d2d44a4	0.04230179
92	0x3d6891ba	0.0567796
93	0xbdf87f81	-0.121336944
94	0xbd49237d	-0.04910611
95	0x3cb2b0a1	0.021812739
96	0xbdb32809	-0.087478705
97	0x3d0c4b34	0.034251407
98	0xbcb37181	-0.021904709
99	0x3d93725a	0.07199545
100	0xbe2ab650	-0.16671109
101	0xbddc8282	-0.1076708
102	0x3db2a52c	0.0872291
103	0xbc3ace66	-0.011401748
104	0x3b70a045	0.0036716622
105	0x3d4bce70	0.04975742
106	0x3bcedb18	0.006312739
107	0x3d7ba747	0.061438825
108	0xbb7d3d38	-0.0038641226
109	0xbd2d990d	-0.04238229
110	0x3d58f596	0.052968584
111	0xbec234b8	-0.37930846
112	0xbe2d3549	-0.16914858
113	0xbd281dc7	-0.041044023
114	0xbc86d035	-0.016456703
115	0x3e331c20	0.17491198
116	0xbb060135	-0.0020447497
117	0x3cdb7f6d	0.02679416
118	0x3c29dc4b	0.010367463
119	0xbd83d0e3	-0.06436326
120	0x3e30062b	0.17189853
121	0xbe1fedb8	-0.15618026
122	0xbe819cfc	-0.25315082
123	0xbd9a5a74	-0.07536784
124	0xbe2a90c2	-0.16656783
125	0x3d0d4cc9	0.034497056
126	0xbd950bd5	-0.072776474
127	0xbdbce49a	-0.0922329
128	0xbd110046	-0.03540065
129	0xbc58ea48	-0.013239451
130	0xbd29db4d	-0.041468907
131	0x3d6aebb6	0.057353698
132	0xbda0ada3	-0.078456186
133	0x3ce7bd6a	0.028288562
134	0xbf16c99a	-0.5890137
135	0xbeb04d10	-0.34433794
136	0xbd9b1bd9	-0.07573671
137	0xbe1d793b	-0.15378277
138	0xbce71e83	-0.028212791
139	0x3c0abb68	0.008467533
140	0x3c354144	0.011062924
141	0xbe7b767a	-0.24556914
142	0x3d9c371a	0.07627697
143	0xbdb5d3ff	-0.08878326
144	0x3da903b7	0.08252662
145	0x3c2bb4ce	0.010480119
146	0xbc985d5c	-0.018599205
147	0xbd9ff87b	-0.07811066
148	0x3d2f4571	0.042790834
149	0xbd850cd6	-0.06496589
150	0xbc0b6649	-0.008508273
151	0xbde23227	-0.11044722
152	0xbd08e335	-0.033419807
153	0xbd613d01	-0.05498982
154	0x3afa377d	0.0019090023
155	0xbd559cc0	-0.05215144
156	0xbccd4f7e	-0.025062319
157	0xbaad009c	-0.0013199034
158	0xbc923567	-0.01784773
159	0xbc98dcc1	-0.018659951
160	0xbdb79827	-0.08964568
161	0x3d55b129	0.052170906
162	0xbc2c379e	-0.010511307
163	0xbe5ae539	-0.21376504
164	0xbeab9ea7	-0.3351948
165	0x3bf46b51	0.007459082
166	0xbd1913d9	-0.037372444
167	0xbe52a670	-0.20571303
168	0x3be2baf1	0.006919258
169	0xbd2fa22b	-0.042879265
170	0x3b798719	0.003807491
171	0xbd964efb	-0.07339283
172	0xbcb1e51e	-0.021715697
173	0x3d8928c3	0.06697228
174	0x3e250ef6	0.16118988
175	0xbdba9edc	-0.09112331
176	0xbe117740	-0.14205647
177	0x3dbda828	0.09260589
178	0x3b110aa6	0.002213159
179	0x3d5a6ecb	0.053328317
180	0xbd153637	-0.036428656
181	0xbea5b49e	-0.32364362
182	0xbdbc821b	-0.09204503
183	0xbebfe7ae	-0.37481445
184	0x3c6cdb4f	0.014456584
185	0xbd898675	-0.06715099
186	0xbd096da0	-0.033551812
187	0xbdd9488c	-0.1060954
188	0x3da79df5	0.08184425
189	0xbde0182e	-0.10942112
190	0xbcc27dd7	-0.023741646
191	0xbd1b25a2	-0.037877686
192	0xbde4a1d6	-0.1116368
193	0xbc7ce28b	-0.015434871
194	0x3d3ef090	0.046616137
195	0x3d3bf27c	0.045885548
196	0xbe5e7431	-0.21724011
197	0x3d3e80df	0.04650962
198	0xbcdc7c17	-0.02691464
199	0x3dd821d3	0.105533265
200	0x3b4dcb04	0.0031401524
201	0x3d0cf4ee	0.03441327
202	0x3d14ba20	0.036310315
203	0xbc014151	-0.007889108
204	0xbcc548de	-0.024082597
205	0xbe69a9b4	-0.22818643
206	0xbec6b367	-0.38808748
207	0x3be6a1b5	0.00703832
208	0xbea5a2bd	-0.32350722
209	0x3bafe211	0.0053675254
210	0x3d4f1a30	0.050562084
211	0xbc1667e5	-0.009180044
212	0xbe00b43a	-0.12568751
213	0x3dce15ef	0.10062777
214	0xbe122fbf	-0.14276026
215	0xbd4e89fc	-0.05042456
216	0x3b721f21	0.0036944824
217	0x3dd7a6d0	0.10529864
218	0x3c748f05	0.014926677
219	0xbca17da9	-0.01971324
220	0x3d8e1542	0.06937648
221	0x3dcc241e	0.09967826
222	0xbd7adcf6	-0.06124588
223	0x3d2faee1	0.042891387
224	0xbd278ecf	-0.040907677
225	0xbde8d6a8	-0.113690674
226	0x3e62a0df	0.2213168
227	0xbd2cc268	-0.042177588
228	0x3c7bbbf5	0.015364637
229	0xbcb32345	-0.021867404
230	0x3cdb80a8	0.026794747
231	0xbd0675c7	-0.032827165
232	0x3c8df3df	0.0173282
233	0x3c70dc12	0.014700906
234	0xbd614bcf	-0.055003937
235	0x3c8bfc62	0.017088119
236	0x3bf05597	0.007334422
237	0xbd91aeec	-0.07113442
238	0xbe9de15d	-0.30836
239	0xbe11aa63	-0.14225154
240	0xbe2ac073	-0.16674976
241	0xbdba74e9	-0.0910433
242	0xbdabee91	-0.08395112
243	0xbe3dc084	-0.1853047
244	0x3d70fe17	0.05883607
245	0xbcd27557	-0.025690718
246	0xbe0edd12	-0.13951519
247	0x3a30da85	0.0006746429
248	0x3e03319f	0.12811898
249	0xbed47489	-0.4149516
250	0xbdd6d7f7	-0.10490411
251	0xbe35181f	-0.17684983
252	0xbdd71849	-0.10502679
253	0xbdee58fe	-0.11638068
254	0xbbdbda31	-0.00670936
255	0x3d5de7ce	0.054176144

fc2.bias f4 [10]
0	0xbdc3e093	-0.095643185
1	0xbe4ccbfc	-0.19999689
2	0xbea361b2	-0.31910473
3	0x3e50f2bf	0.204051
4	0x3e82ce79	0.2554815
5	0xbd84a301	-0.06476403
6	0x3e42f189	0.19037451
7	0xbebc2d98	-0.36753535
8	0x3d70e99e	0.058816545
9	0xbe1828b6	-0.1485928
