saved_models_20200625/rob_large_net_mix_fgsm.pth (torch_old, 620839 bytes, 10 tensors)

conv1.weight f4 [12, 3, 3, 3]
00000000: 2596 7dbd 0ab8 e2bd 4231 76bd 5d35 2e3d
00000010: f323 c53c 4627 7cba 3395 6b3d dabf a93d
00000020: 493d 3b3d c161 63bd fd42 bfbd 042d 3cbd
00000030: 2070 de3c a466 823c 11ee e1b9 9d0e 113d
00000040: efc1 5a3d 2461 e33c c4fc 48bd a696 9bbd
00000050: 6b37 1abd b0a9 013d 46c0 4a3c d0ae 12bc
00000060: e180 253d 1695 733d 70ed d03c 2ceb 6c3d
00000070: c29c bf3d 8a06 5c3d 7576 ca3b c564 bb3b
00000080: 6047 d33b d588 a9bd 2b93 05be 3489 90bd
00000090: 7d22 173d da5c 913d 470b 1f3d a8cf 6f3b
000000a0: c738 1a3b f7ee b43b 808d 81bd 84f6 cfbd
000000b0: 9754 44bd 89c0 3e3d eaa0 b43d 94fc 363d
000000c0: ebc1 373b 94c9 463b 2368 f63b 1a91 47bd
000000d0: 1dd3 93bd 45d7 07bd 41d1 0dbd c5ff 57bc
000000e0: d0e6 a9bc db5a 2c3e 51ee 9e3e ed66 073e
000000f0: b41c 823d 3d38 dd3d 6e0b 4f3d 53c2 34bd
00000100: 9bce 5abd a387 31bd e21a 47be 99c6 aebe
00000110: 199b 19be 05e1 d6bd 70ba 16be 5444 81bd
00000120: c0b7 523d 5466 323d e03c 4b3d 232f 8b3c
00000130: f22f 143a a43d 9b3c 6f19 d73c 22da 983c
00000140: d804 183d 002d 0ebc dca6 39bc 35cd f7bb
00000150: 30f8 5439 e7ee 02bc b0bb 21bc 5e6b c639
00000160: eb83 8abb eaec 42bc ef72 813b c567 b73b
00000170: 5749 3a3b d7c8 703b 406d e53a 73ae 8cbb
00000180: 3681 353c 082d 013c 62fb 36bb 1a0a b53b
00000190: 8622 9f3b 7d26 c53b cd89 1dbb ea00 21bc
000001a0: ef3b b8bb 3e3d d43b 2de1 eeba 39ae 17bc
000001b0: 6615 84bd 7711 173d e2d8 873d 71ef fdbd
000001c0: 77c1 f63c 5e5a f63d 980c 9dbd d7ef 01bc
000001d0: 86ce 8d3d 054f abbd 44d9 dc3c c681 453d
000001e0: 5833 2cbe c79a b33c 2bd3 b93d d4a4 c3bd
000001f0: 6674 21bc 8a21 4b3d 85dc 8bbd ecfd ff3c
00000200: ac3e 693d 9acd 02be 0a7f cc3c 19e2 e03d
00000210: de06 9bbd 66a2 d1bb 32d5 7b3d 7f13 8e3c
00000220: 5e21 d63c dc5b 8e3c d1a6 023d a1b7 0a3d
00000230: 3f89 a23c 9244 883c 4eb9 663c 74e0 ed3b
00000240: cd19 363c 00a7 873c b6fd 2d3c 4b24 b03c
00000250: 8701 953c ee84 223c 566f 573c fee1 fa3b
00000260: d944 8e3b 85f8 fa3c 5e7c 0b3d af1c cc3c
00000270: fd06 2e3d ce11 1b3d fcf4 d53c 84bd f43c
00000280: 9eb7 b43c 3778 843c e47d b2bc 66ee a0bd
00000290: 93c4 87bb 530f 3fbc ccca 86bc 903f a6bc
000002a0: 03b3 c6bc 368e 2b3b cb21 dabb cf00 a93d
000002b0: 3e76 1d3d 5da5 c83d 6e3d ec3d 1a11 0f3e
000002c0: 4975 a33d 664e 403d 6821 ca3d 07c6 623d
000002d0: c9cd 32bd 0591 c1bd f1a9 9ebc 8248 88bd
000002e0: dc06 a0bd 1071 a3bd 6cba a9bd 477d 81bd
000002f0: 406f 8cbd f471 31bd b2d8 52bd 2cc4 37bd
00000300: d80d 5cbd 10f9 84bd 7f8b 35bd 77f7 59bd
00000310: 08f9 7cbd 037c 50bd 4834 75bc 93b7 47bc
00000320: 0c12 57bc fe6e 22bc d278 2bbc 45b8 debb
00000330: ccbd 44bc ed23 28bc a99b 56bc 8123 ec3c
00000340: f896 4f3d 32b5 083d 3609 c73d 77eb e13d
00000350: 1097 c63d e14f 443d 4021 853d 0678 373d
00000360: ac4a 813d 5ad9 ac3d 9005 923d e865 8e3d
00000370: 1cf2 d03d 7375 c13d 2c92 423d 6849 843d
00000380: 8f7a 863d a69d 98bc 87b6 7bbc f6d4 85bc
00000390: 0737 f7bc 7f8f d9bc 5e75 d1bc 2dc7 0fbd
000003a0: ca1e 27bd a02a 0abd 3c55 aebc cf2d f4bc
000003b0: d271 d6bc 8c95 28bd ba55 49bd 696e 26bd
000003c0: d613 08bd 0b57 32bd f451 0dbd 91b5 75bc
000003d0: b048 a8bc a653 6cbc dd6c c6bc c78f 06bd
000003e0: dab3 adbc d54d a2bc 64f8 d8bc 07f6 a1bc
000003f0: df4b bfbc ed69 05bd 3391 edbc 149e 04bd
-0.061910767 -0.11070259 -0.06010557 0.04253136 0.024064993 -0.00096188893 0.057515334 0.08288546
0.045712743 -0.055513147 -0.09338949 -0.045941368 0.027153075 0.015918083 -0.00043092718 0.035414327
0.053407606 0.027756281 -0.04906918 -0.07597093 -0.037650507 0.031655967 0.012374943 -0.008952811
0.04040611 0.05946835 0.025503844 0.057841465 0.09356071 0.053717174 0.006178672 0.0057188
0.0064477175 -0.08278052 -0.13044421 -0.070574194 0.036898125 0.07097788 0.038829114 0.0036592279
0.0023532377 0.005521651 -0.06325817 -0.10154441 -0.047932234 0.046570335 0.088197544 0.04467447
0.0028039168 0.0030332552 0.0075197383 -0.048722364 -0.07218001 -0.03316428 -0.03462339 -0.013183539
-0.020739943 0.16831534 0.31041196 0.13222857 0.06353131 0.10801742 0.05054801 -0.044130635
-0.05341969 -0.043342244 -0.19443849 -0.34135893 -0.15000571 -0.10492138 -0.14719558 -0.06311861
0.05144477 0.04355462 0.0496186 0.01699025 0.00056528964 0.018950291 0.026257245 0.018658701
0.037113994 -0.008677721 -0.011331286 -0.0075623044 0.00020310353 -0.007991529 -0.009871408 0.00037845498
-0.0042271516 -0.011897305 0.0039504687 0.005597087 0.0028425062 0.0036740804 0.0017503873 -0.004293257
0.01107817 0.007884271 -0.0027920832 0.005524886 0.0048564104 0.006016551 -0.0024038434 -0.009826878
-0.005622379 0.006477027 -0.0018225067 -0.0092578465 -0.06449394 0.03688189 0.06633164 -0.123991854
0.030121548 0.12028955 -0.07668418 -0.007930717 0.06924157 -0.08364681 0.02695907 0.048219465
-0.16816461 0.02192439 0.0907348 -0.09552923 -0.009854412 0.049592532 -0.0682917 0.03124901
0.056944534 -0.12773743 0.02496292 0.10980625 -0.07569669 -0.006397533 0.061482616 0.01734328
0.026138958 0.017377786 0.03189737 0.03386653 0.019840835 0.01663426 0.014082266 0.007259423
0.01111455 0.016559124 0.010619571 0.02150168 0.018189205 0.009919388 0.013149103 0.007656335
0.0043417034 0.030636081 0.034054153 0.024916021 0.042487133 0.037858777 0.026117794 0.029875524
0.022060212 0.016170604 -0.021788545 -0.07857971 -0.0041433065 -0.011661368 -0.016454123 -0.02029398
-0.024255281 0.0026177294 -0.0066568605 0.08252107 0.038442843 0.097971655 0.11535154 0.13971367
0.07981355 0.046949767 0.09869653 0.055364635 -0.043653283 -0.094514884 -0.019368144 -0.06654455
-0.07813808 -0.07980549 -0.0828751 -0.06322723 -0.06857157 -0.043321565 -0.051476188 -0.04486482
-0.05372414 -0.064928174 -0.044322487 -0.053214516 -0.061760932 -0.050899517 -0.014966078 -0.012189764
-0.013126861 -0.009914158 -0.0104658175 -0.006796869 -0.012008142 -0.010262472 -0.013098636 0.028825523
0.050681084 0.033375926 0.09718554 0.110312395 0.09696782 0.04792774 0.065004826 0.044792198
0.06313071 0.08439894 0.07129967 0.06953031 0.10202429 0.0944623 0.04750268 0.06459314
0.06566345 -0.01862986 -0.015363342 -0.0163369 -0.030177606 -0.026557682 -0.02556866 -0.03510206
-0.040800847 -0.033732057 -0.021280877 -0.029807 -0.02617732 -0.041158244 -0.04915402 -0.04063264
-0.033222042 -0.043540042 -0.034501985 -0.014996902 -0.020542473 -0.01442424 -0.024221832 -0.03285196
-0.021203924 -0.019812504 -0.02648563 -0.019770635 -0.023351608 -0.03257172 -0.0289999 -0.032377318

conv1.bias f4 [12]
00000000: 7047 a2bd 244e e9bd ee3c a7be 6ac9 11be
00000010: 9ecc 46bd 2534 4f3d 1df1 a7bd ed92 c53d
00000020: 830c 00be c4c7 c7bd 54aa 11be 97e3 6bbe
-0.07923782 -0.11391857 -0.32663673 -0.1423699 -0.048534982 0.05058684 -0.082002856 0.096471645
-0.12504773 -0.09754899 -0.14225131 -0.23036037

conv2.weight f4 [32, 12, 3, 3]
00000000: a26f 26bd 2e0c c23c 49b0 b13d 850a 16be
00000010: d766 7cbd 0ba1 47bc e4bd 3ebe af82 f1bd
00000020: 8a42 91bd 5f85 48be cf7b c4bd fb57 dcbd
00000030: a912 21be 18f1 17be a7bb f8bd 840b 013d
00000040: c9bd 94bb 1ff5 cbba dd63 063e d78f 423d
00000050: 84ec 0c3e 077d b73d a5c8 903d a486 cc3d
00000060: 8352 c63d a664 8d3d a158 bb3d 93c3 323d
00000070: 0780 833d c0c7 22bd fb60 32bd ca2e c2bc
00000080: a5e0 dc39 4f86 0a3b 8108 93bc 0e28 733c
00000090: eba7 adbd fc54 06be 7ff0 1bbe daac d5bd
000000a0: 4925 14be c9a2 14be a5e4 25bc 754e 88bd
000000b0: 7667 a4bd 37cb 013e ca52 d63d 16e7 803d
000000c0: c593 653d 3b4a 323d 26d7 a83d 7fb5 ea3d
000000d0: 67e7 e33d e3d6 e23d 7c5e 9bbd 657c 2dbd
000000e0: 0a3b 85bd b3b9 23bd a98e 83bc 76e4 67bd
000000f0: 572f 47bd d38d 36bd 194a 75bd f4be ba3d
00000100: fe04 8f3d f525 8f3d a095 a53d 2ab4 513d
00000110: 198e 893d edfd 6c3d 9674 653d 8bc5 8c3d
00000120: d5d9 c9bc 1b71 d6bb b4eb 4f3d 75e8 d5bc
00000130: c6a2 61bc e322 233b 34a5 7cbc e316 ddbc
00000140: 1ec3 8fbc eb95 c7be 692c 43be e8ce a13e
00000150: 2cfa bbbe a448 e6be a6bb 50bd 6c2b 68be
00000160: 689a abbe 057f e3bd f83e 21bd a4d7 41bd
00000170: 9d71 a7bd 86e6 95bd e602 0cbe 84a4 d1bd
00000180: 1179 e2bd 6533 1ebe 20f1 c9bd aa54 2ebd
00000190: 0403 0dbd 9997 4d3d 12ac 78bd 9b00 f6bb
000001a0: 4a49 abbd 7bd8 96bd 0f1f dabd 29e9 1dbe
000001b0: 67bd 1fbe d3dc c0bd ad16 51bd 9c26 863e
000001c0: 903e 023e 8597 19bb b8b9 88bf 9596 4b3e
000001d0: 3c01 163e 960b afbe 963a f9bd 0581 f23d
000001e0: ffa5 903e 2993 1bbe b655 2c3e fdf9 87bf
000001f0: 74ed 5b3d 5fe5 01bb 80c8 67be 0b47 bf3b
00000200: 7ebd 95bb 3d4d 11bc 4fd6 a83d ce2a 1e3d
00000210: 1223 56be df44 213e f131 073e df95 1cbe
00000220: 0d7a 2fbe 26b2 273e bd2d 203d cf99 20be
00000230: ad22 e7bc c9dc a63c f5bf 30bd dfad f03c
00000240: 887d 39be ea14 1d3e d3c4 863e 3453 02bf
00000250: 9f21 603d 02db 5f3e 6f80 41bf 8b86 9d3c
00000260: 0c1e d43d 33c0 89be 3bf4 ebbe 5ad8 923c
00000270: 3db9 763e 4933 d0be 7132 83be ff9c 05c0
00000280: 0229 a93e 8e66 9cbd 1b85 0bbf 05ef 12bc
00000290: 3023 853d f5cd 6fbe 5ff4 38bd a81e 8f3c
000002a0: 77d9 96bf a41f f1bc 0638 aabd 8f93 1fbe
000002b0: 8ec0 b6bc 49a0 943c 2a33 9ebd 2200 353a
000002c0: 0264 c3bc 4a64 b3bf 8768 283e 2fc1 9b3c
000002d0: d617 31bf a791 41bc 1675 193e 8e58 ffbe
000002e0: 6e5c e83b 517e 8d3d 7b1b edbf c285 743c
000002f0: ee91 68bd 8879 6cbf 75d0 42bd f024 223e
00000300: 0a1e a9bf b10b cabe 4191 743e ec16 1ec0
00000310: 973b 2cbf 8aa9 e63e c0b9 7dbe c191 fabc
00000320: a57b 2b3d 7764 12be d322 173d 1d2f ca3d
00000330: 5c36 01bf 0396 f0b9 5f1c 0d3d 9072 49bc
00000340: 82eb 073e 6724 d73c f51e 9abd c8d3 f43c
00000350: a50d c03d 0b34 3cbe 5710 38bd be4a d8bd
00000360: 20bd e7bd fbca 3fbe 9189 22bd cdf6 b93d
00000370: ce5b febc bd32 98bd 1a73 0e3e 8ea5 6d3d
00000380: 8214 fbbd a5f8 1dbd 2c6c 91bd c676 07be
00000390: b69f a8bc 88bf 583d dbf0 ddbc 038b 2abe
000003a0: fcc7 cdbd eed7 e1bd a167 4abb b1d8 0fbd
000003b0: abce efbd 1c46 16be 09d8 fcbd 102c 92bd
000003c0: 2684 b73c 0834 a5bd 86c3 5abd eb2f a53c
000003d0: 06e2 1bbe 6c8e 2f3d 4132 a2bc 5097 72bd
000003e0: 3ed8 75bb 5c1c 1cbd 1ba4 0abc bbff 4cbd
000003f0: 768e 4f3b 5345 0fbe 3fa0 083c 40a9 1ebe
-0.040633805 0.023687448 0.08676202 -0.1465245 -0.061621513 -0.012184392 -0.18627125 -0.11792504
-0.070927694 -0.19582127 -0.09593927 -0.107589684 -0.15729775 -0.14838064 -0.12145167 0.031505123
-0.0045392257 -0.0015560723 0.13124032 0.047500458 0.13762099 0.08959394 0.0706952 0.09986618
0.096837066 0.06903963 0.09147764 0.043643545 0.06420904 -0.039741278 -0.04354952 -0.023703951
0.00042129043 0.0021137183 -0.01794839 0.014841093 -0.084792934 -0.13118356 -0.1522846 -0.104333594
-0.14467348 -0.14515223 -0.010125314 -0.066555895 -0.08027546 0.12675177 0.104650095 0.06294076
0.056049127 0.043527823 0.08244161 0.11460399 0.11128121 0.11076143 -0.07586381 -0.04235496
-0.065054014 -0.03997202 -0.016059237 -0.05661436 -0.04862913 -0.044568848 -0.05988512 0.09118453
0.06983374 0.069896616 0.08085179 0.05119721 0.06716556 0.05785935 0.05601939 0.06873616
-0.024640003 -0.006544245 0.050761893 -0.02611182 -0.013771718 0.002489262 -0.015420247 -0.026988452
-0.017549094 -0.38981566 -0.1905991 0.3160317 -0.36714303 -0.44977295 -0.050960205 -0.22672814
-0.3351624 -0.111082114 -0.039366692 -0.04732479 -0.08175967 -0.073193595 -0.1367298 -0.10236457
-0.11058248 -0.15449293 -0.09860444 -0.04256121 -0.034426704 0.050193403 -0.060710974 -0.0075073964
-0.08363588 -0.07365509 -0.10650455 -0.15420975 -0.15599595 -0.09417119 -0.051047016 0.26201332
0.12719178 -0.002343626 -1.0681677 0.19881661 0.14648908 -0.34188527 -0.121693775 0.11841015
0.28251645 -0.15192856 0.16829571 -1.0623165 0.05369325 -0.0019820554 -0.22635078 0.0058373264
-0.0045697084 -0.008868513 0.08244001 0.03861504 -0.20911816 0.15748928 0.13202645 -0.15291546
-0.17136402 0.16376552 0.03910612 -0.15683673 -0.028214777 0.02036895 -0.043151814 0.029379783
-0.18114293 0.1534001 0.2632204 -0.5090821 0.054719564 0.21860889 -0.755866 0.019229194
0.103572935 -0.2690445 -0.4608477 0.01792543 0.240941 -0.40664127 -0.2562442 -2.0877073
0.330391 -0.07636748 -0.5449998 -0.0089681195 0.06500852 -0.2341841 -0.045154925 0.017470673
-1.1785115 -0.029434033 -0.08311467 -0.15583633 -0.022308614 0.018142836 -0.077246025 0.0006904622
-0.023851398 -1.4014981 0.16446124 0.019013016 -0.69176996 -0.011814511 0.14986071 -0.4987225
0.0070910966 0.069088586 -1.8524011 0.0149244685 -0.056779794 -0.9237294 -0.04756208 0.15834403
-1.3212292 -0.39462045 0.23883535 -2.470149 -0.67278427 0.45051223 -0.24777889 -0.030587079
0.041865963 -0.14296137 0.036898445 0.098722674 -0.5047357 -0.00045888135 0.034450885 -0.01229538
0.13273433 0.026262475 -0.07525436 0.029886141 0.093776025 -0.18379228 -0.044937458 -0.10561131
-0.113153696 -0.18729775 -0.039681975 0.09080277 -0.031049635 -0.074315526 0.13911095 0.058019213
-0.12259771 -0.038567204 -0.0710071 -0.13228902 -0.020583969 0.052917033 -0.027092388 -0.16654591
-0.100479096 -0.110275134 -0.0030884522 -0.035118762 -0.11709341 -0.14675182 -0.12345893 -0.071373105
0.02240188 -0.08066565 -0.053409122 0.02016445 -0.1522294 0.042860433 -0.019799354 -0.059226334
-0.0037512924 -0.038112983 -0.008461977 -0.05004857 0.0031670607 -0.13991289 0.008338987 -0.15494251

conv2.bias f4 [32]
00000000: e04e 0cbd 1841 db3c 892f 03be 4c94 39bc
00000010: 08ce 88bd fdef 2d3e 174f eebd 9d49 abbc
00000020: dec1 7abd 1cb9 a1bd 67ec 60bc 2f38 21be
00000030: ef1f 8e3a 66c7 473e b2e6 b6be ed40 38bd
00000040: 6b76 e1bc 5f95 64be 22c3 583e 2efe eabc
00000050: b9ac b2be 4bff 8fbe 6750 463d 9c6b e9bd
00000060: c863 9dbd 193f 0cbd 0491 0a3d a5eb 26be
00000070: 6f62 a0bd 745e 913b af87 93be 6ddf 08be
-0.03425491 0.026764438 -0.12811102 -0.011326861 -0.06679922 0.1698608 -0.11636179 -0.020909125
-0.061220042 -0.07896635 -0.013728238 -0.15744089 0.0010843257 0.19509658 -0.35722882 -0.044983793
-0.027522286 -0.22322606 0.21168187 -0.028685655 -0.34897402 -0.2812446 0.04841652 -0.11397478
-0.076850474 -0.034239862 0.033829704 -0.16300829 -0.07831275 0.0044363085 -0.28814456 -0.1336648

conv3.weight f4 [64, 32, 3, 3]
00000000: ea1f 5a3e b27e 62be 733b 25bd e5a4 c53e
00000010: 7beb b3be da5d 89be 87f6 ea3e 665a c7be
00000020: 9fd1 dbbe e192 61be 63dc de3e b3c7 c3bd
00000030: 19c4 113f f779 583d 06c0 0f3e 6767 493b
00000040: 88a4 0f3d 916f 9bbe b0d0 663c 4fa5 d0bd
00000050: 1fa5 853d 4424 0f3d c1b1 263d 63d5 3e3e
00000060: 1c0d 543d e3b9 b53d b417 d5bd b6f8 53be
00000070: 9d39 edbb 3266 043d 1756 d03d f48b d9be
00000080: 4a57 44be ef93 4abe 4d6d 46be 6149 16be
00000090: 028c a73c 3e6e 12bd cc41 ab3c 9de7 4abc
000000a0: 0ed4 8bbd c339 db3c f38d b23d 3a90 b93d
000000b0: 3981 b73d 8fa7 413e 17ea f8bc acf1 253e
000000c0: 7d48 54be f13d a6be bd09 51bd 831b 9dbe
000000d0: 05a3 34be 2d8b 1cbe 820d 08bd 7e0b b2bc
000000e0: 95d8 85bd 3a1a 8dbd 1f6d 00be 1b2e 28be
000000f0: e81a a8bc bfd4 52bd ed37 9dbd 71d2 803b
00000100: e6ef 683c 18c5 51bd 484c a0be 89ce 52be
00000110: 6c66 863c de3e 9dbd ff5a 18be 5596 5fbe
00000120: 1f0b bf3d ee05 473d 3cc6 1c3e 9872 b1be
00000130: df03 2a3e 0e1d a03e 0aab a0be 98f8 bd3c
00000140: e3b8 a93e c087 29bd 8312 1c3e d36b bc3c
00000150: 1067 a2be 7a08 44be ebb5 583e b131 f43c
00000160: a9ba 20be bdbe 00bf 7ce2 623d 55ad 37bd
00000170: 4a99 e73c 60d5 81bd 0491 f63c 7433 043d
00000180: de7c 53be eed6 00bc a7e9 8bbc 6aad 723e
00000190: e2aa b7be 5977 82bd f72f 9bbd ff74 cdbe
000001a0: bf4f 6abe 74d9 8abe 6532 babd f31a 9fbd
000001b0: 37f2 96bd 5c83 73be ba01 70be 54de 54be
000001c0: 3543 acbe f064 14be 92e1 6fbd 4712 97bc
000001d0: e9a9 17bd 35d6 86be 9ef4 313e 40a5 b93d
000001e0: 7b7a 87bc 5d6a 653e 1e54 5bbd ef9e 4cbe
000001f0: 70aa 313e f6f0 21bd f1e9 fbbd d5d8 603e
00000200: a74a cf3e a997 8ebe 0cf1 85be b98e e23d
00000210: bce4 2cbe c73d 69be 363d 9a3c da6d 753e
00000220: 6ed8 0c3e e736 8fbe fd87 843e 5ab9 2abd
00000230: bd54 abbe 7913 013d d824 2b3e 8ce2 cdbd
00000240: 6348 9d3e 40dd 38be db26 5b3d 5ab3 fcbd
00000250: e660 30be 4218 13be 37d1 a8be d5b4 51be
00000260: a6a2 9c3e 9f41 f7bb 382a 0bbe 513b 8abc
00000270: a5f2 603d a722 24bd e4b5 c5bd 0ab9 8f3d
00000280: 07e7 51bd 5a6b 8e3d eabf 973d d624 c43d
00000290: 40cd fb3c 20ed 633e 79a2 953d 50f9 2b3c
000002a0: 4233 493d a333 a8bc 12f5 473d 6880 1dbe
000002b0: 8ab3 13bb bb5c 5f3e 70a0 85be f9ab b5bd
000002c0: eebc 003e fda5 51be 6805 e8bd fad4 1cbe
000002d0: d99b 82be d714 5c3e 7650 4a3e bc70 c5bd
000002e0: f1fb 8bbd 02f5 69be a1e4 593d 9de0 773e
000002f0: 8c12 de3d a461 afbd bc64 09bc 76a2 a33d
00000300: e1c0 f63d 2208 bb3d 54dd f53e 746d bbbe
00000310: aec2 2cbd c136 56be d539 98bd a7b1 573e
00000320: 68e8 5839 12fa 67be 209e 863d 297a 9f3d
00000330: 4969 e5bd 6c1a 123d da72 9b3d 3570 1a3e
00000340: 3ec3 c33e 38be eebd 8531 cb3e 6b42 bc3b
00000350: bf0e 80be 7718 873e b21c e0bd 0d7d a63c
00000360: 03c5 0a3e 2698 28bd 6860 643e 440e e6bc
00000370: be06 493d ce59 0b3c 52c2 75bd 034c 4cbc
00000380: c0ba 96bc 02a9 7a3d 8bbb c13c bc32 7d3d
00000390: 2242 423d f5bc 72bd 0318 85bc 1ea4 433d
000003a0: 9feb cbbd 1832 36bd 7e9e 27bd 2cde 1e3d
000003b0: 303e c83c b35e 52be cdd7 84bd d699 053e
000003c0: f019 dcbc fabf 1ebe ec5b 02bd 563c 13be
000003d0: 0e56 173e 00c1 e0bd 98c3 05bf 3dc4 4f3e
000003e0: d4c9 08be 6d63 dabe 6992 a23e 5df6 ee3e
000003f0: 7499 6bbd a526 383d b586 503c 4b83 58bd
0.21301237 -0.22118643 -0.0403399 0.38602367 -0.35140595 -0.26829416 0.4589121 -0.38936156
-0.42933366 -0.22028686 0.43527517 -0.09559574 0.56939846 0.05285069 0.14038095 0.0030731799
0.03506902 -0.30358556 0.014087841 -0.1018778 0.06525635 0.034946695 0.040696863 0.18636088
0.051770315 0.08873346 -0.10404912 -0.20700344 -0.007239534 0.032324024 0.1017267 -0.42489588
-0.19173923 -0.19782995 -0.19377632 -0.1467643 0.020452503 -0.035749666 0.020905398 -0.0123843225
-0.068275556 0.026760941 0.08718481 0.09060712 0.08960194 0.18911575 -0.03038506 0.16205472
-0.20730777 -0.32469133 -0.051034678 -0.30685052 -0.17640312 -0.15287466 -0.033216007 -0.021733996
-0.0653545 -0.06889768 -0.12541626 -0.16423838 -0.020520642 -0.05147242 -0.076766826 0.0039313366
0.0142173525 -0.051213354 -0.31308198 -0.205866 0.01640626 -0.076780066 -0.14878462 -0.21834691
0.09328293 0.04858964 0.15309995 -0.3465774 0.16603039 0.31272167 -0.31380492 0.023189828
0.3314887 -0.041389227 0.15241437 0.023000633 -0.31719255 -0.19143859 0.21163146 0.029808851
-0.15696205 -0.50291044 0.055391774 -0.044843037 0.028271336 -0.06339526 0.030098446 0.032275632
-0.20653102 -0.007863743 -0.017079188 0.23698965 -0.3587256 -0.0637042 -0.07577508 -0.40128323
-0.22881983 -0.2711903 -0.09091643 -0.07768812 -0.073704176 -0.23780578 -0.23438159 -0.20787936
-0.33645025 -0.1449163 -0.05856473 -0.018441333 -0.037027273 -0.26335302 0.1737847 0.09064722
-0.016537895 0.22403856 -0.053547017 -0.19982503 0.17350173 -0.03953644 -0.1230048 0.21957715
0.40486643 -0.27850083 -0.26160467 0.110623784 -0.1688413 -0.22777472 0.018828016 0.23967686
0.13754436 -0.27971575 0.25885 -0.04168067 -0.33463088 0.03151271 0.16713274 -0.10052976
0.3071929 -0.1805315 0.053503852 -0.12338896 -0.17224464 -0.14364722 -0.32972118 -0.20479138
0.3059284 -0.0075456644 -0.13590324 -0.016873987 0.054918904 -0.04007211 -0.096538335 0.07017715
-0.051245715 0.069540694 0.074096516 0.095773384 0.03073752 0.22258425 0.0730638 0.010496452
0.04912115 -0.020532435 0.0488177 -0.15381014 -0.0022537434 0.21812718 -0.26098967 -0.08870692
0.12572071 -0.20473476 -0.11329156 -0.15315619 -0.25509527 0.21492325 0.19757256 -0.09640643
-0.068351634 -0.2284737 0.053196553 0.24206777 0.10843381 -0.08563545 -0.008385833 0.07989971
0.120485075 0.091324106 0.48020422 -0.36606944 -0.04217785 -0.20919324 -0.074329056 0.21063863
0.00020685943 -0.22653988 0.06573129 0.07786972 -0.11201722 0.03566973 0.075902656 0.15081866
0.38234895 -0.11657375 0.39686218 0.0057452223 -0.2501125 0.26385853 -0.10942973 0.0203233
0.13551717 -0.041160725 0.22302401 -0.028082974 0.049078695 0.008505298 -0.05999977 -0.0124692945
-0.018399596 0.061196335 0.023648998 0.061815962 0.04742635 -0.059262235 -0.016246801 0.047763936
-0.099570505 -0.044481367 -0.040922634 0.0387861 0.024443716 -0.20543937 -0.06486473 0.13046965
-0.026867837 -0.15502921 -0.031825945 -0.14378485 0.14778921 -0.10974312 -0.5225158 0.20289703
-0.13358241 -0.4265398 0.31752327 0.46672335 -0.05751939 0.04495873 0.012727429 -0.052859586

conv3.bias f4 [64]
00000000: 13f5 57bd 2f92 9fbe 4deb 323f 0bc1 933e
00000010: f7e1 0cbe 34d2 5bbe d267 ccbd 5250 503e
00000020: 57f8 9cbc 6adc c73e 4557 f73c f76a 833e
00000030: b439 ce3e 08d0 f83e 9b81 9cbe a99e 22be
00000040: 61c1 babe 4c23 603c 3ab6 003e 9c16 813e
00000050: cf50 ac3d 943a b5bd 7051 dbbd b0ce d1bd
00000060: 6677 7ebe 85ae 1abe 3722 30bf c493 913c
00000070: 26cf 92be fc99 44be 58ee 2abe 9b24 49bc
00000080: 2bdb d2bd 5cc4 02bf 35f7 563e 2b4d 8bbd
00000090: 9da8 2bbe 809a bebd d00a 81bd 116b 84be
000000a0: 55ec 253c 16d4 91bc b931 38be 02d8 b53e
000000b0: 860d 0f3f 68f9 e6bd 3fbf dbbd 4e1a 25be
000000c0: 85de 13be cbc5 04be b312 26be ac2d 88be
000000d0: fbbe dfbe 48b7 063b 938e a4bd daf8 75be
000000e0: 966b 2b3f f1f3 4fbe 0ddf 8c3d 974f 2bbf
000000f0: 5e70 11be 1450 69be 4153 f13e c21a f1be
-0.052723955 -0.31166217 0.6989029 0.28858218 -0.13758074 -0.21466905 -0.0998074 0.2034314
-0.019161386 0.3903535 0.03019298 0.25667545 0.402784 0.48596215 -0.3056763 -0.15880837
-0.3647566 0.01368029 0.12569514 0.25212562 0.084138505 -0.088490635 -0.10708892 -0.10244501
-0.24850234 -0.15105636 -0.6880221 0.017770655 -0.28673667 -0.19199365 -0.16692483 -0.012276794
-0.10295709 -0.5108087 0.2099274 -0.06801828 -0.1676354 -0.09306812 -0.063008904 -0.25862935
0.010127147 -0.017801326 -0.17987718 0.35516363 0.5588001 -0.11278039 -0.10729837 -0.16123316
-0.14440353 -0.12966077 -0.1621807 -0.26597345 -0.43700394 0.0020556021 -0.080350064 -0.2402071
0.6696104 -0.203079 0.06878481 -0.6691832 -0.14203021 -0.22784454 0.4713383 -0.47090727

fc1.weight f4 [128, 1024]
00000000: 35ba 363f 2746 81bf f452 03bf e7bb b6be
00000010: 3a33 99bc 17b8 49be b8c2 c5be f8c5 adbe
00000020: fd92 d4bd 9636 f63c d535 0cbf 95d8 85be
00000030: cca2 6b3e 298a 8c3e 9d13 843e b4ef 31bd
00000040: ede9 be3e 4449 173d d0ba 343b d0ee 74bc
00000050: 8627 37be 9169 2f3e 3cee f73d f0c8 273e
00000060: b515 d8be 26d7 0f3e d29a ec3c 0426 7bbc
00000070: d603 1e3e 4e17 503e e715 fe3d 8cf7 17be
00000080: 6a6f 5f3a bf02 9cbe da4a 98be 5086 48be
00000090: ae8e 4ebd cc93 0b3f 3f77 963e 1f38 f3bb
000000a0: 2d94 5c3e 8af9 fc3e 77fd 233f 1194 e5bd
000000b0: 6b53 d3bd b02f 17be 8ae8 22be 99cd 7cbe
000000c0: 475a f33e bbbe 623e 02be 5e3e f95c 43be
000000d0: 12f0 03be c57d 313e f31f 733e 708e 013d
000000e0: 3df9 d53e c29e 1e3f c43b 473f c3d7 a63e
000000f0: 3524 1f3f bd4c 633e 571e 20be 23e8 1bbe
00000100: 1137 93be 748d df3d 7338 543c 91db 613c
00000110: d674 c63e fe6b 013e daee 0f3e 3a1d af3e
00000120: 4a6f bdbd fcb6 b6be a81f 483e 0f7a 8c3d
00000130: 25e3 cabe 9007 013e 2e29 5abe 0da9 a63e
00000140: ea2c 563e a987 933d 5568 463f 3074 bf3e
00000150: db87 ba3e 9f9d e0bd 8ad7 013e f093 3c3e
00000160: 66af b03d cdc8 52bd 57b4 1abe fd7a ed3d
00000170: 8938 32be cf37 913e cdc9 063f 9c00 ae3d
00000180: 5350 b73e 2bb7 0e3f 4edd 8d3d c762 13be
00000190: 144c 89be 23db 43be bfad abbe af0e 9d3d
000001a0: ef38 463e d1e5 5b3c be57 e4bb 67e3 b63d
000001b0: fd10 013e e620 153e 11d6 9fbe 6e89 eb3e
000001c0: 5ead 8fbe 8420 b1be c4a8 c3be 845f f0bd
000001d0: d6d3 2bbf 90a2 e6be 16a0 1b3e cc77 0bbf
000001e0: 28c6 f2be e23c 9fbc 8f54 383d 1fb9 0dbe
000001f0: 1409 733c a8a3 9f3d f891 36be 5b82 c6be
00000200: 25cf 83bf 179a 5dbf 9d5c 99bf e988 1abf
00000210: 29bd 813d 996d 983d e00a 4e3e 84a5 bbbd
00000220: efca 813e ac8b 583e 31b6 6d3e 630f e73d
00000230: d204 9abd 1a2c 8ebe fd90 a9be 1786 13bf
00000240: 871d 763e 4323 343e 6314 b43e 25cf ac3e
00000250: cd10 f0be 57c0 5f3d 04e6 16bd 9d80 35be
00000260: 123e c9bd 2d38 043f 89f3 143f 963e 1f3d
00000270: 234f 0d3e 1707 7e3d 2385 a33e 8583 1ebd
00000280: 27b9 42be 8f89 0bbd 8537 bc3d 2889 b9be
00000290: a300 86be 665b 9fbc 38d9 09bf 0d46 9abe
000002a0: 84ce 113d e42a cbbe 2293 7cbd b160 b5bd
000002b0: 17c8 413f 2893 31be 5362 14be fdef 93bd
000002c0: 0d5f ba3e bb32 9e3d 84d7 803d 7360 743e
000002d0: f730 153e 9552 b33d 4f50 9f3d 9022 a4bd
000002e0: f2a2 c4be 2a5b 8ebe fa44 97be bd84 0ebe
000002f0: 1ec3 f9bd 1625 b03d 40fe d1bd 968a 103e
00000300: b1ba bbbe 2327 bd3d 0838 ae3e 3422 ec3c
00000310: 1c4b 21be 3ae3 08bf d128 cbbe ff0c 5ebe
00000320: e56f dbbe 1549 ea3d f8c0 28bd 4598 e7be
00000330: ba9d 8ebe a6bb d83d 9106 41be 69c5 bebe
00000340: 49c0 91bd 4d42 083f e2a4 513e e80c d93e
00000350: a705 ce3d c36e 0ebf 6810 77be 4015 ea3e
00000360: b420 063e f31d 4abd 4538 6e3e 07f7 3e3e
00000370: f578 2ebf e393 81be 51a0 75bc 945c 6ebe
00000380: ccba b4be e211 a6be fa64 38be e7ea 0fbe
00000390: 4444 8dbe 9a29 f3be d2a8 983e 8e05 cebd
000003a0: 5207 9e3e c91f cfbe c8c8 6ebe 52c0 003e
000003b0: cef9 8e3e 9edd 94bd 1fc7 7dbe d16a ee3c
000003c0: 6fb4 4e3c a4a6 39bd 000c a4be b4d8 99be
000003d0: e6c8 5bbe da00 d1be 1b3c 2fbf 5db7 dbbe
000003e0: 44ac 19bf e932 633e 2f25 23be c8ed 4f3e
000003f0: e615 04be 4a85 513c b3f8 e4ba 6fb9 0dbf
0.7137788 -1.0099534 -0.5129845 -0.35690233 -0.018701185 -0.19699131 -0.3862512 -0.339401
-0.10379598 0.030055325 -0.5476964 -0.261418 0.23011321 0.27449158 0.25796214 -0.04344149
0.37287846 0.036935106 0.002757717 -0.014949515 -0.1788617 0.17130114 0.121059865 0.16385245
-0.4220406 0.14046916 0.028882418 -0.015328888 0.15431151 0.2032139 0.12406521 -0.14840525
0.0008523377 -0.30470845 -0.29744607 -0.19582486 -0.05042904 0.54522395 0.29387853 -0.0074224616
0.215409 0.49409133 0.6405863 -0.11209882 -0.10318645 -0.14764285 -0.15909019 -0.24687804
0.47529814 0.2214307 0.2175217 -0.19078435 -0.12884548 0.17333134 0.23742656 0.03162998
0.41791716 0.61960995 0.7782557 0.32586488 0.6216462 0.22197242 -0.15636574 -0.15225272
-0.2875295 0.10915652 0.012952912 0.013785259 0.38761014 0.12638852 0.14055958 0.34201986
-0.09249742 -0.3568648 0.19543326 0.06859218 -0.39626423 0.12600541 -0.21304771 0.3255085
0.20915571 0.072036095 0.7750295 0.37393332 0.36431774 -0.10967564 0.12679878 0.18415809
0.086272046 -0.05146103 -0.15107857 0.11595724 -0.17404379 0.2836289 0.52651674 0.0849621
0.3580347 0.5574824 0.06926976 -0.1439315 -0.26815856 -0.19126563 -0.33530995 0.07668816
0.19357656 0.013421492 -0.0069684675 0.08930092 0.12604137 0.14563331 -0.31218007 0.46003288
-0.28061956 -0.3459512 -0.38214695 -0.11736968 -0.6712011 -0.450459 0.15197787 -0.5447967
-0.47416806 -0.01943821 0.045002516 -0.1384015 0.014833707 0.07794887 -0.1782912 -0.38771328
-1.029759 -0.8656325 -1.1981388 -0.6036516 0.063349076 0.07442779 0.20121336 -0.09162429
0.2535014 0.2114703 0.23214032 0.11282232 -0.07520451 -0.27768022 -0.3311843 -0.5762648
0.24034701 0.17591576 0.35171804 0.3375179 -0.46887818 0.05462679 -0.036840454 -0.17724843
-0.09826292 0.5164822 0.58184105 0.038878046 0.1379972 0.06201848 0.31937513 -0.038699646
-0.19015943 -0.034066733 0.09190277 -0.36237454 -0.2617236 -0.019452762 -0.53847075 -0.3013157
0.03559734 -0.3968116 -0.061663754 -0.08856333 0.7569594 -0.17341292 -0.14490633 -0.072235085
0.36400643 0.0772452 0.06291106 0.23864917 0.1456946 0.08755986 0.077789895 -0.08014405
-0.38405567 -0.27803928 -0.29544812 -0.13917823 -0.12195419 0.086008236 -0.102535725 0.14115366
-0.36665872 0.0923598 0.34027123 0.028824903 -0.15751308 -0.5347172 -0.39679578 -0.21684645
-0.42858806 0.114397205 -0.041199654 -0.4523336 -0.2785471 0.10582666 -0.18850161 -0.37259987
-0.071167536 0.53226167 0.20473054 0.4239266 0.10059672 -0.5563776 -0.24127352 0.45719337
0.13098413 -0.049344968 0.23263653 0.18648921 -0.68153316 -0.2530814 -0.014991836 -0.23277503
-0.35298765 -0.32435519 -0.1800727 -0.14054452 -0.27591145 -0.47492677 0.298163 -0.10059653
0.3086496 -0.40453938 -0.2331878 0.12573364 0.2792496 -0.072688326 -0.2478299 0.029103668
0.012616261 -0.045324937 -0.32040405 -0.30048144 -0.21463355 -0.40820962 -0.6845109 -0.42913333
-0.6002848 0.2218739 -0.15932153 0.2030555 -0.12898979 0.012788126 -0.0017469138 -0.55361074

fc1.bias f4 [128]
00000000: 4870 613f 0044 c2bd 2420 0bbd 3688 09bf
00000010: 781c 7dbd 4533 e33b 986c 49bd 8787 9ebc
00000020: 019d 9cbd 2d13 18bd 4764 40be 5887 36be
00000030: 33c4 24bd dac6 503e 81c2 943e 8682 91bc
00000040: 0e4c 17bd 24e7 93bc 2072 d4bb ccd0 4fbf
00000050: 58ad f13e e9c2 bb3e ca5b bdbb 9891 43bd
00000060: c641 c23e ccd7 59bb 2043 fd3d 3f2e 843c
00000070: 9bdf a23a aaea 03bf 3914 f23b f7f0 2bbe
00000080: 9a7e 2ebd ec05 d4bd fb3b d83c 498b 01bd
00000090: 1824 9ebc af54 2abf 6584 a43e ab30 d9be
000000a0: de5a b73e e96a 2e3f 60de 20bd 4b2f 4ebf
000000b0: fab6 acbd 7050 243f f08e 0dbd 1f4b 103f
000000c0: 7092 2ebd 2426 e1bc ab90 a8be bb60 c3bc
000000d0: a780 283f c705 30bf 4228 a3be f586 fcbc
000000e0: 6f26 d5bc a5d0 d13e 21d5 c7bc d465 5ebd
000000f0: 58ff 3dbd f3c0 3c3f 10a3 a3bd 5be5 89bd
00000100: 5e48 a63e 455c c0bc 7587 3dbd 52d2 0e3f
00000110: cc13 0abb c816 133f d829 25bd d944 5ebe
00000120: 229c d1bc 6633 d03d d00f d8bd 8de5 123f
00000130: 65a9 a939 2453 1fbd a7b1 c9bc a312 7bbc
00000140: 322f 5f3c c9ed 29bc 15f6 afbe 3049 483d
00000150: 0590 93bc ba02 cfbc 2f8c 13be 9b03 1fbd
00000160: 229a 68bd a7c5 66bf 2618 6fbc 8bee e5bc
00000170: 73d6 d0be 2af3 e7bd 2d1a 6bbd 42b9 75bc
00000180: d9d7 43bd 4964 483f 350a 05bf 6271 693f
00000190: 147b 4ebd 2ec9 fdbe 559a 8bbd e2ff b3bd
000001a0: 611e 85bd 9d02 87bd 5a8f 69bb 3e0f d53e
000001b0: 2017 2dbf d9bc f3bd 2ab3 11bf e5d1 b83e
000001c0: 734c ef3e db5f 9fbd 1ef4 35bd bb9d 66bd
000001d0: 7432 28bc 0603 e43c cbbe 01bc 4587 2d3c
000001e0: c9de fa3b 7834 a3bc fdb0 44bd 93a5 ccbd
000001f0: b24e b83d a2f0 e8bc eaf2 933e e094 1ebd
0.8806195 -0.09485626 -0.0339662 -0.53723466 -0.061794728 0.006933602 -0.04917583 -0.019351734
-0.076471336 -0.037127662 -0.18788253 -0.17825067 -0.040226173 0.20388356 0.29054645 -0.017762434
-0.036937766 -0.018054552 -0.0064833313 -0.81177974 0.47202563 0.36672142 -0.0057787644 -0.04774627
0.37940806 -0.0033240197 0.12366319 0.016135333 0.0012426259 -0.51529944 0.0073876646 -0.1679114
-0.042601205 -0.10352692 0.026395788 -0.031626973 -0.01930432 -0.66535467 0.3213226 -0.42419943
0.35811514 0.6813188 -0.039274573 -0.80540913 -0.084333375 0.6418524 -0.034560144 0.56364626
-0.042620122 -0.027484007 -0.32922873 -0.023849836 0.6582131 -0.68758816 -0.31866652 -0.030826071
-0.026019303 0.40979496 -0.02439362 -0.05429633 -0.046386093 0.7373192 -0.07990086 -0.06733199
0.32477087 -0.023481498 -0.04627176 0.55789673 -0.0021068929 0.57456636 -0.04032311 -0.21705951
-0.025587145 0.101660535 -0.10549891 0.57381517 0.000323604 -0.03889765 -0.024620844 -0.015324268
0.013622092 -0.010371634 -0.34367433 0.048897922 -0.01801301 -0.025269855 -0.14408945 -0.038821798
-0.056787618 -0.90145344 -0.01459316 -0.028067848 -0.40788612 -0.11325677 -0.05739801 -0.014997782
-0.04781327 0.78278023 -0.519687 0.91188633 -0.050410345 -0.4956755 -0.06816546 -0.0878904
-0.06499935 -0.06592295 -0.0035638423 0.4161319 -0.6761341 -0.11901254 -0.5691401 0.36097637
0.46738014 -0.07781955 -0.04442226 -0.056302767 -0.010265935 0.027833473 -0.007919024 0.010591333
0.0076559526 -0.01992248 -0.04802035 -0.09992518 0.08999385 -0.028435055 0.28896266 -0.038716197

fc2.weight f4 [10, 128]
00000000: b84d 84bd c3bd f6bc 2612 7fbd d2b5 ba3d
00000010: 7115 2ebd 2196 c93c 88be 16be a9b9 293d
00000020: 215d efbd bcc2 4cbb 28ee acbc 39f8 c6bb
00000030: 1649 b0bd 057d 17be d13e 5fbd ebbd 64bd
00000040: 3649 e7bd 746b b7bc 5a1c 9dbd 00fb 68bf
00000050: d55c 1fbe 6d09 d0be ca32 cb3b 0d31 8ebc
00000060: 8d9b d5bd 1621 a63c 2d2b 58bb 277e 44bd
00000070: 4cff 5bbd 88a2 32bf 9b2c a4bc 21ac 72bd
00000080: 66b7 19bc b4cb 47bc 15d6 88be 19e7 88bd
00000090: 4659 7bbc 00ac c5be 6658 eabd 5347 23bf
000000a0: 0445 0fbe fc25 83bd 664b d1bb 4421 72bf
000000b0: e6c8 3fbf 1a16 abbe 7295 0fbe 9d5d 24be
000000c0: 17e1 cc3c 9a48 2dbc 2245 ccbe 8dc2 b33b
000000d0: 7f90 16be d4cb 1fbf e2f1 48be 8413 aa3c
000000e0: 0910 fcbc 7131 39be df80 2ebe fdc1 29be
000000f0: f576 46bc a371 1bbe cb3f 26bb ddb9 be3c
00000100: 34a5 c9bd ea27 f43c 3325 39bc d416 42bd
00000110: 9b5d d13c 4e48 af3c f9ac 313d 6a3b 01be
00000120: d3ef c8bd a515 6abd 6798 93bf 87fe 4b3d
00000130: a4b2 8e3d 96da 7dbd ac3d a1bd 9bdb 5abc
00000140: 6c93 9cbd 661d 5a3d b64a 14c0 ba22 fdbc
00000150: 6df3 0bbb ceb5 e33c ffa1 e1bd 0fbf a2bc
00000160: 6873 b1bc 92f8 3cbf bae9 dc3c 75b9 34bd
00000170: 3b41 34bf db5b 67be fe19 67bd d731 56bd
00000180: 1631 ba3c 932f ebbd 1df4 efbe 3cda ddbd
00000190: 1b20 e33b f9d6 1ebf 0d5e 723c 7671 cdbe
000001a0: 359b 4f3c 990e fbbd ad2e 6bbe 5f7f cbbe
000001b0: cfcc 1bbf 5ab4 40be 9b38 7dbe 39c1 91be
000001c0: 37e3 213d 015e 26bf 0108 79bd 9553 2bbe
000001d0: 89e8 c1bc c530 d9bd f4e2 26bc a4fe b8bd
000001e0: d128 9b3d 2d2d 47bd c423 95bb 9497 0fbd
000001f0: 044b 30be ac4c 33bd 2c57 09bd d400 68bd
00000200: f03b 4ebe baef 18bd 4daa a7bc 5457 8ebd
00000210: 7590 49ba c89b 823d 310e 8cbc f2da dcbc
00000220: 8409 b9bd bd65 57bd 38eb 37bd 6f2c 89be
00000230: 907a eabc 9c9a 5dbe f35c 2abe 16bb fcbd
00000240: f4cf 973c b154 05bd 557e f5bc 167a a2bf
00000250: c5c8 9e3d eaa1 a0be 9784 82bc a6f1 38bd
00000260: 6ba5 61be 7f7a 10be 308d 66be 6ad9 3a3d
00000270: 61a2 a23d 6770 79bf 0ddd dfbd 84b3 e0bd
00000280: a3b9 89bd 8be2 14be 53b1 863b c7a6 73bd
00000290: d337 a13d cb41 d739 e1a4 1cbd 55c6 0bbf
000002a0: fbc2 52be a050 bfbe 1d15 afbd f7a6 bebf
000002b0: 9bde 1dbf 4bf1 9dbe a23a 0cbc 389d 4cbe
000002c0: c073 42bd 9901 e83c 9291 21be d8a5 cbbd
000002d0: d717 41be 0d74 68be 0bb4 cebe 148b c73d
000002e0: 621d bfbc ccbd 43be edb8 24bd 65a0 d43d
000002f0: 9a10 1c3d aaea c0bd 55ad 833c dd68 0dbd
00000300: 485e 9cbd 5c7a 86bd c168 c9bd ea13 b6be
00000310: 1197 11bc 48fe 54be cfc8 05bd 7bf8 20be
00000320: be86 563d 9a09 f9bd c018 a7bf bbb8 b13c
00000330: 04ed 9c3d b2da 65bd bddd 02bd 5e89 10bd
00000340: d716 73bc 7bd7 76bd 6db5 d3bf 4c3d 16be
00000350: 1c56 8bba 13bf 1a3d 9d54 ddbd e738 5f3d
00000360: a3be e2bd 3d3d cabf 0483 243c 8060 963c
00000370: a7c1 4dbf 12a7 87be af45 24bd 2ead ae3c
00000380: 5410 41bd 2a8c 6dbd 9dc8 4bbf 71a4 68be
00000390: d445 63bd e589 5ebf 017d 42be aa48 6bbd
000003a0: 0a41 5f3d a7fa 41bc e00a fabe c93c 9fbe
000003b0: 99d0 56be 90f5 d3bd c70e 6cbf 4504 7ebe
000003c0: 06b7 183d b2b1 31bf ec18 d63c 78a4 35bd
000003d0: 1164 8fbd 0302 84be 6d2a b13d ff9c 51bc
000003e0: 20fc 70bc dc72 9fbc bdd5 a43c 1ded 6b3c
000003f0: 5a6c 1cbf c912 edbd af6a 46be 525d 38bd
-0.06460136 -0.030119782 -0.062273167 0.09116711 -0.042500917 0.02460772 -0.1472112 0.041436825
-0.11687685 -0.0031244 -0.021109655 -0.006072071 -0.0860769 -0.14793785 -0.054503266 -0.055845182
-0.11293261 -0.022390105 -0.07671423 -0.91007996 -0.15562756 -0.4063219 0.006201123 -0.017357374
-0.104300596 0.020279448 -0.003298472 -0.04797187 -0.053710267 -0.69779253 -0.0200408 -0.059246186
-0.0093821045 -0.012194563 -0.26725832 -0.066847034 -0.015341109 -0.38607788 -0.11442642 -0.6378071
-0.13991171 -0.06403729 -0.006387162 -0.9458201 -0.7491592 -0.334153 -0.14021853 -0.16051336
0.025009675 -0.010576392 -0.39896494 0.0054858387 -0.14703558 -0.6242039 -0.19623521 0.020761259
-0.030769365 -0.18085267 -0.17041348 -0.16577907 -0.0121133225 -0.15180068 -0.0025367613 0.023281986
-0.09845963 0.029804189 -0.011300373 -0.04738505 0.02555733 0.021396782 0.04337785 -0.12620321
-0.09811368 -0.057149548 -1.1530885 0.049803283 0.06967667 -0.061976038 -0.07873091 -0.013358022
-0.07645306 0.053250693 -2.31706 -0.030900348 -0.002135481 0.027796652 -0.110172264 -0.019866494
-0.021661475 -0.7381679 0.026966918 -0.044122178 -0.70412034 -0.22593634 -0.056421272 -0.052293625
0.022728484 -0.114836834 -0.4686593 -0.108326405 0.0069313175 -0.6204677 0.014792931 -0.40125626
0.012671282 -0.12258644 -0.22967024 -0.39745614 -0.6085939 -0.18818799 -0.24728625 -0.2846773
0.03952333 -0.6498719 -0.06079865 -0.16731103 -0.023670452 -0.10605005 -0.010185946 -0.09032944
0.075761445 -0.048627067 -0.0045513827 -0.035056666 -0.17216116 -0.043774292 -0.0335304 -0.056641415
-0.20140052 -0.037337996 -0.020466948 -0.0695025 -0.0007689067 0.06377369 -0.01709661 -0.02695987
-0.09035018 -0.05258726 -0.044902056 -0.26791713 -0.028622895 -0.2164101 -0.1663702 -0.12340371
0.018531777 -0.03255147 -0.029967466 -1.2693508 0.077531375 -0.3137353 -0.015932364 -0.04515233
-0.22035758 -0.14109229 -0.22514796 0.0456175 0.079411276 -0.9743714 -0.10930834 -0.1097174
-0.067248605 -0.14539544 0.004110494 -0.059485223 0.07871976 0.00041057015 -0.03824318 -0.54599506
-0.20582192 -0.373662 -0.08548949 -1.4894704 -0.61667794 -0.30848154 -0.008558901 -0.19981849
-0.04747367 0.028321074 -0.15778187 -0.099437416 -0.1885675 -0.2270052 -0.40371737 0.09743324
-0.02332944 -0.1911537 -0.04021542 0.10382155 0.03810177 -0.094197586 0.016073862 -0.034523834
-0.0763517 -0.06566307 -0.09834433 -0.35562068 -0.008886115 -0.20800126 -0.03266221 -0.15719788
0.052374594 -0.121600345 -1.3054428 0.021694532 0.07662395 -0.056116767 -0.031949747 -0.035287254
-0.014836988 -0.060264092 -1.6539742 -0.1467182 -0.0010630521 0.03777988 -0.10807154 0.054497626
-0.11071517 -1.5799938 0.010041002 0.018356562 -0.80373615 -0.26494652 -0.040105518 0.021322813
-0.047134712 -0.057995 -0.79602987 -0.2271898 -0.055486515 -0.8692916 -0.18992998 -0.057442345
0.054505385 -0.011839545 -0.48836422 -0.31101063 -0.20978011 -0.10349572 -0.9221005 -0.24806316
0.03728392 -0.69411767 0.02613493 -0.044346303 -0.07001508 -0.25782785 0.0865067 -0.012793778
-0.014708549 -0.019463949 0.02012145 0.014399794 -0.6110283 -0.115758486 -0.19376634 -0.045010872

fc2.bias f4 [10]
00000000: ec4f e5bd aa9b 9cbe c8f3 7dbe 4857 db3e
00000010: b4ff 653e 92ec 25be 7551 83bc d709 04be
00000020: ca7c 24bd 6abc 5e3e
-0.111968845 -0.30587512 -0.24800026 0.42840028 0.22460824 -0.16203526 -0.016030053 -0.12894379
-0.04015807 0.21751562
