saved_models_20200625/rob_conv_net_pgd5.pth (torch_old, 292165 bytes, 10 tensors)

conv1.weight f4 [6, 3, 3, 3]
00000000: 5483 99bd db9e d7bd ffac a8bd 9632 d93b
00000010: 8d76 5d3c ad15 cf3b 667e 123d ee91 3f3d
00000020: c9ef 373d 3ee5 38bd ef49 90bd 1ce7 42bd
00000030: aa7a f2ba 1238 5339 bfbb 54ba ea2d 403c
00000040: 0a50 7a3c 10cc 6e3c 8818 80bd b25c a7bd
00000050: 936f 85bd 306e da3a 51aa a63b 7417 983a
00000060: 571f b63d 97ce 003e 8868 d63d 7093 523c
00000070: 4439 c23b f692 93ba 83fe d83c 78a5 723c
00000080: 0b82 bb3a 209e 923c 0372 743c e7c2 103c
00000090: 7941 803a b994 0bba 254f 58bb c003 a13b
000000a0: 2064 cf3a d2d3 07bb 499c 493b d8bb 2d3b
000000b0: d99a f03a 0fcd 60bc fb92 66bd ed79 aabd
000000c0: cd77 acbb 0669 8dbd 865d 1fbe 32cc 1ebc
000000d0: b33c 16bd 2b50 65bd f484 ccbb 059d 0ebc
000000e0: 9501 90ba a6a2 99bc 8704 83bc 1ce6 013b
000000f0: f70a 48bc 140e 0fbc 22b8 853b 699a 96bb
00000100: fd55 e7bb b78c 6ebb dde5 13bc d964 0ebc
00000110: f71f deba 4c85 d0bb 0b9c 9fbb aa36 1239
00000120: 0460 c2bc 8a6b 0bbd fb6d 6cbc d6ab 51bd
00000130: 722d 5cbd 2678 5ebc 9f5a 13bd 712a 1cbd
00000140: 90c5 1ebc cd2d 5b3d da58 8b3d 789b 583d
00000150: 6112 103c 27e9 3b3c e824 923a fa64 9ebd
00000160: ad7b efbd a2df 9bbd c886 ef3c f40d 223d
00000170: 23e1 023d 60fd 093b 3170 c03b 705e ba3a
00000180: 412d 62bd 52a7 c1bd 3276 60bd be66 cb3d
00000190: 03a6 0a3e 2154 d43d a4b3 8f3b b74e 9f3b
000001a0: feed 9639 f691 a0bd 5c4b d7bd 249d 95bd
000001b0: 3722 c93b a618 ec3b 703c 853c 7438 173c
000001c0: 82a5 ab3c 3c05 b53c fd93 c0ba 9b8b 27bc
000001d0: 26a5 80bb c063 babc 6dcd b0bd 7f4b 18bd
000001e0: 39b4 14bd 8a29 5fbe 2bbd b8bd 5bfc b3bc
000001f0: b724 14be 5073 81bd d486 1d3c 42f9 133b
00000200: 162e 5b3c cbb3 9e3c ebfd 5d3c b486 a93c
00000210: 3d5d a33c b0b5 2b3c ad41 663c 09f6 bcbc
00000220: 3424 36bd f443 16bd 816e 29bd 968a d2bd
00000230: 633b 9fbd 2b18 c2bc 4d9a 3fbd 2055 17bd
00000240: e8f3 0aba c476 ccbb c09d f2bb 6314 eeba
00000250: 4680 19bc f489 f1bb 5698 93ba 9153 81bb
00000260: 19b6 ddba e155 183c 0d6a f93b b63e 853a
00000270: 0f12 423c 1400 c93b 1329 cb3a c494 083c
00000280: f14c ae3b b3df 1b3b
-0.07495752 -0.10528346 -0.082361214 0.0066283448 0.013517034 0.0063197226 0.035765074 0.04677003
0.04490641 -0.045140497 -0.07045352 -0.047583684 -0.0018499692 0.00020143416 -0.00081151346 0.011729697
0.015277872 0.0145750195 -0.06254679 -0.08171977 -0.06515422 0.0016664919 0.0050862213 0.0011603669
0.08892696 0.12578808 0.104691565 0.012852535 0.0059272368 -0.0011259008 0.026488548 0.014809959
0.0014305724 0.017897666 0.014919761 0.008835531 0.0009785137 -0.00053245906 -0.0033006158 0.004913777
0.0015822686 -0.002072562 0.003076332 0.0026509669 0.0018356695 -0.013720765 -0.056292515 -0.08324037
-0.005263305 -0.06904797 -0.1556302 -0.009692239 -0.03667898 -0.055984657 -0.006241435 -0.008704429
-0.00109868 -0.018754315 -0.01599337 0.0019820994 -0.0122096455 -0.008731384 0.004080788 -0.004596044
-0.007059811 -0.003639979 -0.009026972 -0.008691036 -0.0016946782 -0.0063635465 -0.0048708967 0.00013944009
-0.023727424 -0.034038104 -0.014430518 -0.051189266 -0.053754278 -0.01357845 -0.035975095 -0.038126413
-0.009690657 0.053510476 0.068040565 0.05288264 0.008793444 0.011469162 0.0011149915 -0.077341035
-0.11693511 -0.07611014 0.029239073 0.039564088 0.03195299 0.0021055564 0.0058727493 0.0014218818
-0.05521894 -0.09455742 -0.05480022 0.09931706 0.13539891 0.10367609 0.0043854285 0.0048616785
0.00028787547 -0.0784034 -0.105124205 -0.07305363 0.006138112 0.0072050868 0.01626417 0.009229768
0.020952944 0.022097223 -0.0014692541 -0.010226156 -0.003925937 -0.022752643 -0.08632932 -0.037181374
-0.036304686 -0.2179319 -0.09020456 -0.021970918 -0.1446713 -0.06320822 0.009614665 0.002257899
0.013377687 0.019372841 0.013549308 0.020694114 0.01994192 0.010480329 0.014053744 -0.023066537
-0.04446812 -0.0366859 -0.04136515 -0.102803394 -0.07774999 -0.023693165 -0.046778012 -0.036946416
-0.0005300627 -0.006239744 -0.007404059 -0.0018164035 -0.009368962 -0.0073711816 -0.001126061 -0.0039467295
-0.0016915231 0.009297819 0.007611519 0.0010165784 0.011845126 0.0061340425 0.0015499912 0.00833625
0.0053192307 0.0023784458

conv1.bias f4 [6]
00000000: 13f5 f4bd 3cbc 253e a4f9 6e3e 6654 bebd
00000010: 33eb f43b 987c 823e
-0.11960807 0.16185087 0.23337418 -0.092934415 0.007474327 0.25485682

conv2.weight f4 [16, 6, 3, 3]
00000000: 357b 963b 0440 2bbd 5110 543d 0ca6 8a3d
00000010: 41e8 b53c 5446 843d b0e5 a1bc dfdc 8dbc
00000020: 2270 d43c ab33 7abe 7d7d 92be d527 4dbe
00000030: b996 cd3b 8f31 813c d966 cf3c f259 ecbc
00000040: 6fdc 9bbc 1d4c cebb a0ea dfbc 128c 883d
00000050: 98d1 2e3d 0450 403d 97da 043e 67f0 b73c
00000060: 512e 013d 2054 5237 5e4d 053d 0799 c43e
00000070: 9ad3 923e b9cb af3e c980 13bd e4ff 11be
00000080: 106f 63bd 16f0 1ebc 7168 d0ba d05d 163c
00000090: c790 e0bc ee6e 22bd 9d66 22bd bc21 923c
000000a0: 6fa0 60bb c92d 663b fa16 233c 6c62 b5bb
000000b0: 44c7 fcbb 7190 0cbd 53ab 15bd 1fcd 99bc
000000c0: 470a d03d 4e3c 433d 1a33 fa3d 9fdb 3a3c
000000d0: 0d50 4fbd d22e e43b a0a2 b93d b23c 3f3d
000000e0: 9089 0b3d 3764 293d fb09 7abc 3c3f 9cb9
000000f0: 7d4f be3c f49b 71ba d8d6 48bc bb7b bdbc
00000100: 3e76 bdbd 1d4f 24bd d0d9 f1bd 9b75 7cbe
00000110: 46cc 96bd 6ce4 c7bc 72b8 a2bc 26db e83c
00000120: 673a 3c3d aadf debd 92d8 e3bd c423 01be
00000130: 9752 b2be 34e0 60be 09fa 70bc b44a 25bd
00000140: b24e 913d 9f4a 493c bb4e e6bb b3ac 063b
00000150: 80e8 dd3c a7d9 543c b16c 183d b98b 903c
00000160: 0603 f13c b034 443d fe81 143d bd2c e33b
00000170: 16cf 4dbc 2a51 ca3c cfd2 73bc bf5c e3bc
00000180: 0af7 033d 18d7 b93c 41f1 be3c f8eb 2b3d
00000190: 0fb8 31bd 968b b1bc c6ed febc 63c1 cbbd
000001a0: 0b8a 75bd 5397 edbb f2fa b7bc 2604 723c
000001b0: 6c6b 043c 8ac0 abbb 2de4 c33b f3db 303b
000001c0: 78e8 48bd e1fb 543c 8f80 cb3c 9111 be3b
000001d0: 659c d33d 3175 17bd 2903 1dbd 6bf7 6abd
000001e0: e4f1 363e edb4 7b3e 75e3 263e 2fd8 1b3e
000001f0: e82d 8f3e 63b4 1f3e 72f3 12bd 55d5 57bd
00000200: c8b9 8dbd 02cd a43d 16b2 65bd 3ca4 c4bd
00000210: 3bff 273e 99d4 413d 5ed7 073d 5b7f d5bc
00000220: f9e0 20bc 2808 613b 5b8b e6bc 1a27 0cbc
00000230: 59ff 42bd 4c21 03bd b88f 55bd c1b2 53bd
00000240: 7327 9d3c bdad ec3c a1c7 123d 3314 713e
00000250: eb94 c73e 4a51 823e b4a7 253e 4ee0 893e
00000260: 2d0d 2b3e 238a 243e 8066 2e3e b6e1 393e
00000270: 6659 08bf ad9d 37bf b46e 14bf f937 cabd
00000280: a3be eebe 6a9e 35be 87a2 bfbd e8b1 89bc
00000290: 9ac7 0d3e f66b 75bd 83ba 1c3d 1816 953c
000002a0: 29bf 4a3a fbad 2f3d 807b d9bd 9f4d f33d
000002b0: 2582 353d ebc2 28be 4d19 233e d3c1 803b
000002c0: 2e10 7fbe 6d06 af3d e755 2fbc e753 e4bd
000002d0: 569d ed3b 3e4b 823e efcc 1cbe 85f0 713d
000002e0: 6fe9 6e3e 2e04 63be 4d9b 113d 884d 8c3d
000002f0: a0c9 9bbd 318b 103c 65f4 fe3c 197b 38bd
00000300: 82f6 4dbd cebc 1c3c 4877 133c 90ef 2dbd
00000310: f486 9bbc 3ca0 793d 8596 9b3d a399 da3d
00000320: 7aee b2bd 63a6 cd3d 5821 b53d cf28 1ebe
00000330: 1ee4 833d 368a 643d cd76 34bd f72e b43d
00000340: bd41 013e dbc8 a9be 729f 2a3e 89c6 0e3e
00000350: 999a d8be 886b c73d 03bf a43c f0ee 3fbe
00000360: edd9 4a3c ab3b 023e b77c a8bd d77e 64bb
00000370: 7ae4 74bc 88ff 71bc eb74 97bd a192 c1bd
00000380: 4ebb c73c be52 babd e33e 8c3d 8fc0 0a3e
00000390: 83d8 d1bd bb15 1ebd 8361 453e 22fc 72bd
000003a0: e000 88bd 959c 113e c5ad 933c 5a27 07bf
000003b0: d046 5a3e 3d89 e03d 4b11 17bf e767 eb3d
000003c0: 564e 883d 282f a4be f454 193d e52a 03bc
000003d0: 84ff 58bd cfdc 073c 3603 66bc 657e 2bbc
000003e0: 7993 08bd 3b7a 5abd bb9a c03c 3159 a9bd
000003f0: c0a3 f0b8 c343 86bd 8a03 483e 1fa9 b03c
0.004592324 -0.041809097 0.051773373 0.06769952 0.022205474 0.064587265 -0.019762844 -0.017317234
0.025932375 -0.24433772 -0.28611365 -0.20034726 0.006274071 0.015770702 0.025317596 -0.028851483
-0.01902601 -0.0062956945 -0.027333558 0.06667341 0.042680353 0.04695131 0.1297401 0.0224535
0.03153831 1.2536562e-05 0.032544486 0.38398 0.28677064 0.34335116 -0.03601149 -0.14257771
-0.05552584 -0.009700796 -0.0015900267 0.00917764 -0.027412785 -0.039656572 -0.03964864 0.017838351
-0.0034275313 0.0035122505 0.0099542085 -0.0055354144 -0.007714184 -0.034317438 -0.03654034 -0.018774567
0.1015821 0.047664933 0.12216778 0.011404901 -0.05061345 0.006963589 0.090642214 0.046688743
0.034066737 0.041355338 -0.015261169 -0.00029801752 0.023231262 -0.0009216659 -0.012258254 -0.023130288
-0.092510685 -0.04011451 -0.118091226 -0.24654238 -0.07363181 -0.024400912 -0.019863341 0.02842481
0.045954134 -0.10882504 -0.11125292 -0.126113 -0.34828636 -0.21960527 -0.0147080505 -0.040354446
0.07095088 0.012285857 -0.0070284284 0.0020549714 0.027088404 0.0129913455 0.03721303 0.01764475
0.029420387 0.04790181 0.036256783 0.0069328235 -0.01256158 0.024696905 -0.014881804 -0.027754186
0.032218017 0.022685573 0.023308398 0.041973084 -0.043388423 -0.021673005 -0.031119239 -0.09948995
-0.0599461 -0.0072507053 -0.022458527 0.014771497 0.008082252 -0.0052414583 0.0059781284 0.0026986569
-0.049049824 0.012999506 0.024841575 0.005800434 0.10332564 -0.036976997 -0.038333092 -0.057364862
0.17865711 0.24580736 0.16297705 0.15219186 0.2796471 0.15596156 -0.0358767 -0.052693684
-0.069202006 0.08046915 -0.05607804 -0.09601638 0.16405956 0.04732189 0.033164375 -0.026061704
-0.009819263 0.0034337137 -0.028142622 -0.008554244 -0.0476068 -0.032014176 -0.052139014 -0.051684145
0.01918385 0.028891439 0.035834912 0.23542862 0.38980803 0.25452644 0.16177255 0.26928943
0.16704245 0.1606832 0.17031288 0.18152508 -0.5326141 -0.7172497 -0.5798142 -0.09873957
-0.4662982 -0.17736211 -0.093571715 -0.016808465 0.13845673 -0.059917413 0.03826381 0.018199012
0.00077341736 0.04289053 -0.10619259 0.118800394 0.04431357 -0.16480605 0.1592762 0.0039293556
-0.24908516 0.085461475 -0.010701633 -0.111488156 0.007251422 0.2544803 -0.15312551 0.059067268
0.23331235 -0.22169563 0.035548497 0.068507254 -0.07606816 0.008822248 0.031122396 -0.04503927
-0.050283916 0.009566499 0.009000607 -0.042464793 -0.01898525 0.060943827 0.07597069 0.10673835
-0.08736892 0.100415014 0.088442504 -0.15445255 0.06439994 0.05579587 -0.04405861 0.0879802
0.12622733 -0.33161053 0.16662386 0.13942923 -0.4230545 0.09737307 0.020110613 -0.18743491
0.012381059 0.12718074 -0.082269125 -0.0034865642 -0.014947051 -0.014770396 -0.07395347 -0.09451795
0.024381306 -0.09097813 0.06847932 0.13550018 -0.102463745 -0.038594943 0.19275479 -0.059322484
-0.06640792 0.14219888 0.018027196 -0.5279442 0.21316075 0.10963676 -0.5901076 0.11494427
0.066555664 -0.32067227 0.037434533 -0.008005832 -0.052978054 0.008292391 -0.0140388515 -0.0104671465
-0.033343766 -0.053339224 0.023511281 -0.08268965 -0.000114745926 -0.06555893 0.195326 0.021565018

conv2.bias f4 [16]
00000000: a8ab a4bd 0daa e33e 93ed 02be eca3 74bc
00000010: e10f 113e 6af0 81bd 524c 99bc c665 f73d
00000020: 40ee 12be 0504 27be 5b9c de3e 120d 9a3e
00000030: a61b 6ebc fe5a 05bd 2aab 24be 8819 45be
-0.08040553 0.44465676 -0.1278594 -0.01493166 0.14166214 -0.063446835 -0.01871315 0.120799586
-0.14348698 -0.16310127 0.43478665 0.30088097 -0.014532959 -0.03255748 -0.16080919 -0.1924802

conv3.weight f4 [32, 16, 3, 3]
00000000: f7f8 953c 274e c9bd 64ad 0cbd a6a6 30bd
00000010: 041a dcbd ae75 c3bc c9d0 0ebe 7fb5 26bd
00000020: 1d05 c9bc 6555 57be eb1e 03bf ab6d 42be
00000030: f623 58be 7eea 9f3c 36a9 1c3d 8ddc 0a3e
00000040: 663d 2d3e 5903 5d3e 0302 1ebc 4891 0e3d
00000050: 8848 e93c 9a83 d5bd 930e 90bd 8b6b 21bd
00000060: a270 8d3b 18de 3f3c bdf3 3e3d 66b8 5dbd
00000070: e319 18be 4e05 85bd 151e b63c 944f ad3d
00000080: 73a5 4bbd ff82 8d3d 5528 d1bb 50de 24bd
00000090: a0d4 863d 05ef 68be 51ad 8ebe 79aa 9f3c
000000a0: d77f bcbd 229d c839 5602 943d 796c 723c
000000b0: 1417 b13d d769 3c3d 047b 8bbd 43e8 073d
000000c0: 9dc9 e0bc 0020 783d 327b 483d b5fa 19bd
000000d0: 001f 26bd a582 4f3b 706a ccbb 819e 25bd
000000e0: c3e4 c73d c85a b83d b2d8 5b3e dd75 3a3e
000000f0: 65d0 173d 11b5 993d d44a bfbd 63e8 76bc
00000100: 0b64 8bbe 2872 0e3e 9c4e 79be c32c c7bd
00000110: 9363 6a3a bd73 c8bd 23df b5bd 9f85 e43c
00000120: 0876 ac3d 85fe 32bc fa5b 593d f84d 00bd
00000130: 08cd 8a3b 457b 913b 0760 5fbc 37df a53d
00000140: f4c0 573d 86cb 55bd 383e 20bd c9a3 2bbd
00000150: fad0 a2bc 2106 c23b 7ed3 443d 29d6 8ebd
00000160: 8228 95bc af66 373d f913 b6bd 3c1d e9bd
00000170: d353 ddbc 473b 55bc ede4 9a3d d28d 133d
00000180: 3919 373d eff9 3b3d 470e 8a3c 1ee4 38be
00000190: 4fa9 89be 45ed 55be b1ec debd cfd9 1e3e
000001a0: 30f4 d03d 969a 443e c61e 503e 270d 243e
000001b0: 42d5 26bd 0fe7 60be a028 21be f8d3 82be
000001c0: fcce 61be 43b1 5cbe 76f0 e13c ea30 89bb
000001d0: a69d 563d 9168 203e 397b 503e 5eaa 8a3e
000001e0: 0268 11be ff98 ccbd 52d4 80be ca27 023d
000001f0: 287a 1ebb 0ab9 03be 9550 e0bd e3f7 d7bd
00000200: 877b 37bd 81de c03c 5dbd e13c 2d61 11bd
00000210: 580b 9b3d c6a5 a1bb 4065 f7bc b798 bc3e
00000220: 1e9c cb3e 219c ee3e 3084 f9bc 528e bebe
00000230: d2a5 9ebe 2fff 06bd eae5 c4be 23b7 00be
00000240: e4a0 943c 0744 1c3d edba 853d d57c 2b3b
00000250: ec96 043b 1543 243d af32 473b 8e0b a0bc
00000260: 4f77 2f3d a796 8fbd 0922 98bd 58c0 3dbe
00000270: b7a4 bbbd 8457 45be 16fc 39be 3fa3 d5bc
00000280: 75c3 5dbd b52d 8fbc 3688 9d3e 3f7d 9e3d
00000290: 46f0 893e 2fc0 ebbc 4248 94bc 842d 2f3e
000002a0: d266 863d e118 61bd 9a29 a7bd 7f00 bc3d
000002b0: ab0a dbbc 3827 88bd c2ca 4b3c 28b2 eebd
000002c0: 73c0 76bd 5f60 6bbd 4f53 e43b cad5 28be
000002d0: cbdd 04bd 18a1 ac3c bb90 c63c c15c babd
000002e0: 37ce ccbd 393c 7cbd a518 44be 73fa 1abe
000002f0: b2cc a2bc c97a 92bc c066 39bd 7450 71bc
00000300: 7670 20bc 6f7d ee3c 9f75 cf3c db09 84bc
00000310: 1051 38bd 36cb 50ba 988f ab3b b722 833d
00000320: 0e8f 1b3d 57a2 b9bd 9e3a d0bc b23b a0bd
00000330: 9a37 b3bc 3fb0 9bbd 4148 193c 07a2 17be
00000340: ef6c f3bc 00a1 11bc eed4 cc3b 3cc6 d13c
00000350: b328 0dbe fdef 8fbc 52d2 a73d aa26 34be
00000360: c8b4 a5bd 5914 153d 0eca 97bd 03dc 6fbc
00000370: b273 793c 9944 b9bd 5a00 f33c 8a89 893c
00000380: 1d89 9ebd 0949 09bd 012e 1fbd 7191 e1bc
00000390: ff92 713d 1e7c 57bd e9db 3cbd 0283 a53d
000003a0: dc43 44bd ebcb c9bc 26e5 743c 5347 8f3e
000003b0: 1501 5f3d 51b2 8e3e becc e63e 1c22 c33e
000003c0: b694 603e 7771 a73e 56ae 833e 267a e23c
000003d0: 94e7 dbbd 03b1 9fbd 38bc d6bd ef32 3abe
000003e0: 0e25 6dbe 3c86 46be 3e97 7dbe 8529 a6be
000003f0: 5a98 f03c a129 92bd e68f fb3b 5701 f4ba
0.018307192 -0.098293595 -0.034345046 -0.04312768 -0.107471496 -0.023859825 -0.13946833 -0.040700432
-0.024538571 -0.21028669 -0.5121905 -0.18987148 -0.21107468 0.019520994 0.03824731 0.13560696
0.16917953 0.21583308 -0.009644034 0.03480652 0.028476968 -0.10425492 -0.0703403 -0.0394092
0.0043164054 0.011710666 0.046619166 -0.054130934 -0.14853625 -0.064951524 0.022231141 0.08462444
-0.04971833 0.06909751 -0.006382982 -0.040251076 0.06583524 -0.22747429 -0.27866605 0.019490467
-0.09204071 0.00038264046 0.07227008 0.01479637 0.0864698 0.045999374 -0.06810573 0.033180486
-0.027439887 0.060577393 0.048945613 -0.03759261 -0.040556908 0.0031663564 -0.0062382743 -0.040434364
0.0976043 0.0900169 0.21469381 0.18209024 0.037063975 0.07505239 -0.09340444 -0.015070054
-0.27224764 0.13910735 -0.24346393 -0.097253345 0.00089412293 -0.097877 -0.088804506 0.027895747
0.0842095 -0.01092494 0.05306623 -0.031324357 0.0042358674 0.0044397437 -0.013633735 0.080992155
0.05267425 -0.05219605 -0.039121836 -0.041904245 -0.019875038 0.005921141 0.048053257 -0.069744416
-0.018207792 0.04477566 -0.08890528 -0.11382529 -0.02701751 -0.013014621 0.075631954 0.036023922
0.04470179 0.045892652 0.016852511 -0.1805577 -0.26886985 -0.20891292 -0.10884989 0.15512775
0.10202825 0.19199595 0.20324239 0.16020642 -0.040730722 -0.21963142 -0.15738153 -0.25552344
-0.22051615 -0.21551995 0.027580481 -0.004186739 0.05239644 0.15664889 0.20359506 0.27083105
-0.14199832 -0.09990119 -0.25161988 0.031776227 -0.0024181698 -0.12863556 -0.1095287 -0.105453275
-0.04479554 0.023543598 0.027556116 -0.035493065 0.07570523 -0.004933092 -0.030199647 0.36835262
0.39767545 0.46603492 -0.03045854 -0.37217957 -0.30985886 -0.032958206 -0.3845666 -0.12569861
0.018143125 0.038150813 0.06529794 0.0026166935 0.0020231558 0.040103037 0.00303952 -0.01953676
0.04283839 -0.070111565 -0.07428367 -0.18530405 -0.09162276 -0.19271666 -0.1816257 -0.026078818
-0.05414148 -0.01747785 0.30767983 0.077387325 0.26941127 -0.028778164 -0.018100861 0.17107207
0.0656258 -0.054955367 -0.08162232 0.09179782 -0.026738485 -0.066481054 0.012438478 -0.11655074
-0.060242128 -0.057464954 0.006967939 -0.16487804 -0.03243808 0.02107291 0.024238935 -0.09099723
-0.1000027 -0.06158087 -0.19150026 -0.15134601 -0.019872997 -0.017880814 -0.045264006 -0.014728654
-0.009792438 0.029112546 0.02532464 -0.01611798 -0.044999182 -0.0007964851 0.0052356236 0.06403106
0.037978224 -0.09064167 -0.025418576 -0.07823886 -0.021877099 -0.07601976 0.009355606 -0.14807902
-0.02971503 -0.008888483 0.006250969 0.02560722 -0.13785057 -0.01757049 0.08194412 -0.17592874
-0.08091122 0.03639636 -0.07411586 -0.014639857 0.015225338 -0.09046287 0.029663254 0.016789217
-0.07740996 -0.033516917 -0.038862232 -0.027535172 0.058978077 -0.0526086 -0.04610816 0.080816284
-0.04791628 -0.024633368 0.014947211 0.27984104 0.05444439 0.2787042 0.4507808 0.3811196
0.21931729 0.32703754 0.25718945 0.027646136 -0.107375294 -0.07797434 -0.10485119 -0.18183492
-0.23158666 -0.19387144 -0.24764726 -0.32453552 0.029369522 -0.07136846 0.007677066 -0.0018616122

conv3.bias f4 [32]
00000000: c1b0 24bd 93f9 993d 3acb 29be 7270 3fbe
00000010: 201c 803e 35e4 7fbd 57b8 6bbd c24e 27be
00000020: ca0b 01bd 90a1 23bd 68bc 76bc 8c58 8ebe
00000030: d6a2 38be 9522 0abd 7155 5a3e f47e f03e
00000040: 9a00 e4bd 0d72 be3e 6262 1e3f 62a0 02be
00000050: a14d 84bd 34e0 813e 4ab3 d4bd 9c27 2abd
00000060: 8624 07be 91af 673d d018 70be 4691 9d3e
00000070: f49c ffbd 00c1 d6bd d80f 97bd 7592 7ebe
-0.04020763 0.07518306 -0.16581431 -0.18695238 0.25021458 -0.062473495 -0.057548847 -0.16338637
-0.031505384 -0.039949 -0.015059568 -0.2780193 -0.18030867 -0.033724386 0.21321656 0.46971858
-0.11132927 0.3719639 0.6186887 -0.12756494 -0.06460119 0.25366366 -0.10385759 -0.04154168
-0.13197526 0.056563918 -0.23446965 0.30774897 -0.12481108 -0.104860306 -0.07376069 -0.24860556

fc1.weight f4 [128, 512]
00000000: bb79 4cbd 352b 36bd d92a 22bd c9b3 58bc
00000010: ab90 11bd 6f2a 0a3c 0cf4 03bc 2020 da3b
00000020: 309b 04bd 1d05 11bd 894b 95bb 8642 70bc
00000030: d9a0 8f3c cbf1 2bbd 087e 69bd 85d2 c8bc
00000040: 60ea 9ebd ebf9 43bc 1229 4dbd 8ccd 3bbd
00000050: 12be bdbc cab1 b2bd 6b8f e0bd 93c6 43bb
00000060: 9b22 d7bc c768 943c ec45 1b3c 8504 c93c
00000070: 4ef8 b63a caab f03b f653 aebc 3c3a 86bb
00000080: 739d 44bd 5bf1 64bd 6d55 c1bc f954 a23b
00000090: 2444 13bc bda6 efbc 6714 a7bb 10a7 80bd
000000a0: b9f2 c43c dd11 43bd f5f0 f2bc 0547 abbc
000000b0: 111b 9ebd 0be1 473d 0771 17bd 8ae2 02bd
000000c0: 7943 1ebd 0f1d dcbb eafc 70bd 5e8a 1dbd
000000d0: c992 8abc 1cb5 f6bc c38e 9b3b ccb0 bf3b
000000e0: a2b3 ed3c e804 c3bb 10eb c4bb 1a30 3fbd
000000f0: ec94 2c3c b218 da3c 5035 283b 5075 ed3b
00000100: 86a9 77bd 76cd 8ebd 374d d8bb bfb3 87bd
00000110: 79de 44bd 08b4 a9bc 98c1 04bd eecd 75bd
00000120: 7ed5 973b 60a9 713d 5179 19bc 76a1 e5bc
00000130: 2c14 88bc 4e52 953d 9b52 9dbb d96a dabc
00000140: c72e 033d 001f ee3a 0893 b53b f081 a9bb
00000150: 8bdb 233d 3230 b63c 7001 18bd 5507 81bc
00000160: c2ba c13c 74c6 a4bc 6807 fdbb 6859 383c
00000170: 4a73 13bd b43f 86bd c986 0abd 66ea a23c
00000180: 8c46 18bc 5244 903c c0bb dabc 49d3 273d
00000190: 3cac 72bc 460a b23c e49c 873c 3afc 85bc
000001a0: e827 c4bc 802e 0bba 4fc6 133d e0b7 623b
000001b0: ecb2 033c b01b 3ebb 703f 53bc a451 a8bc
000001c0: 44ff 033c d28a e2bc 3e27 d7bc 723d d33c
000001d0: b824 e9bc 2c3a 22bc d845 e6bb dfe6 e7bc
000001e0: 18fb e43b 474d 103d 879d 2a3d 587b 703c
000001f0: 00dd 1ab9 e430 8dbc 7eda 00bd 1e6a ecbc
00000200: f1b1 8ebc 6814 883d 5a6b 91bc 2369 2ebc
00000210: 82f7 05bd ec56 3dbc 016e 493c a83c 403c
00000220: fa75 18bd 8c2a 5cbc 48c7 4ebd 4068 07bd
00000230: 1a63 083d 58d3 5bbd 2dc6 17bd 7159 f0bc
00000240: d803 f2bb 7e96 913c 689f 06bd 62c9 0ebd
00000250: 41e8 acbc d29e 1dbd 809b b5b9 afcf 9bbc
00000260: bb90 11bd 002d 54ba c6d8 c1bc 4044 b8bb
00000270: 0ac2 ec3c 1862 8ebc 4463 9dbc 8060 f1bb
00000280: bc57 5ebc defc 13bd 686c 913b cc37 c13c
00000290: 4800 763c 0f8b 84bc b0f0 933b 4119 e8bc
000002a0: fb7d 153d c099 fb3b 973b 2f3d bcad 1e3c
000002b0: 382a 05bd d404 e5bc a6ba cb3c b2b2 883c
000002c0: 4744 86bd e6fb 80bd 7439 183d c21c 22bd
000002d0: c47d 8abd dc53 84bd 1bc9 9cbd 84fb 38bd
000002e0: 1798 223d 2276 623c d735 bdb7 c572 8dbd
000002f0: 37cd ee3c a45e 23bd 1935 86bd 599a 9ebd
00000300: ad42 173d 60bb 003c 247e 32bc 9783 0b3d
00000310: 00e2 51bc 625e bc3c c022 b63b 0014 ed3a
00000320: 400d 69bb 2600 c9bc a63c 1cbd 6867 2abc
00000330: 5090 fa3b 38f8 8f3c d6fd 17bd 20db 1e3b
00000340: 3d9d 94bc 2378 aabc d0b0 ddbc a63b 05bd
00000350: 5618 883c db5c 8bbd c2ee 6bbd 395a 76bd
00000360: 2b60 db3b 4ba1 39bd c683 42bd 4e60 9ebd
00000370: ec5e 42bd faf8 56bd e391 7abd c2a9 abbd
00000380: 645e 63bd 1728 64bd eda3 b13b e3a9 76bd
00000390: 9dbf 88bd e609 78ba b40d 3abd fe6e 08bd
000003a0: 8cc1 e1bc 2a4b 8c3d d15b 6c3c 4f4c 473c
000003b0: 8ecf 4bbc c892 823c 7ceb 4e3d 9f2d d7bb
000003c0: 42bf 7ebd b46a 4ebd c993 4bbd f422 8ebd
000003d0: bbf9 b1bc 6b5c 42bd befe 7cbd c37f 04bd
000003e0: a634 8fbb 450f 82bd a0b2 46bd 1873 90bd
000003f0: 4875 96bd cc7c 89bd a7f3 6cbd a84c a1bd
-0.04992078 -0.0444748 -0.039591644 -0.013226458 -0.035538357 0.0084329685 -0.008053791 0.0066566616
-0.03237456 -0.035405267 -0.0045561236 -0.014664298 0.017532753 -0.04197864 -0.05700496 -0.024514446
-0.07759547 -0.011961441 -0.050087996 -0.04585032 -0.023161922 -0.08725317 -0.10964855 -0.0029872998
-0.026261618 0.018116368 0.00947712 0.024538288 0.0013959499 0.0073446976 -0.02128027 -0.0040962975
-0.048001718 -0.055894237 -0.023600304 0.004953977 -0.008988414 -0.029254312 -0.0050988677 -0.06281865
0.02404152 -0.047624458 -0.029655913 -0.020907888 -0.07720006 0.048798602 -0.036973026 -0.031954326
-0.038638566 -0.0067173312 -0.058834948 -0.038462035 -0.016915696 -0.030115657 0.004747243 0.0058499333
0.02901632 -0.0059515126 -0.006009467 -0.046676733 0.010533553 0.026623104 0.0025666542 0.0072466508
-0.060464405 -0.06972782 -0.0066010016 -0.06626081 -0.04806373 -0.020715728 -0.032411188 -0.060010843
0.0046336045 0.05899942 -0.009367303 -0.028031092 -0.016611181 0.07291089 -0.004801107 -0.026662277
0.032027032 0.0018167198 0.005541209 -0.0051729605 0.040004294 0.022239778 -0.037110746 -0.015750566
0.023648623 -0.020114161 -0.00772183 0.011251785 -0.03599862 -0.06555119 -0.033819947 0.01988716
-0.009294163 0.017610703 -0.026700854 0.04097298 -0.014811572 0.021733414 0.016554303 -0.016355623
-0.02394481 -0.0005309358 0.036077794 0.0034594461 0.008038264 -0.0029008202 -0.012893543 -0.020546742
0.008056466 -0.027654085 -0.02626383 0.025786135 -0.028459892 -0.009901565 -0.007027369 -0.02830833
0.0069879405 0.035229947 0.041654136 0.014677845 -0.00014768913 -0.017235227 -0.03145837 -0.028859194
-0.017418833 0.06644517 -0.017751385 -0.010645184 -0.032706745 -0.011556368 0.012294293 0.011733212
-0.037221886 -0.013437878 -0.05048302 -0.033058405 0.033297636 -0.05366835 -0.03705423 -0.029339524
-0.007385712 0.017771956 -0.032866865 -0.034860022 -0.021106841 -0.03848154 -0.00034638867 -0.01901993
-0.035538416 -0.0008093864 -0.023662936 -0.0056233704 0.028901119 -0.01738076 -0.019212373 -0.00736624
-0.013570722 -0.036129825 0.004437972 0.023586176 0.0150147155 -0.01617959 0.004514776 -0.028332355
0.036497097 0.0076782405 0.04278144 0.009684976 -0.032510966 -0.027956404 0.024869274 0.016686771
-0.065559916 -0.06298046 0.037164167 -0.039578207 -0.06762269 -0.064613074 -0.07655545 -0.04516174
0.039695825 0.01382211 -2.2555627e-05 -0.06906656 0.029150588 -0.03988518 -0.06553096 -0.07744283
0.03692882 0.007857174 -0.010894332 0.03406104 -0.01281023 0.022994224 0.0055583417 0.0018087626
-0.0035560876 -0.024536204 -0.038143776 -0.0104006305 0.007646598 0.017574415 -0.03710731 0.0024239495
-0.018141383 -0.020809239 -0.02706185 -0.03252759 0.016613167 -0.0680482 -0.057600744 -0.060144637
0.0066948137 -0.045319837 -0.04748895 -0.077332124 -0.047453806 -0.052483536 -0.061174285 -0.08381988
-0.05550994 -0.055702295 0.005421153 -0.06022061 -0.06677172 -0.0009461924 -0.045423225 -0.033308975
-0.02755811 0.06850274 0.014426188 0.0121641895 -0.012439622 0.015939131 0.050517544 -0.0065667178
-0.062194116 -0.05039473 -0.049701486 -0.069402605 -0.021725526 -0.047451418 -0.06176638 -0.032348406
-0.00437029 -0.06350569 -0.048510194 -0.070532024 -0.073465884 -0.06713256 -0.057849552 -0.07875949

fc1.bias f4 [128]
00000000: b8b3 33bc f220 5cbd 0574 ae3d 38df 85bd
00000010: 0abe 043d b717 f9bc 041d 01bd 9d1c c0bb
00000020: 4bf6 e73e ebb9 98bc 7b00 00bd 3276 973c
00000030: aaf9 77bd 180f 41bd 1d6e 8abd 86af 63bd
00000040: 3e4d 373e c2de dcbc 836c 293d c802 0dbe
00000050: 2425 d3bb 5817 61bd 47e2 6e3e 446c 34bc
00000060: d9db 2e3e 8084 c93c 5e42 903a a375 aebc
00000070: e92f 943e 5cce 5bbc 3d3a 6f3c 9071 16bd
00000080: 7a1f cfbc 0666 87bb a175 813d e0be ef3e
00000090: 485b 16bd 1936 2a3c 13c7 5dbd ba2f c43e
000000a0: f022 20bd 72e4 f5bc 64b5 2abd aa0d 50bd
000000b0: 0996 ed3e 5639 73bd ab3d 47bc f445 043c
000000c0: 3d93 45bb 0dbc 5c3e 7c35 72bd e8ee 803c
000000d0: 8dfe 683e 4d2f 6fbd f017 6abc 2fab 18bd
000000e0: 0377 463e 7b51 653c 2490 02bc 088f 9fbd
000000f0: a88f ff3a 64b7 a53e 54e2 0abb 1453 06bd
00000100: 1606 3ebd 4edb 8cbd 5180 85bd d1dc 5abd
00000110: 6588 19bd 77af 21bd b3cb a33e a49d e73e
00000120: 22f2 ab3d cb1a fcba e56e d5bb c974 bebc
00000130: 2a20 ad3e eaa7 60bd 1b29 ad3c 3efb 633e
00000140: 23c9 b9bb 541f 853c 4eb4 4dbd ab94 37bd
00000150: 19d3 f9bc ce45 60bd 041f 83bd 29b9 b4bc
00000160: 9d74 313f 08c1 4cbd a7b6 a9bd 1c10 d0bc
00000170: 921a a83b e860 57bd 9f17 82bd 2d14 5c3e
00000180: f14c fabb 0977 36be c9a2 173e feda 84bd
00000190: 6a80 1ebd 6d84 10bd 9f27 acbd 6e37 3cbe
000001a0: e83e c3b9 49e4 eb3b e1f3 5bbd e926 3ebb
000001b0: 5166 73bd e10b 8dbd e533 18bd 4cba 23ba
000001c0: a705 fb3d 7903 cb3b 8c02 39bb 3d55 68bd
000001d0: 653c 61bc bcc5 4d3d 8ac8 ae3c 524a c5bc
000001e0: ca5e 9dbc d9e8 9b3b ada5 603e 2f80 983a
000001f0: 7a3c 1e3e 0d0d 45bd ea7e ff3e c403 59bb
-0.010968141 -0.053742357 0.08518223 -0.06536716 0.032407798 -0.030406816 -0.031521812 -0.005862786
0.45305094 -0.01864334 -0.03125046 0.018488977 -0.060540833 -0.047133535 -0.06759284 -0.055587314
0.1790056 -0.026961688 0.04136325 -0.13770592 -0.0064436365 -0.054953903 0.23328505 -0.011012141
0.17076053 0.024599314 0.0011006107 -0.021296328 0.28942803 -0.013415899 0.014601287 -0.036729395
-0.025283564 -0.004132035 0.06321264 0.46825314 -0.036708146 0.010388874 -0.05414493 0.38317662
-0.03909582 -0.030016158 -0.041676894 -0.05079428 0.4640353 -0.05938085 -0.012160699 0.008073319
-0.0030147575 0.2155611 -0.059133038 0.01573892 0.22753353 -0.05839472 -0.014287934 -0.03727263
0.19381337 0.013996477 -0.007968936 -0.07790953 0.0019497769 0.32366478 -0.002119203 -0.032794073
-0.046392523 -0.068777665 -0.06518615 -0.053433243 -0.03748359 -0.039473977 0.31991348 0.45237458
0.083957925 -0.0019234059 -0.006513464 -0.023249047 0.33813602 -0.054847635 0.021137765 0.2226381
-0.0056697293 0.01625029 -0.05022078 -0.044819515 -0.030496167 -0.05475407 -0.064024 -0.022060947
0.6931856 -0.049988776 -0.08286791 -0.025398307 0.0051301206 -0.05258265 -0.063521616 0.21492071
-0.0076385667 -0.17818846 0.14808191 -0.06487082 -0.038696684 -0.03528254 -0.084059946 -0.1838052
-0.00037240167 0.0071988446 -0.053699378 -0.0029014891 -0.05942375 -0.06887031 -0.037158865 -0.0006245717
0.122569375 0.0061954823 -0.0028230278 -0.056721915 -0.013747309 0.050237402 0.021335859 -0.02408329
-0.019210238 0.004757982 0.219382 0.0011634881 0.15452757 -0.04810815 0.49901515 -0.0033113817

fc2.weight f4 [10, 128]
00000000: 1894 03be 17bd 533d 79de 43be 2531 e3bc
00000010: 0e41 3e3d 0dbc 15bc 4fb2 8bbd 1ca3 273d
00000020: 1f21 8dbe 179d b9bd 9388 a53d d389 473d
00000030: 350d 35bd 3939 9d3c 00e2 26bd 0966 33bd
00000040: d240 2bbe d06a 4a3d b04b 0bbe cab5 293e
00000050: 6d61 d1bd eefa 3fbd e550 8d3d c5f1 dbbd
00000060: cdfd 6ebe 44d5 34bd 9764 40bb 50a7 913e
00000070: a91a 073e 5fb9 ecbd 4234 763d 2434 d2bd
00000080: a5d4 6cbd 479f c7bc 01f8 cb3c 2517 56bc
00000090: 902c 51bd 8e69 8ab7 df19 aebd c040 f93d
000000a0: 9be9 87bd 9c32 9ebc a764 b7ba ad44 663d
000000b0: 1668 143d fa20 bcbc bec3 1cbd ebae 9abd
000000c0: dc56 8bbc 141a ddbc 3360 93bd 26ec 763d
000000d0: 35f3 11bd 5a9a 9bbd 7633 73bd 9a9b fabc
000000e0: 21a4 6c3d 6082 5c3d 13b3 57be aee4 243c
000000f0: 023c 7ebd 03c2 06bd 193b 9ebc 6e64 683d
00000100: a216 e23b c68f a73b 04d7 9f3d 8db0 94bd
00000110: dd1f 4c3d df72 63bd 4f6e 6cbb 7210 b8be
00000120: 4e37 8dbd 7b90 66be 3e86 b3bd d99f acbc
00000130: d4f1 ee3c aa0d 503c 3e5b bb3b 1a63 263e
00000140: 09a4 aa3c 977c 51bd 4abf 053d 77c3 98bd
00000150: 113c a4bd bc07 11bd b0ba 1dbd a04a 573d
00000160: 3b92 5d3d a571 113d b854 b5bd 0337 b1be
00000170: c6f6 07be 56c8 853d c43d d0bd 2210 fd3d
00000180: c37f 073c fdf8 9e3d c809 2a3c 23e9 bbbc
00000190: a11d bbbc 5546 cebd f279 9dbc 10f0 92be
000001a0: 8812 b23d d5de 1abe dea1 e6bd 895a e23c
000001b0: a159 aaba 489d 6ebd dc19 123d 8fb1 d0bd
000001c0: ff79 d2bd b5b4 aebc c7f7 c23c 29f7 9abd
000001d0: 350d 203d 6e63 63bd be6d 84bd 9093 023d
000001e0: bf66 383d 7408 47bc e5aa 9bbd 78eb 1abd
000001f0: dd10 3cbc 33bf 1ebd 98df 993d 960a e4bd
00000200: ed72 4ebb 8b00 403d 8037 e43d adc7 b43b
00000210: e7ab 833d 2401 ec3c 1d4f 31bd a84a bd3c
00000220: a2ba 1dbd a57c 6b3d 57da 1fbd 93c3 80bd
00000230: 18f8 29bd b30c e63c 3d07 b137 7685 6cbd
00000240: b4e4 46be 6d22 7f3d 2410 03bd 37d6 d1be
00000250: 7014 ab3c 7a8b eabc c7ca 83bc 0175 9cbc
00000260: 9945 06be c223 b2bc 0d73 b2bc 37bd 3bbe
00000270: 9f4f 3ebd 4104 5ebd 2859 bf3c 5f7b 24be
00000280: a8a9 6bbd d9e3 9cbd 1459 133e 89e5 14be
00000290: 7975 ee3c 5635 1e3d 9229 a0bc 7b80 773d
000002a0: adbb cabd cfcc f83c 65b3 f6bb fefc 85bd
000002b0: 6734 ccbe ec41 99bd fa51 ebbc f6ee 5dbd
000002c0: 7582 c63c dd21 20be 8399 e83c 3c7e 4ebd
000002d0: 1beb 313e 5723 97bc bc25 a6bd 2e9e 4cbd
000002e0: 5e38 56be 1b99 443d e1d8 8339 6fa2 b2bc
000002f0: 2ea6 163c 9207 70be fbf0 e43c 4d90 11bd
00000300: be30 aabd 8449 0bbc 60d9 2c3d 072c 88bd
00000310: 11d2 cebd b2ac c43c d95b f83c 64e0 86be
00000320: 9683 203e 143a 9abe afb1 1bbd 8079 1dbc
00000330: c7f4 16be 89a5 f8bc 6c6a 76bd 0f6a 083d
00000340: 0a29 9cbd 2129 513d decd f93b 041b 9ebc
00000350: 89ab 1ebc 5a05 b53b e91d de3c bdc8 9bbb
00000360: 6175 82be 74b9 8cbd ccad 043c f231 c0be
00000370: 51dd d2bd 6b0d 81bd f504 893c b6c5 693d
00000380: ca36 43bd b650 4a3d 6cdd f5be 524a 49be
00000390: d358 863d c4cf c6bd af48 b3bd 1ec7 d93e
000003a0: 285e 9dbd 7407 b13d 2e21 3abd cef9 463d
000003b0: d681 a3bd 0e97 bbbd d0d9 723d 94ba 5abd
000003c0: 16ac 41bd c074 dd3c 7d9b 21bd 4467 9bbd
000003d0: 1660 5bbd 8f3f f73c 590c bb3c 3297 6dbd
000003e0: 4d98 a2bd 935e 383d 8899 96bd b0b3 bf3a
000003f0: 8cbd eabb af17 34bd 6331 db3c b300 4cbd
-0.12849462 0.051694002 -0.19127835 -0.027733395 0.04644876 -0.009139073 -0.06821119 0.040927038
-0.27564332 -0.09063166 0.0808269 0.048715424 -0.04420205 0.019192325 -0.040742874 -0.04379848
-0.16723946 0.04941827 -0.13603091 0.16573253 -0.102236606 -0.046870165 0.06900195 -0.10739473
-0.23339005 -0.0441487 -0.0029356831 0.28447962 0.13193764 -0.11558794 0.06010843 -0.10263851
-0.05781998 -0.024367942 0.02489853 -0.0130670415 -0.05106789 -1.6500035e-05 -0.08501028 0.12170553
-0.066363536 -0.019311242 -0.0013991789 0.056217838 0.036232077 -0.022964943 -0.03827261 -0.07552894
-0.017009191 -0.026989974 -0.07196083 0.060283802 -0.03563233 -0.075977996 -0.05937525 -0.030591775
0.057773713 0.053835273 -0.21064405 0.010064287 -0.062068947 -0.032899868 -0.01931529 0.056736402
0.0068996707 0.0051135747 0.07804683 -0.07260237 0.049835075 -0.05552947 -0.0036076491 -0.35950047
-0.06895314 -0.22516052 -0.08765839 -0.021072315 0.029168047 0.01269857 0.005717664 0.16248742
0.020830171 -0.05114421 0.03265313 -0.07459157 -0.08019269 -0.035407767 -0.038508117 0.052561402
0.054094534 0.03550877 -0.088540494 -0.34612283 -0.1327773 0.06532352 -0.10168031 0.12356593
0.008270207 0.077623345 0.010378309 -0.022938317 -0.022841277 -0.100720085 -0.019223187 -0.28698778
0.08694941 -0.15124066 -0.112613425 0.027631061 -0.0012996682 -0.058255464 0.035669193 -0.101901166
-0.10277175 -0.021326402 0.02379979 -0.07566673 0.039075095 -0.055514745 -0.06466244 0.031879008
0.04501986 -0.0121480115 -0.07600955 -0.037822217 -0.01147863 -0.03875656 0.0751335 -0.111348316
-0.0031501607 0.046875518 0.11143398 0.0055169673 0.06429272 0.028809138 -0.04328834 0.023106888
-0.038508065 0.057491917 -0.039026584 -0.06287303 -0.041496366 0.028082227 2.1103415e-05 -0.057744466
-0.19423181 0.06228869 -0.031997815 -0.40983745 0.020883769 -0.02863096 -0.016087903 -0.01909876
-0.13112487 -0.021745566 -0.021783376 -0.18333898 -0.04646265 -0.054203276 0.023357943 -0.16062687
-0.057534844 -0.07660646 0.1438945 -0.14540686 0.02910875 0.038625084 -0.019551072 0.060425263
-0.098990776 0.030371098 -0.0075287097 -0.06542395 -0.3988373 -0.07483277 -0.028725613 -0.05418297
0.024232129 -0.15637918 0.028393513 -0.050413355 0.17374842 -0.018449469 -0.08112666 -0.04995554
-0.2091994 0.047997575 0.00025147854 -0.02180597 0.009194894 -0.23440388 0.02794694 -0.035538007
-0.08310078 -0.008501414 0.042199492 -0.066490225 -0.10098661 0.024008129 0.030317234 -0.2634307
0.15675196 -0.30122435 -0.03801125 -0.009611487 -0.14741813 -0.03035237 -0.060160086 0.03330427
-0.07625015 0.051064614 0.0076234182 -0.019299991 -0.009684452 0.0055243196 0.027113872 -0.0047541545
-0.25480178 -0.0687131 0.008098077 -0.37538105 -0.10296119 -0.063013874 0.016725997 0.057073317
-0.047659673 0.04939338 -0.48020494 -0.19657257 0.065599106 -0.09707597 -0.08754098 0.42534727
-0.076839745 0.08644 -0.0454418 0.048578076 -0.079837486 -0.09159671 0.059289753 -0.05340059
-0.047283255 0.02703321 -0.039454926 -0.07588056 -0.05355843 0.030181674 0.022833036 -0.05800552
-0.07939205 0.045012068 -0.073535025 0.0014625695 -0.007163709 -0.0439679 0.026756948 -0.049805354

fc2.bias f4 [10]
00000000: 6640 45be 9c4f ccbd 7ffa 90be f046 063e
00000010: bad2 3f3e 3cad 073d c57b 313e c279 6d3b
00000020: a2ba 1c3e cf3b 3abd
-0.19262847 -0.09976122 -0.28316113 0.13112998 0.1873273 0.033124194 0.1733237 0.0036235903
0.1530557 -0.045467194
