saved_models_20200625/rob_conv_net_fgsm.pth (torch_old, 292165 bytes, 10 tensors)

conv1.weight f4 [6, 3, 3, 3]
0	0xbd0307dc	-0.031989917
1	0xbd15f854	-0.036613777
2	0xbcc088a9	-0.023502665
3	0xbd1d2ed5	-0.03837474
4	0xbd25ad57	-0.040448513
5	0xbd00a6df	-0.03140914
6	0xbd389d2e	-0.045071773
7	0xbd2f620d	-0.042818118
8	0xbd0c44b3	-0.034245204
9	0xbacddade	-0.0015705486
10	0xbac79bf3	-0.0015228972
11	0x3a264061	0.00063419907
12	0xbb8190e6	-0.003954041
13	0xbb4c001b	-0.0031127993
14	0xbb1ebc60	-0.0024221167
15	0xbbbf9784	-0.0058469195
16	0xbba2f8b9	-0.0049734977
17	0xbb9eb21a	-0.0048430087
18	0x3e0a505c	0.13507217
19	0x3e0eace3	0.13933139
20	0x3e0fcbc2	0.14042571
21	0x3d4fb018	0.050705045
22	0x3d7349a9	0.05939642
23	0x3d68124a	0.056658067
24	0xbb90ccf9	-0.004418966
25	0x3b767a9e	0.0037609707
26	0x3bbb215d	0.0057107643
27	0x3c8a338e	0.016870286
28	0x3ca8759e	0.020563897
29	0x3c60d7ed	0.013723356
30	0x3cdb611d	0.026779706
31	0x3ce02c36	0.027364831
32	0x3cb8e36b	0.022569379
33	0x3cc5adef	0.02413079
34	0x3cd7572e	0.026286688
35	0x3c9ba090	0.01899746
36	0xbaa2e7fd	-0.0012428757
37	0xba742bdc	-0.0009314397
38	0xbb040577	-0.002014486
39	0xba0b12d3	-0.0005305234
40	0xba039f7d	-0.0005021019
41	0xba90462a	-0.0011007239
42	0xba372937	-0.00069870375
43	0xba282c53	-0.0006415296
44	0xbb030918	-0.0019994434
45	0x3d409f9a	0.047027208
46	0x3d5e1ab2	0.054224677
47	0x3d332d58	0.043744415
48	0x3d84e5b9	0.064891286
49	0x3d7f9807	0.062400844
50	0x3d5faaa9	0.054606114
51	0x3d016650	0.031591713
52	0x3d09ea23	0.033670556
53	0x3cd7e4a0	0.026354134
54	0x3c7a9625	0.015294586
55	0x3bab3c22	0.0052256742
56	0x3c4ef5f1	0.012631879
57	0x3cf16a69	0.029469686
58	0x3ce4ff1a	0.027953673
59	0x3cde1df5	0.027113894
60	0x3cc87bc8	0.024473086
61	0x3d239f8e	0.039947085
62	0x3ccdc697	0.02511911
63	0x3a7f337c	0.000973515
64	0xb9f04030	-0.0004582419
65	0xba318b3e	-0.0006772763
66	0x3a80dea6	0.0009831979
67	0x39d57b9a	0.00040718616
68	0xbaa9e671	-0.0012962354
69	0xba995405	-0.0011698013
70	0xbb08fbfe	-0.0020902152
71	0xbb65a7ee	-0.003504272
72	0xbce11e4e	-0.02748027
73	0xbdca4e67	-0.09878235
74	0xbd0a31aa	-0.03373877
75	0xbcb28173	-0.021790242
76	0xbd905242	-0.070469394
77	0xbd040c61	-0.032238368
78	0xbc5daf73	-0.0135306
79	0xbc53beae	-0.01292388
80	0xbc8879ec	-0.0166597
81	0xbcf86845	-0.030323157
82	0xbd43e044	-0.0478213
83	0xbccd27b2	-0.025043342
84	0xbd16eedb	-0.036848884
85	0xbd8eaff2	-0.06967153
86	0xbd15450d	-0.036442805
87	0xbce591a9	-0.028023558
88	0xbd418778	-0.047248334
89	0xbcd5ddf8	-0.02610682
90	0xbb2e7f45	-0.0026626152
91	0xbb44ab49	-0.003000932
92	0xbb344373	-0.0027506023
93	0xbb03c2de	-0.0020105164
94	0xbb141394	-0.0022594677
95	0xbb1c5316	-0.0023853234
96	0xbaf38965	-0.0018580375
97	0xbb074aa3	-0.0020643852
98	0xbaf25f30	-0.0018491503
99	0xbc4c3005	-0.012462621
100	0xbc91e757	-0.017810507
101	0xbc2f996d	-0.010717732
102	0xbc2af5ee	-0.010434611
103	0xbc93b5be	-0.018030997
104	0xbc423eee	-0.011855824
105	0xbc13a0f9	-0.009010547
106	0xbc833d3d	-0.016020412
107	0xbc275ddb	-0.010215248
108	0xbdf3d1f2	-0.11905278
109	0xbe0346ff	-0.12820052
110	0xbddbe5de	-0.10737203
111	0xbd0bad66	-0.034100913
112	0xbcf6d183	-0.0301292
113	0xbcb11887	-0.02161814
114	0x3d7f776c	0.06236975
115	0x3d8e58e1	0.06950546
116	0x3d829f1c	0.06378004
117	0xbbe26e06	-0.0069100885
118	0xbbb60fb0	-0.0055560693
119	0xbbb01629	-0.0053737354
120	0xbaf418c2	-0.0018623101
121	0x39fbd0a6	0.00048029906
122	0x3b3e6158	0.002904972
123	0x3a06c758	0.0005141399
124	0x3a5ef691	0.0008505369
125	0x3b836521	0.0040098582
126	0xbc346fca	-0.011012981
127	0xbb18405f	-0.0023231728
128	0xbbfb7607	-0.007673982
129	0x3c406a98	0.011744164
130	0x3caee85a	0.021351028
131	0x3caea29e	0.021317776
132	0x3d9600ec	0.073243946
133	0x3da3aa2a	0.079914406
134	0x3d9a281c	0.075271815
135	0x3c8c46df	0.017123638
136	0x3c70b191	0.014690773
137	0x3cb3db31	0.021955105
138	0x3c302c0c	0.010752689
139	0x3b1d3c3e	0.0023992206
140	0x3c6cdb53	0.014456588
141	0x3c29c67f	0.010362267
142	0x3c1ec887	0.009691364
143	0x3c80d2ed	0.015725577
144	0xbb053170	-0.0020323656
145	0xbb1cb199	-0.0023909567
146	0xbab33176	-0.0013671357
147	0xbb1b7c10	-0.002372507
148	0xbef1f9c6	-0.47260875
149	0xbb0ae13c	-0.002119138
150	0xbb76f056	-0.0037679872
151	0xbb609801	-0.003427029
152	0xbb7cae4a	-0.0038556033
153	0x3bdd592f	0.0067550163
154	0x3ba33059	0.0049801287
155	0x3c3adc94	0.011405129
156	0x3bb91dce	0.005649305
157	0x3a3d98d7	0.0007232553
158	0x3bfaef9f	0.0076579596
159	0x3bf5b33f	0.0074981744
160	0x3c0931d3	0.008373695
161	0x3c2d9a68	0.010595895

conv1.bias f4 [6]
0	0x3d98166a	0.0742615
1	0x3d1251d9	0.035722587
2	0x3db94480	0.090462685
3	0x3e35cc4b	0.17753713
4	0xbd909a76	-0.07060711
5	0x3e0f2909	0.13980497

conv2.weight f4 [16, 6, 3, 3]
0	0xbe01f59b	-0.12691347
1	0xbdc60554	-0.09668985
2	0x3d96b6ba	0.07359071
3	0xbe326f06	-0.17425165
4	0x3d0095b7	0.03139278
5	0x3dc6a0dd	0.09698651
6	0xbd2a40f0	-0.041565835
7	0x3b844007	0.004035953
8	0x3c5f86ae	0.01364295
9	0xbea5757b	-0.32316193
10	0xbe7c2b7c	-0.24625963
11	0x3eb1d4f3	0.3473278
12	0xbe40a7cb	-0.18814008
13	0x3da7654e	0.08173619
14	0x3e3c3c2f	0.18382333
15	0x3d5bfeb4	0.0537097
16	0x3d70b5ad	0.05876701
17	0x3d5e04b4	0.054203704
18	0x3c0c5f73	0.008567679
19	0x3ce08a32	0.027409647
20	0x3cb8852d	0.02252444
21	0x3d45c563	0.048283946
22	0x3c7140b1	0.014724896
23	0xbdb50869	-0.08839495
24	0x3d06e54d	0.032933522
25	0xbcee8b56	-0.029119175
26	0xbd24a238	-0.040193766
27	0x3e1676fe	0.1469383
28	0x3e14509d	0.14483877
29	0xbe9a70f5	-0.30164304
30	0x3e868ea5	0.26280704
31	0xbdd3fe98	-0.10351294
32	0xbea5948b	-0.32339892
33	0x3dae4107	0.08508497
34	0xbe12f5d0	-0.14351583
35	0xbdc094b3	-0.09403362
36	0xbdd35d26	-0.10320501
37	0x3d84c12e	0.064821586
38	0x3d650b31	0.055918876
39	0x3c7d6e24	0.015468154
40	0x3d07280c	0.032997176
41	0xbe241530	-0.16023707
42	0x3b0e0561	0.0021670687
43	0xbd51845b	-0.051151615
44	0xbdfa72de	-0.122289404
45	0x3dc141fd	0.094364144
46	0x3dcbcf65	0.09951667
47	0xbde98964	-0.11403158
48	0x3e0d55bc	0.13802236
49	0x3c080bdf	0.008303612
50	0xbe0f1ed9	-0.13976611
51	0x3cc9b13d	0.024620647
52	0xbd3bbc4c	-0.04583387
53	0xbd0af693	-0.033926558
54	0xbc8e7559	-0.01738994
55	0xbd370626	-0.044683598
56	0xbd374b1a	-0.044749357
57	0xbdf9a501	-0.12189675
58	0xbda0c0c9	-0.07849271
59	0xbd9084ab	-0.070565544
60	0xbd591bcb	-0.05300502
61	0xbdbf4cbf	-0.0934081
62	0xbd481762	-0.048850425
63	0xbd77af02	-0.060469635
64	0xbd7468db	-0.05967031
65	0xbdc9b935	-0.098497786
66	0xbd82fa23	-0.06395366
67	0xbe1427e6	-0.14468345
68	0xbdd9146a	-0.10599597
69	0xbda56576	-0.08075993
70	0xbd2db8da	-0.042412616
71	0xbdad28c4	-0.08455041
72	0x3dd5c191	0.104373105
73	0x3dcb869e	0.099377856
74	0x3e0f7ef1	0.14013268
75	0x3dbcbe91	0.09216035
76	0x3dd59b36	0.10429995
77	0x3e02c1d3	0.1276925
78	0x3c2777b9	0.010221415
79	0x3d2109e6	0.03931608
80	0x3cfb07fb	0.030643454
81	0x3dcdb8ae	0.100449905
82	0x3d853fa4	0.06506279
83	0x3daca37d	0.084296204
84	0x3d3d0ccf	0.046154793
85	0xbca25fb1	-0.01982102
86	0x3d1aaee2	0.037764437
87	0x3e011a88	0.12607777
88	0x3dc14155	0.09436289
89	0x3e36d64d	0.17855187
90	0x3d3fe5fe	0.046850197
91	0x3d07e89e	0.033180825
92	0x3d38714e	0.04502993
93	0x3d55d7ee	0.05220788
94	0x3d89345b	0.06699439
95	0x3d3b1f7f	0.045684334
96	0x3d8842f4	0.06653395
97	0x3d4dab58	0.050212234
98	0x3d59cb1f	0.053172227
99	0xbe8fba3a	-0.28071767
100	0xbebc612a	-0.3679288
101	0xbede13ef	-0.43374583
102	0xbe62d62f	-0.22152017
103	0xbe8e48a7	-0.27789804
104	0xbe98b27b	-0.2982367
105	0xbddcd35b	-0.107825
106	0xbe271f94	-0.1632064
107	0xbd99bc61	-0.075066335
108	0x3cb97ebd	0.022643441
109	0xbcf778d1	-0.030208977
110	0xbb8c1927	-0.0042754593
111	0xbd68fb8a	-0.05688051
112	0x3db4214f	0.087954156
113	0xbca7fbc5	-0.020505795
114	0xbdf82799	-0.12116928
115	0x3dfa62d5	0.12225882
116	0xbc97e5cc	-0.018542193
117	0xbd79b7fa	-0.06096647
118	0x3e10bdbf	0.14134882
119	0xbc6b11f8	-0.014347546
120	0xbea8b7e0	-0.32952785
121	0x3e992d1c	0.29917228
122	0xbb3abbca	-0.0028493279
123	0xbe3192a1	-0.1734109
124	0x3e29aba0	0.16569376
125	0xbc80a10a	-0.01570179
126	0xbcaf34e6	-0.021387529
127	0xbba13278	-0.0049193464
128	0xbbef5cf5	-0.0073047825
129	0x3d71225e	0.058870666
130	0xbde2a2ef	-0.11066233
131	0x3cbb5468	0.022867396
132	0x3d941a33	0.072315596
133	0xbdfac86f	-0.12245261
134	0xbc1bb91d	-0.009504584
135	0x3e1275ed	0.14302798
136	0xbe510eba	-0.20415774
137	0x3c2b59f2	0.010458456
138	0x3ed9a1fb	0.42506394
139	0xbf08d838	-0.53454924
140	0x3d3a6e0b	0.0455151
141	0x3eac2b18	0.33626628
142	0xbea928a3	-0.33038816
143	0xbd4eb6e8	-0.0504674
144	0xbdca953c	-0.098917454
145	0x3d9cf389	0.07663638
146	0x3ab58a2b	0.0013850381
147	0xbd97a414	-0.07404342
148	0xbcc69276	-0.02423976
149	0xbc92eaee	-0.017934289
150	0x3d41c900	0.04731083
151	0xbdbc1f88	-0.091857016
152	0xbcea9e67	-0.028639985
153	0x3dfb80fa	0.1228046
154	0xbd7ba753	-0.06143887
155	0xbc1e8ad7	-0.009676657
156	0x3ed2347a	0.4105566
157	0xbe91c2ad	-0.28468838
158	0xbd40339f	-0.04692423
159	0x3e801bd9	0.25021246
160	0xbe201083	-0.15631299
161	0xbd8ce0c8	-0.06878811
162	0xbd7a4eae	-0.06111019
163	0xbd2b3860	-0.04180181
164	0xbd0eb6c6	-0.034842275
165	0xbbc52c34	-0.0060172323
166	0xbe00ec07	-0.12590037
167	0xbd1d6888	-0.038429767
168	0x3d6453fa	0.05574415
169	0xbd39d003	-0.04536439
170	0xbde0d54c	-0.10978183
171	0xbd28af88	-0.041183025
172	0xbe0ff95f	-0.14059971
173	0x3dbcf1ca	0.09225805
174	0x3e595690	0.21224427
175	0xbe7b1848	-0.24520981
176	0xbe0931f9	-0.1339797
177	0x3e7f6315	0.2494014
178	0x3e1b1f9f	0.15148781
179	0xbdb47680	-0.088116646
180	0xbb93415d	-0.004493876
181	0xbc399698	-0.011327408
182	0xbc93dc01	-0.018049242
183	0xbbcb629d	-0.006206824
184	0xbc124472	-0.008927451
185	0xbc5bda6d	-0.013418776
186	0xbd0a5d4c	-0.03378038
187	0x3b9d052c	0.0047918763
188	0xbb241d69	-0.0025041944
189	0x3e1d40e5	0.15356787
190	0x3e24b507	0.16084681
191	0x3d6522d4	0.055941418
192	0x3dbd5d09	0.09246261
193	0x3e488e22	0.1958547
194	0x3dfaab7c	0.12239739
195	0xbd57912b	-0.052628677
196	0x3dbdc989	0.092669554
197	0x3dde262d	0.10847125
198	0x3c063a67	0.008192635
199	0xbd77f28c	-0.060534045
200	0xbc8639cb	-0.01638498
201	0x3ba1e75a	0.0049409093
202	0xbd0727d6	-0.032996975
203	0xbd02bfcf	-0.031921204
204	0xbcce1a61	-0.025159063
205	0xba9bb264	-0.0011878726
206	0x3c9a6eaf	0.018851606
207	0x3d6809cb	0.056649964
208	0x3d982633	0.07429161
209	0xb7f7f560	-2.9558956e-05
210	0x3cb50ba1	0.022100272
211	0x3ded0506	0.11573224
212	0x3d6c29ce	0.057657056
213	0xbd3fd972	-0.04683823
214	0x3d192d92	0.037396975
215	0x3d4ed6ac	0.050497696
216	0x3d4e3125	0.050339837
217	0x3d4163ff	0.047214504
218	0x3d27460e	0.040838294
219	0x3db2d4a5	0.08731965
220	0x3ce1251e	0.02748352
221	0xbd376fd7	-0.044784393
222	0x3cddf534	0.027094461
223	0xbdff37b8	-0.124617994
224	0xbd7d06a9	-0.06177393
225	0x3e4bca00	0.19901276
226	0x3e8234a5	0.2543079
227	0x3db44f8b	0.08804234
228	0x3e807e30	0.25096273
229	0xbe67641a	-0.2259678
230	0xbe9a979c	-0.30193794
231	0xbbe5e24a	-0.007015501
232	0xbe8afa35	-0.27144018
233	0x3e0ae29b	0.13563006
234	0x3c06793d	0.008207616
235	0x3c7ac04d	0.015304637
236	0x3cda31f5	0.02663515
237	0x3cb416df	0.021983562
238	0x3d2fb4bb	0.042896967
239	0x3ccc0eff	0.024909494
240	0x3d145c47	0.036220815
241	0x3d0cd7b9	0.034385417
242	0x3c9f114a	0.019417424
243	0xbe75c94f	-0.24002574
244	0xbda37f89	-0.0798331
245	0x3e016cdb	0.12639181
246	0xbdc3bb95	-0.09557263
247	0x3e2aad8c	0.16667765
248	0x3e0fef6f	0.1405618
249	0x3e0d8361	0.13819648
250	0x3e120e8f	0.14263366
251	0x3ce5275c	0.02797287
252	0x3d739f5b	0.059478145
253	0x3c7ca447	0.015420026
254	0x3aa28c08	0.0012401352
255	0x3c67c6cc	0.014146518

conv2.bias f4 [16]
0	0x3c5c2abf	0.013437926
1	0x3dea2747	0.11433273
2	0xbcd4eead	-0.025992716
3	0xbe5d18dd	-0.21591516
4	0xbe3cfe2b	-0.18456332
5	0xbda5f876	-0.08104031
6	0xbe19b9b0	-0.1501224
7	0xbd3fe19b	-0.046846014
8	0x3efb90f6	0.49134034
9	0x3ea2ae25	0.31773487
10	0xbdd10fb7	-0.102080755
11	0x3ddb1b5c	0.10698578
12	0xbdeac6a1	-0.11463667
13	0x3ee81f35	0.4533631
14	0x3e872ef7	0.2640302
15	0xbe3fa7f7	-0.18716417

conv3.weight f4 [32, 16, 3, 3]
0	0xbce80f90	-0.028327733
1	0xbdb59791	-0.088667996
2	0xbdc4d087	-0.09610086
3	0x3db98642	0.09058811
4	0xbd51395b	-0.05108009
5	0xbe4d7005	-0.20062263
6	0x3e308968	0.17239916
7	0xbe201ac3	-0.15635209
8	0xbe68d03f	-0.2273569
9	0xbe5c5571	-0.21516968
10	0xbd127968	-0.035760313
11	0xbe081e3d	-0.13292785
12	0xbe1a5ed9	-0.15075244
13	0xbba1f3ff	-0.0049424167
14	0xbe40a912	-0.18814495
15	0x3dc88b42	0.09792186
16	0x3eb82d0b	0.35971865
17	0x3ea90d7b	0.33018097
18	0xbc3b9a0f	-0.011450305
19	0x3c9b57b6	0.018962722
20	0x3c52cb6b	0.012865881
21	0x3d89577e	0.06706141
22	0xbc96c16d	-0.01840278
23	0xbe05db53	-0.13071947
24	0x3dc40d40	0.0957284
25	0x3d83c9d1	0.06434978
26	0xbd174d69	-0.03693906
27	0x3e6c2eb0	0.23064685
28	0x3d9e8d4c	0.07741794
29	0x3d779529	0.060444985
30	0x3cffa0c9	0.031204598
31	0x3a220ce8	0.0006181733
32	0x3e58c2fc	0.2116813
33	0xbd9848f4	-0.0743579
34	0xbe665688	-0.22493947
35	0xbe3306e0	-0.17483091
36	0x3d83ec51	0.06441558
37	0x3d23d7ed	0.040000845
38	0x3df0a48d	0.117501356
39	0xbe18e190	-0.14929795
40	0xbe8f0c04	-0.27938855
41	0xbe112200	-0.14173126
42	0x3d067770	0.03282875
43	0xbe04c728	-0.12966597
44	0xbda8dfe4	-0.08245829
45	0xbe7b959c	-0.2456879
46	0xbe105156	-0.14093527
47	0xbea91497	-0.3302352
48	0x3e4420a7	0.19153081
49	0x3eb79756	0.35857648
50	0x3ec54907	0.38532278
51	0xbd151e6e	-0.036405973
52	0xbabb0aa2	-0.0014270137
53	0x3de9c687	0.11414819
54	0xbd08cf74	-0.033400968
55	0x3dd987ac	0.106215805
56	0x3d6617cc	0.05617504
57	0xbe09996d	-0.13437434
58	0xbcfc664f	-0.030810503
59	0xbdd5abb2	-0.10433139
60	0x3d5e51a9	0.054277096
61	0x3e2d50bd	0.1692533
62	0x3e5fb206	0.21845254
63	0x3d18d6a6	0.03731408
64	0xbd2ff891	-0.04296166
65	0x3db11ebe	0.08648442
66	0xbcf2d343	-0.029641753
67	0xbd330f57	-0.0437158
68	0x3d967165	0.07345847
69	0xbd8f81f0	-0.070072055
70	0xbdaee5c9	-0.08539922
71	0x3cfbb28c	0.030724786
72	0xbdc732d9	-0.09726495
73	0xbe28a5f5	-0.16469558
74	0x3cae6e76	0.021292906
75	0x3e502920	0.20328188
76	0xbe0d433a	-0.13795176
77	0xbe843c8d	-0.25827447
78	0xbe46a406	-0.19398507
79	0xbd0276be	-0.031851523
80	0xbcbee335	-0.0233017
81	0xbcf41c92	-0.02979878
82	0x3c29eced	0.010371429
83	0x3e3404ad	0.17579909
84	0xbd67be34	-0.056577876
85	0xbe0998df	-0.13437222
86	0xbe718f22	-0.23589757
87	0x3c4d3710	0.012525335
88	0x3da83e50	0.0821501
89	0x3e1ff94f	0.15622447
90	0xbcad539f	-0.021158038
91	0x3d2f7d9c	0.0428444
92	0xbdd6881c	-0.104751796
93	0x3e21ec7b	0.15812866
94	0x3e3fcd3f	0.18730639
95	0x3e65022d	0.22364111
96	0xbd78dfcf	-0.060760316
97	0x3d79fce5	0.061032195
98	0xbcf9b675	-0.03048251
99	0x3e1a2206	0.15052041
100	0xbed0f950	-0.4081521
101	0x3dc0bafd	0.09410665
102	0xbeafc800	-0.34332275
103	0xbefbe79a	-0.49200135
104	0xbec58d7a	-0.385845
105	0x3ddb1b1c	0.1069853
106	0xbddc4139	-0.10754628
107	0xbe051142	-0.12994865
108	0xbbb38aca	-0.0054791914
109	0xbd12810c	-0.0357676
110	0x3d3d47d4	0.04621108
111	0xbb8aca6d	-0.004235557
112	0x3dd04c1d	0.101707675
113	0xbc84d3a3	-0.016214198
114	0x3d22c2ef	0.039736684
115	0x3d2ff904	0.04296209
116	0x3d9d7f9e	0.07690357
117	0xbd48bec6	-0.04901006
118	0xbe2f63b5	-0.17127879
119	0xbe74b4fb	-0.23897164
120	0x3ca29bf6	0.019849759
121	0xbdd7b382	-0.10532285
122	0xbe5b4a70	-0.21415114
123	0x3d78a4f6	0.060704194
124	0x3e051263	0.12995295
125	0x3e1c8174	0.15283757
126	0x3ca53a71	0.020169469
127	0x3c4a536b	0.01234899
128	0xbccab977	-0.02474664
129	0x3d91a9a7	0.07112437
130	0x3df34bf7	0.118797235
131	0x3d1b75d6	0.037954174
132	0xbcb5aae1	-0.022176208
133	0xbd47ec08	-0.04880908
134	0x3d319b43	0.04336096
135	0xbbe498da	-0.006976229
136	0xbc870e28	-0.016486242
137	0xbd0e01a2	-0.034669526
138	0xbd610942	-0.05494047
139	0xbda68595	-0.081309475
140	0xbdfd1176	-0.12356846
141	0xbd2538c2	-0.04033733
142	0xbd0cb6ce	-0.034354024
143	0xbdb8b440	-0.09018755
144	0x3b9e59aa	0.004832466
145	0x3ccd4da0	0.025061429
146	0x3cabd934	0.020977594
147	0x3d311256	0.043230377
148	0x3de6797b	0.11253639
149	0x3aec4e5b	0.0018028723
150	0xbdecdcd9	-0.11565561
151	0xbd73dc5c	-0.059536323
152	0xbe6b36de	-0.22970149
153	0x3da324c9	0.079660006
154	0xbafebce4	-0.0019434956
155	0xbd9060f8	-0.07049745
156	0xbd39293f	-0.04520535
157	0xbd460ac1	-0.0483501
158	0xbd374d26	-0.04475131
159	0x3c4b75e4	0.012418244
160	0xbc8bdff2	-0.017074559
161	0xbd8200b1	-0.06347788
162	0xbc7c88d6	-0.015413484
163	0x3dad1b20	0.08452439
164	0x3c47802e	0.0121765565
165	0xbcfd94f8	-0.030954823
166	0x3c458b57	0.012057147
167	0xbc017fab	-0.007903974
168	0xbc63e78e	-0.013910187
169	0xbd941c10	-0.07231915
170	0xbcd3a9e9	-0.025837855
171	0x3d2a175b	0.04152618
172	0xbdfa9398	-0.122351825
173	0xbe02ef91	-0.127867
174	0xbd8ba587	-0.06818681
175	0xbdb744f7	-0.08948701
176	0xbc21d519	-0.009877467
177	0x3c946100	0.01811266
178	0xbd801b75	-0.06255237
179	0x3ce89eea	0.028396089
180	0xbd78c0a8	-0.060730606
181	0x3d5021b4	0.05081339
182	0x3e1f7325	0.15571268
183	0xbdfa98d1	-0.12236179
184	0x3d656742	0.056006677
185	0xbc27126f	-0.010197266
186	0x3d68e5c4	0.056859747
187	0x3de32f6b	0.11093029
188	0x3dfa27b7	0.12214606
189	0x3e0d9004	0.13824469
190	0x3c0a88c1	0.008455456
191	0xbd17d4bc	-0.037068114
192	0x3cce07cb	0.0251502
193	0xbd49af95	-0.049239714
194	0xbe23e888	-0.16006672
195	0xbe299f88	-0.16564763
196	0xbe845ab0	-0.2585044
197	0xbeb85341	-0.36001018
198	0x3dc7f218	0.097629726
199	0x3db2eb48	0.087362826
200	0x3d502784	0.050818935
201	0x3b9b5547	0.0047403905
202	0x3c98dbb3	0.018659448
203	0x3c1f1cd4	0.009711463
204	0x3d59354c	0.053029343
205	0x3cdcef07	0.026969446
206	0x3c76c874	0.01506244
207	0x3d16aff8	0.03678891
208	0x3d0438c4	0.0322807
209	0x3d3ecaad	0.046580005
210	0x3b80a6a9	0.0039261174
211	0x3dbdb5fd	0.09263227
212	0x3d192a47	0.037393834
213	0xbe2062e4	-0.15662724
214	0xbd6938fe	-0.056939118
215	0xbcdef25e	-0.027215179
216	0xbe54a716	-0.20766863
217	0x3deca5bf	0.11555051
218	0xbce59d7e	-0.0280292
219	0x3cb42629	0.021990852
220	0x3d3781a0	0.044801354
221	0x3d434b33	0.047679137
222	0xbe01aa16	-0.12662539
223	0xbe1a135a	-0.15046445
224	0xbdc6a4a8	-0.096993744
225	0xbd0724c6	-0.032994054
226	0x3e9f669d	0.31132975
227	0x3ebc0177	0.36719868
228	0x3dc4c271	0.09607399
229	0x3ea9e207	0.33180258
230	0x3e91e3a8	0.28494
231	0xbecc96e1	-0.3995886
232	0xbeed981f	-0.46405122
233	0xbef7aec3	-0.4837552
234	0x3dcfb8cb	0.10142668
235	0xbd5aded6	-0.05343517
236	0xbdbd2f30	-0.09237516
237	0x3d82c00c	0.06384286
238	0xbcb4aa18	-0.022053763
239	0xbc7ceb6c	-0.015436988
240	0xbd22609a	-0.039642908
241	0xbd476b78	-0.048686475
242	0xbe18d346	-0.14924344
243	0xbbfb6f7e	-0.007673203
244	0x3ebc5868	0.367862
245	0xbe8dc1f1	-0.27687028
246	0xbd37ad12	-0.044842787
247	0xbc014fd0	-0.007892564
248	0xbdcbc14a	-0.09948976
249	0xbea473fc	-0.3211974
250	0xbf01a74f	-0.5064592
251	0xbab77134	-0.0013995529
252	0xbcba62a3	-0.022752112
253	0x3c99f08b	0.018791458
254	0x3c8b3ce2	0.016996805
255	0x3d66574f	0.056235608

conv3.bias f4 [32]
0	0xbddd95f7	-0.10819619
1	0xbdd0301b	-0.101654254
2	0xbcfaaf75	-0.030601243
3	0xbd8c93b2	-0.06864108
4	0xbdfd185c	-0.12358162
5	0xbd61e3e4	-0.055148974
6	0xbe188617	-0.14894901
7	0x3f214176	0.6299051
8	0xbd04d6d2	-0.03243143
9	0xbe6a6eb1	-0.22893788
10	0x3e536f47	0.20647918
11	0xbec27ea6	-0.3798725
12	0xbc9f69f0	-0.019459695
13	0xbd483b54	-0.048884705
14	0x3e216789	0.15762152
15	0xbe41b4c2	-0.1891661
16	0x3ebed04f	0.37268302
17	0xbd15991b	-0.036522966
18	0x3e343929	0.1759993
19	0x3e79a9a0	0.24381113
20	0xbdefc378	-0.117072046
21	0x3d087d7d	0.0333228
22	0xbeb9fe77	-0.36326954
23	0x3eae4360	0.34035778
24	0xbe848b67	-0.25887606
25	0x3ea8a78d	0.3294033
26	0xbcc1bff6	-0.023651104
27	0x3ecf15ad	0.40446225
28	0xbdc60f58	-0.09670895
29	0xbe3aa375	-0.18226416
30	0xbe061085	-0.13092239
31	0x3d35fcc4	0.04443051

fc1.weight f4 [128, 512]
0	0xbd1f38fc	-0.038872704
1	0xbd68857d	-0.05676793
2	0xbd6e6d86	-0.05820992
3	0xbd6ca252	-0.05777199
4	0xbd26b464	-0.040699378
5	0x3d6a6599	0.057225797
6	0xbd5a7b63	-0.053340327
7	0xbd619696	-0.05507525
8	0xbd94a953	-0.072588585
9	0xbdd8f62a	-0.10593827
10	0xbd960f6e	-0.07327162
11	0xbd5d7d3d	-0.054074515
12	0xbdc2220f	-0.094791524
13	0xbd36fe27	-0.044675972
14	0xbdafe6ea	-0.08588965
15	0xbd3114f6	-0.04323288
16	0xbcc05a2d	-0.0234805
17	0x3c5307e9	0.012880304
18	0xbc487bb3	-0.012236523
19	0xbd2047d3	-0.039130997
20	0xbd69d76a	-0.0570902
21	0x3c016642	0.007897915
22	0xbd2f0cc7	-0.042736795
23	0xbd68e572	-0.05685944
24	0xbd658637	-0.0560362
25	0xbcc56a4a	-0.024098534
26	0xbc121a39	-0.008917385
27	0xbc1f48f4	-0.009721983
28	0xbdb6cd82	-0.08925916
29	0xbdfa9d80	-0.12237072
30	0xbbbc7f4c	-0.0057524797
31	0xbbcf800a	-0.006332402
32	0xbd1f360f	-0.038869914
33	0xbc5cc572	-0.013474809
34	0xbd068590	-0.03284222
35	0xbc87bd57	-0.016569776
36	0xbd7d63db	-0.061862808
37	0x3cf2b745	0.029628405
38	0xbcb71e28	-0.022353247
39	0xbc2c74fd	-0.010525939
40	0xbd8d6536	-0.0690407
41	0xbcd37f52	-0.025817547
42	0xbd4b119f	-0.04957735
43	0xbd34d7b2	-0.044151016
44	0xbd245fad	-0.040130306
45	0xbcfef4be	-0.031122562
46	0xbd358cd3	-0.044323754
47	0xbccc09f0	-0.024907082
48	0x3d28cb8d	0.041209746
49	0x3bee7276	0.0072768284
50	0xbd52d03b	-0.051468115
51	0xbdb534d0	-0.08847964
52	0x3d268bbd	0.04066061
53	0xbc15e5aa	-0.009148994
54	0xbd87a4f3	-0.066232584
55	0xbb916721	-0.0044373428
56	0xbc02eae9	-0.007990577
57	0xba8e8ce0	-0.0010875724
58	0xbd3dce1c	-0.04633914
59	0xbc82ee9c	-0.015982918
60	0xbd93bbf0	-0.072135806
61	0xbd848e78	-0.06472486
62	0xbd30f224	-0.043199673
63	0xbca56c27	-0.020193173
64	0xbcb165a8	-0.021654919
65	0xbd29b391	-0.041431013
66	0xbd5b2122	-0.053498395
67	0xbd70c003	-0.058776867
68	0xba32ff88	-0.0006828238
69	0xbd962447	-0.07331138
70	0xbbecdc78	-0.0072284304
71	0xbdb40374	-0.08789721
72	0xbd38da98	-0.045130342
73	0xbd7610c5	-0.060074586
74	0xbc03d647	-0.008046693
75	0xbd5a69e2	-0.053323634
76	0xbcd652e3	-0.02616257
77	0xbd88d93a	-0.06682058
78	0xbc1cdceb	-0.009574155
79	0x3c5ad06a	0.013355354
80	0xbd6030cb	-0.054734033
81	0xbd5a0d41	-0.053235296
82	0xbc2bd5a1	-0.010487945
83	0xbcaf07b4	-0.021365978
84	0xbda11aae	-0.07866417
85	0xbd9e1618	-0.07719058
86	0xbd11134a	-0.035418786
87	0x3cdead08	0.027182117
88	0xbd89e134	-0.06732407
89	0xbdaa0c31	-0.083031066
90	0xbd3106f4	-0.04321952
91	0xbb443f5f	-0.0029944999
92	0xbdc6facc	-0.097158045
93	0xbd64227b	-0.055696946
94	0xbda05fdd	-0.078307845
95	0xbd466b94	-0.04844244
96	0xbc6d64d1	-0.014489369
97	0xbdc0eb96	-0.094199345
98	0x3bb169b0	0.0054142103
99	0x3b26cfce	0.002545345
100	0xbd75d462	-0.060016997
101	0x3c93ea68	0.01805611
102	0x3d638303	0.055544864
103	0xbb6caf6a	-0.0036115297
104	0xbd3ab209	-0.045579944
105	0xbcd54e7f	-0.026038406
106	0x3ba97f17	0.005172621
107	0xbd1ae2c4	-0.037813917
108	0xbd50b537	-0.05095407
109	0xbdb62f2a	-0.088957146
110	0xbd3b61d8	-0.045747608
111	0xbd50fa6a	-0.051020063
112	0xbd8a024c	-0.06738719
113	0xbd6bd302	-0.05757428
114	0xbdbe5322	-0.092932
115	0xbc2fd89a	-0.010732794
116	0xbd1340e8	-0.03595057
117	0xbde71deb	-0.11285003
118	0xbd4ac3ce	-0.04950314
119	0xbdb11639	-0.08646817
120	0xbd48047f	-0.048832413
121	0xbd5d84ed	-0.054081846
122	0xba204483	-0.00061137247
123	0xbd19df84	-0.037566677
124	0xbdb72dd5	-0.08944289
125	0xbd566951	-0.05234653
126	0xbddf6d2b	-0.10909494
127	0xbd9b1f86	-0.07574372
128	0xbce6741b	-0.028131535
129	0xbd01299b	-0.03153382
130	0xbc87b389	-0.016565101
131	0x3d05ff35	0.032714088
132	0xbce65a0b	-0.028119108
133	0x3bee5d3d	0.0072742985
134	0xbd36168b	-0.044455092
135	0xbd83d0f0	-0.06436336
136	0xb85430af	-5.059008e-05
137	0xbb8bd076	-0.004266794
138	0xbca9c363	-0.02072305
139	0xbd344165	-0.044007678
140	0x3b5a7268	0.0033332352
141	0xbd40c1a9	-0.04705969
142	0xbd5a9e1d	-0.053373445
143	0xbd03b576	-0.032155477
144	0xbdc30523	-0.09522464
145	0xbd9877e0	-0.07444739
146	0xbd6eabf7	-0.058269467
147	0xbda3139d	-0.07962725
148	0xbd16cc8f	-0.036816176
149	0xbd309d14	-0.04311855
150	0xbcdb3c1d	-0.026762063
151	0xbc808009	-0.015686052
152	0xbd6eb378	-0.058276623
153	0xbd8c9fa9	-0.0686639
154	0xbdb4adb0	-0.08822191
155	0xbbcca58e	-0.0062453216
156	0xbd9fcff2	-0.07803334
157	0xbdab3942	-0.083605304
158	0xbd9db7c3	-0.077010654
159	0xbda894dc	-0.08231518
160	0xbcccf457	-0.025018854
161	0xbcb0ee21	-0.021597924
162	0xbd17579b	-0.03694878
163	0x3bbb80c9	0.0057221395
164	0xbd81fac6	-0.06346659
165	0x3a5a6e14	0.0008332443
166	0xbbdb2a56	-0.0066883964
167	0xbd6e6437	-0.05820104
168	0xbcc52cf9	-0.024069296
169	0xbce91afd	-0.028455252
170	0xbd6a2986	-0.057168506
171	0x3caa36af	0.020778028
172	0xbd2d8fc6	-0.04237344
173	0xbd096b09	-0.033549342
174	0xbdde9067	-0.10867386
175	0xbd7edea4	-0.062224045
176	0xbd623048	-0.055221826
177	0xbcd17f26	-0.025573324
178	0xbda5639c	-0.080756396
179	0xbd5a5719	-0.05330572
180	0x3b9422b4	0.0045207385
181	0xbc3a6080	-0.011375546
182	0xbd8fe175	-0.070254244
183	0xbd1fdc3d	-0.039028395
184	0x3bbbaee8	0.0057276376
185	0xbd1b38bf	-0.037895914
186	0xbd472804	-0.048622146
187	0xbabd9491	-0.0014463832
188	0xbd683ff7	-0.056701627
189	0xbdb035f0	-0.08604038
190	0xbd8c8ed5	-0.068631805
191	0xbcf8f7de	-0.03039163
192	0xbd6ea30c	-0.058260962
193	0xbb97bdd7	-0.004630785
194	0xba81a09b	-0.0009889783
195	0xbda05fa8	-0.07830745
196	0x3ad10565	0.0015947042
197	0x3cfdde59	0.030989813
198	0xbcd735af	-0.026270716
199	0xbc462eaf	-0.012096091
200	0xbcf8b83e	-0.030361291
201	0xbd420592	-0.047368594
202	0xbdb1bc7a	-0.08678527
203	0xbcfdcbd3	-0.03098098
204	0xbb64b3af	-0.0034897139
205	0xbd8e087d	-0.06935213
206	0xbc368e09	-0.011142262
207	0x3d05dd11	0.03268153
208	0xbd40be45	-0.047056455
209	0xbdcbd7fa	-0.09953304
210	0xbdb2cb8c	-0.0873023
211	0x3cde6f8a	0.027152795
212	0x3d67ecc6	0.05662229
213	0x3ccc1bb5	0.024915555
214	0x3bbb69b9	0.00571939
215	0xbd1ce290	-0.038302004
216	0xbd6e3019	-0.05815134
217	0xbcec7e57	-0.028868837
218	0x3cb23ccd	0.021757508
219	0x3c600a3a	0.013674313
220	0xbd869023	-0.06570461
221	0xbd48bc3b	-0.049007636
222	0xbdc6b2a4	-0.09702042
223	0xbd4c59f9	-0.049890492
224	0x3b4ec741	0.003155187
225	0xbc535130	-0.012897775
226	0xbc78f0dd	-0.015194145
227	0xbd09a885	-0.03360798
228	0x3d791750	0.06081325
229	0x3c8a7ba0	0.016904652
230	0xbce5e02b	-0.028060993
231	0x3da29391	0.07938302
232	0xbc3b21e5	-0.011421655
233	0xbd052bcf	-0.032512482
234	0x3d2b933d	0.041888464
235	0xbd18338e	-0.03715854
236	0xbcc18339	-0.023622142
237	0x3ce35083	0.027748352
238	0xbcbee997	-0.023304744
239	0x3cbb76b4	0.02288375
240	0xbd46b3e0	-0.048511386
241	0xbda4c6cb	-0.08045729
242	0x3c2bcbc3	0.010485592
243	0xbd8a680e	-0.06758128
244	0xbce29a7d	-0.027661556
245	0xbdbb58c2	-0.091477886
246	0xbcbd8474	-0.023134448
247	0xbcf1098b	-0.029423496
248	0xbd4c2694	-0.04984148
249	0xbd9f156d	-0.077677585
250	0xbd7d195e	-0.06179177
251	0xbd5ca3d5	-0.05386718
252	0xbcc35848	-0.023845807
253	0xbd3df28f	-0.0463739
254	0xbd7f2e09	-0.062299762
255	0xbd4d537a	-0.050128438

fc1.bias f4 [128]
0	0xbc873a22	-0.016507212
1	0xbd14b79c	-0.036307916
2	0xbd7805de	-0.06055247
3	0x3d90e8a9	0.070756264
4	0x3e270d43	0.16313653
5	0xbd193b5b	-0.03741012
6	0xbdaabadb	-0.08336421
7	0xbe1f9f7a	-0.15588179
8	0xbc4fc8a7	-0.012682117
9	0xbc867244	-0.016411908
10	0xbd120e0a	-0.03565792
11	0xbc8acdee	-0.016943898
12	0x3e28c385	0.16480835
13	0xbdb2ebcc	-0.08736381
14	0x3ce1d635	0.027567962
15	0xbca7c10c	-0.020477794
16	0x3e3511bd	0.17682548
17	0xbd5c8d95	-0.05384596
18	0x3d68cd58	0.056836456
19	0x3eb3f5cc	0.35148466
20	0xbe882962	-0.26594073
21	0xbd5329f4	-0.05155368
22	0xbaf64044	-0.0018787463
23	0x3c7814c7	0.015141672
24	0x3e225f05	0.1585656
25	0x3f091418	0.53546286
26	0x3e7d7e07	0.24755107
27	0x3e652448	0.22377121
28	0xbda9bb70	-0.08287704
29	0xbc46244f	-0.012093618
30	0xbd5206bd	-0.051275957
31	0x3de364a6	0.111031815
32	0x3a946a1c	0.0011323127
33	0xbd57f492	-0.052723475
34	0xbe59e552	-0.21278885
35	0x3e974d0d	0.29550973
36	0xbd3c6be4	-0.04600133
37	0xbba9c3a4	-0.005180793
38	0xbd24f23a	-0.040270068
39	0xbdfdbe88	-0.123898566
40	0xbcbec3c6	-0.023286711
41	0x3d19130f	0.03737169
42	0xbd61ab23	-0.05509485
43	0xbc115d4b	-0.00887234
44	0xbe702393	-0.2345107
45	0xbdcef1dd	-0.101047255
46	0xbd34ad4e	-0.04411059
47	0xbd175392	-0.036944933
48	0x3b9708bc	0.0046091955
49	0x3c168b85	0.0091885375
50	0x3eef4238	0.46730208
51	0x3e592fa7	0.21209584
52	0xbd88479a	-0.06654282
53	0x3c756bff	0.014979362
54	0xbbfcaee2	-0.0077112773
55	0x3ca9652a	0.020678122
56	0xbd9f7c92	-0.07787432
57	0xbcb7bc39	-0.022428619
58	0x3b9cb783	0.0047826185
59	0xbd59a06f	-0.053131517
60	0xbd965501	-0.07340432
61	0xbd5c1782	-0.053733356
62	0xbb0757e1	-0.0020651745
63	0xbd02a13c	-0.031892046
64	0xbd75deec	-0.060027048
65	0x3f0a9349	0.5413099
66	0x3cc00f15	0.023444692
67	0xbd49c138	-0.049256533
68	0x3cf1db41	0.029523494
69	0xbd4470f7	-0.047959294
70	0x3d6d2751	0.057898823
71	0xbd3952eb	-0.045245092
72	0x3c063157	0.0081904745
73	0xbd685dea	-0.05673019
74	0xbd8b6170	-0.06805694
75	0xbd3bcbaa	-0.045848526
76	0xbd2062bf	-0.03915667
77	0xbe29c000	-0.16577148
78	0x3f0947ca	0.53625166
79	0xbd060528	-0.03271976
80	0xbd0ba89c	-0.034096345
81	0xbd25f98f	-0.0405212
82	0xbd866e94	-0.0656406
83	0xbdfb2ae7	-0.12264042
84	0x3e2d2ece	0.16912386
85	0x3dfb2971	0.12263764
86	0x3b84a479	0.004047927
87	0x3c6168b7	0.013757876
88	0xbbec0ebf	-0.0072039063
89	0x3baba078	0.005237635
90	0xbcdd7f89	-0.027038353
91	0x3ebc266a	0.36748058
92	0xbcf921bb	-0.030411592
93	0xbcd4eb7f	-0.0259912
94	0xbd845b25	-0.06462697
95	0xbb6ccc85	-0.0036132645
96	0x3a6b6c02	0.0008980633
97	0xbd60a147	-0.054841306
98	0xbea0904f	-0.313601
99	0x3af3721a	0.0018573434
100	0xbd4628cd	-0.048378754
101	0x3e769f16	0.24084124
102	0xbd6b9fd6	-0.05752548
103	0xbb0f322a	-0.0021849968
104	0x3e87f7c2	0.26556212
105	0x3ea23a64	0.31685174
106	0x3e2e9826	0.17050228
107	0x3e20357c	0.15645403
108	0xbcd72d3c	-0.026266687
109	0xbe360cd8	-0.17778337
110	0xbe344ecf	-0.17608188
111	0x3ea5f55e	0.32413763
112	0xbe03af02	-0.12859729
113	0x3c209a4e	0.009802414
114	0x3dcf2ed8	0.101163566
115	0xba34db71	-0.00068991544
116	0x3f0a598e	0.540429
117	0x3e0e090d	0.1387064
118	0x3e9f91c5	0.311659
119	0xbe07d326	-0.1326414
120	0xbd6fe00f	-0.05856329
121	0x3dec325a	0.11533041
122	0xbd4dd6f1	-0.050253812
123	0xbd7a9d68	-0.06118527
124	0x3e0ca228	0.13733733
125	0x3ecc89e1	0.39948943
126	0x3f146c8e	0.5797814
127	0x3e7f58d5	0.2493623

fc2.weight f4 [10, 128]
0	0xbd20c7c8	-0.039253026
1	0xbed250f1	-0.41077378
2	0xbdd66057	-0.10467594
3	0xbd1ca3fc	-0.038242325
4	0x3d08a661	0.033361796
5	0xbd0f6bf1	-0.03501505
6	0xbd7baee9	-0.061446104
7	0xbd98f1f1	-0.07468022
8	0xbd410616	-0.047124945
9	0xbda545f3	-0.080699824
10	0xbe99d46f	-0.30044886
11	0xbdda472b	-0.106581055
12	0x3d962e71	0.07333077
13	0x3bbe4038	0.0058059953
14	0xbd9d029a	-0.07666512
15	0xbdb15545	-0.08658842
16	0x3e7267b4	0.23672372
17	0xbc8e73bc	-0.01738917
18	0xbd19e73b	-0.037574034
19	0xbe6ba3e6	-0.23011741
20	0xbea1fd53	-0.31638584
21	0xbc15e7c5	-0.009149496
22	0x3d0935ad	0.033498455
23	0xbcb862a1	-0.022507967
24	0x3d02ca7a	0.031931378
25	0xbec3079a	-0.38091737
26	0x3de03f7e	0.1094961
27	0xbd3834b8	-0.04497215
28	0xbe12d5db	-0.14339392
29	0x3c61b51a	0.013776088
30	0xbc5c817c	-0.013458606
31	0xbe6ef1d6	-0.2333444
32	0xbcebc1eb	-0.02877899
33	0x3cb69e3a	0.022292245
34	0xbdbfb47a	-0.09360595
35	0x3d930e64	0.07180479
36	0xbcce8a2c	-0.02521237
37	0x3d7e5fd0	0.062103093
38	0x3d3bd8b5	0.045860965
39	0xbc56ca06	-0.01310969
40	0x3d0cb6c4	0.034353986
41	0xbe8dcab2	-0.27693707
42	0x3beff4c8	0.0073228814
43	0x3d29e3d8	0.041477054
44	0xbe12e4ff	-0.14345168
45	0xbdaf6c65	-0.085655965
46	0x3ce02f80	0.0273664
47	0xbd094781	-0.033515457
48	0x3cd8af81	0.026450874
49	0xbb33c388	-0.0027429778
50	0xbea91362	-0.330226
51	0xbc962e5a	-0.018332649
52	0xbdbee624	-0.093212396
53	0x3d273367	0.040820505
54	0x3dc30036	0.095215246
55	0xbcec7ec9	-0.02886905
56	0xbda6c0fb	-0.08142277
57	0xbd6bd0c3	-0.057572138
58	0xbda37d08	-0.07982832
59	0xbc4de1dc	-0.012566056
60	0xbdcb6c3e	-0.09932755
61	0x385dec0a	5.2910334e-05
62	0xbd160baa	-0.036632217
63	0x3d02314d	0.0317853
64	0xbe4d9428	-0.20076048
65	0x3d6dae23	0.058027398
66	0x3a52fcd7	0.00080485403
67	0xbda1acf4	-0.07894316
68	0x3d2fb4b5	0.042896945
69	0xbd608206	-0.0548115
70	0xbd61e4b7	-0.05514976
71	0x3d138329	0.036013756
72	0xbd9af02f	-0.07565343
73	0xbd295c7d	-0.04134797
74	0xbbaaf292	-0.005216905
75	0xbd715280	-0.05891657
76	0x3d172a59	0.03690562
77	0x3d4bed06	0.04978659
78	0x3e0c3c27	0.13694821
79	0xbd402fd9	-0.04692063
80	0xbe450997	-0.1924194
81	0xbb978e24	-0.004625099
82	0xbddb88d3	-0.107194565
83	0x3d3f239e	0.046664827
84	0xbe7e5965	-0.24838789
85	0xbe6a654b	-0.22890203
86	0xbd709a98	-0.058741182
87	0x3d903225	0.07040814
88	0xbd87f624	-0.066387445
89	0xbc727865	-0.014799212
90	0x3cb9e880	0.022693872
91	0x3dbfd378	0.09366506
92	0xb9b8cbad	-0.00035246965
93	0xbbd50e7f	-0.006501972
94	0xbda02088	-0.07818705
95	0xbc6f175d	-0.014592973
96	0x3da3deab	0.08001455
97	0x3c6e1958	0.01453241
98	0xbd59135d	-0.052996982
99	0xbda82cc6	-0.08211665
100	0xbdac5b53	-0.08415856
101	0xbe0a3f89	-0.13500799
102	0x3b89d0da	0.0042058052
103	0x3d13dbae	0.036098175
104	0x3ea5c1de	0.3237447
105	0xbcc01318	-0.023446605
106	0xbd5b4e09	-0.053541217
107	0xbda23b2a	-0.07921441
108	0xbd763d7a	-0.060117222
109	0xbc905eea	-0.017623384
110	0x3d08a40c	0.033359572
111	0xbc07f212	-0.00829746
112	0xbe39341d	-0.18086286
113	0xbd5b8094	-0.05358942
114	0x3e8b4837	0.27203533
115	0xbc9a4b06	-0.018834602
116	0xbe1eb508	-0.15498745
117	0x3d8a2ca0	0.06746793
118	0xbd968cf2	-0.07351102
119	0xbe2c91e8	-0.16852534
120	0x3ceded4e	0.02904382
121	0xbeb88fe6	-0.36047286
122	0x3cae4143	0.021271354
123	0x3d83b344	0.064306766
124	0xbe27b59c	-0.16377872
125	0xbded972f	-0.116011016
126	0xbdcb4f24	-0.09927204
127	0xbd932856	-0.07185428
128	0xbd517476	-0.051136456
129	0xbf1399a9	-0.5765634
130	0xbd90a34c	-0.070623964
131	0xbe425f1d	-0.18981595
132	0xbce59cb3	-0.028028822
133	0xbd5dfaf9	-0.054194424
134	0x3d747109	0.05967811
135	0xbe97ab11	-0.296227
136	0x3d8e3c09	0.069450445
137	0xbd776050	-0.060394585
138	0xbe4aaddf	-0.19792889
139	0x3cc0839c	0.023500256
140	0x3d84fcfa	0.06493564
141	0xbe898eec	-0.26866853
142	0xbd9eae14	-0.077480465
143	0x3a2a5bbb	0.0006498654
144	0x3cf8d840	0.030376554
145	0xbde3cf7e	-0.1112356
146	0xbed63288	-0.41835427
147	0x3dd9d733	0.10636749
148	0x3eef1da2	0.46702296
149	0xbd3fb1f5	-0.046800572
150	0xbdc8d949	-0.09807069
151	0xbd2fd265	-0.042925257
152	0xbc6921ff	-0.014229297
153	0xbdfe887f	-0.12428378
154	0x3d6896f6	0.056784593
155	0xbe3af833	-0.18258743
156	0xbe0dce85	-0.13848312
157	0xbdb22182	-0.08697797
158	0xbd123460	-0.03569448
159	0x3e240c86	0.16020402
160	0x3c4e80f5	0.012603988
161	0xbd875e3b	-0.0660977
162	0xbdafcc25	-0.08583859
163	0xbe560940	-0.20901966
164	0xbcf51d95	-0.029921332
165	0xbb95ddd0	-0.0045735613
166	0x3d431f95	0.04763754
167	0xbd2de1cd	-0.04245167
168	0xbb868397	-0.004105042
169	0xbef09f0c	-0.46996343
170	0x3cdbb0f6	0.02681778
171	0x3d343db3	0.044004153
172	0xbf692292	-0.91068375
173	0xbc383db4	-0.01124518
174	0xbd2ddc4a	-0.042446412
175	0x3d612f65	0.05497684
176	0xbd760fef	-0.06007379
177	0x3d9a8eec	0.075467914
178	0xbf13c370	-0.5772009
179	0xbe04364a	-0.12911335
180	0xbd201026	-0.0390779
181	0x37e0bd0f	2.6790918e-05
182	0x3e094e57	0.1340879
183	0x3d8fd2cd	0.07022629
184	0xbcaa578d	-0.0207937
185	0x3baa92eb	0.0052055023
186	0x3d206666	0.039160155
187	0xbd0273cb	-0.03184871
188	0x3da8caea	0.08241828
189	0xbd120ff6	-0.035659753
190	0xbc1c1095	-0.009525438
191	0xbd7db6d9	-0.061941955
192	0xbcb222d0	-0.021745116
193	0xbeb98c13	-0.3623968
194	0xbcb08b62	-0.021550838
195	0x3d0d7604	0.034536377
196	0x3e1dc6a7	0.15407811
197	0xbe0afa88	-0.13572133
198	0xbdafb01b	-0.08578511
199	0xbdb7e0c0	-0.089784145
200	0x3d7c15e4	0.061544314
201	0x3d210def	0.03931993
202	0x3cb6a24f	0.022294192
203	0xbdecab8e	-0.11556159
204	0x3d1ffca8	0.03905931
205	0x3d2cfa8b	0.042231124
206	0xbe56a09e	-0.20959708
207	0xbd906fb3	-0.07052555
208	0xbe2c0e11	-0.16802241
209	0xbcec8629	-0.028872566
210	0xbd847a34	-0.06468621
211	0xbe0af107	-0.13568507
212	0xbe8da78f	-0.276669
213	0xbe7a164d	-0.2442257
214	0xbd52d084	-0.051468387
215	0xbd003ace	-0.03130608
216	0xbd6a117a	-0.057145573
217	0x3d1695f1	0.03676409
218	0x3cac7c0d	0.021055246
219	0x3e1281c4	0.14307314
220	0xbd9789e4	-0.073993474
221	0xbdf2147e	-0.11820315
222	0xbcf38861	-0.029728116
223	0xbdb82b50	-0.08992636
224	0x3d128798	0.035773844
225	0xbdce2405	-0.10065464
226	0xbe12d926	-0.14340648
227	0x3b296e60	0.0025853142
228	0xbdbd2848	-0.09236199
229	0xbe5eebcc	-0.21769637
230	0x3d396579	0.045262787
231	0xbd880358	-0.06641263
232	0xbe92c11d	-0.2866296
233	0xbd7feb7e	-0.062480442
234	0x3d030c02	0.031993873
235	0xbe06c541	-0.13161184
236	0x3da7c61e	0.08192085
237	0x3d9fb2b0	0.07797754
238	0xbd71b8c0	-0.059014082
239	0xbd28b77f	-0.04119062
240	0xbf018043	-0.50586337
241	0xba271d74	-0.00063749333
242	0xbe3a08f0	-0.18167472
243	0xbdfdee45	-0.12398962
244	0xbebcc92b	-0.3687223
245	0xbe28a566	-0.16469344
246	0xbdd4f007	-0.10397344
247	0xbe9c4134	-0.30518496
248	0xbd122abe	-0.035685293
249	0xbec455a4	-0.3834659
250	0xbdb49c12	-0.088188305
251	0xbf3f398d	-0.7469719
252	0x3e6222d7	0.22083603
253	0xbd8da960	-0.06917071
254	0x3e0df68c	0.13863581
255	0xbd1e7274	-0.03868337

fc2.bias f4 [10]
0	0xbdfe8aa4	-0.12428787
1	0xbe2a3b26	-0.16624126
2	0xbe39383f	-0.18087862
3	0x3e4dee7b	0.20110504
4	0x3e850a1b	0.25984272
5	0xbe2c41e1	-0.16822006
6	0x3e9c9859	0.30584982
7	0xbe037c7d	-0.12840457
8	0x3d8e7a0b	0.069568716
9	0x3d37cdd9	0.044874046
